output/global_model.pth (torch, 251646 bytes, 10 tensors)

conv1.weight f4 [6, 3, 5, 5]
-0.10513808 0.00061769923 0.08945988 0.029891215 0.057885215 0.10358222 0.0109554995 0.03742025
-0.05362639 0.038304232 -0.06358695 -0.092009306 -0.008002075 -0.017731523 -0.03586176 0.106671885
-0.0040537724 -0.09543676 0.04031358 -0.025816137 -0.09597696 -0.058421228 -0.07866078 -0.019827347
0.0017478005 0.040958516 -0.05879333 0.100095764 -0.086980104 -0.05360657 -0.10952845 -0.06152337
-0.00031804515 -0.090768084 -0.11190529 -0.10771462 0.08360028 -0.032132827 -0.11268343 0.03322371
0.020574622 -0.020398457 0.038869835 0.04118878 -0.010793952 -0.0046160994 0.0028652009 -0.09927148
-0.053876795 -0.040087305 -0.010396926 0.063750625 -0.020728968 0.030332498 0.08072965 0.11094781
-0.014501322 -0.0057919314 -0.071393535 0.044868678 0.07206024 -0.10080272 0.071517944 -0.02818713
-0.10781372 -0.059901215 -0.028741457 -0.09680532 -0.036832176 -0.012960093 -0.044766873 -0.024362613
-0.09791534 0.061673958 0.114784025 -0.06027253 -0.0077233496 0.050722614 0.0953927 0.033599786
0.08254427 0.096935846 0.045728378 -0.00073755067 -0.051948808 0.10722045 0.047508344 0.056959465
0.075800546 0.08728614 0.021517899 0.037997004 -0.006437878 0.024959596 0.0723169 -0.023787523
0.088202834 -0.0037306312 -0.009647116 -0.102298565 -0.046668805 -0.005148103 0.10914043 -0.07812841
0.031935308 -0.025931213 -0.08356825 0.0025868374 0.09598896 0.07792632 -0.05334124 0.10313858
0.033299796 0.09928733 0.081524014 0.07474457 0.044716228 -0.04584256 -0.10034366 0.014979128
-0.10635357 0.028579485 -0.07139756 0.012023876 -0.027527254 0.057177596 0.098553434 0.053831227
-0.04723229 -0.10211797 0.057221252 0.023516502 0.08601533 0.08917296 0.06949843 0.07215081
-0.05903865 0.040157825 -0.104765385 0.07751099 -0.057337835 -0.050189625 -0.11059805 0.027579747
0.030345807 -0.023240173 0.07554488 -0.05810779 -0.012989704 0.05580122 0.044969145 0.0006984521
0.026190234 0.003066176 0.106145516 -0.05634497 0.05376485 -0.05563411 -0.007486862 0.06611237
0.09307633 0.038647056 0.02587883 0.09270791 -0.09113314 0.02336505 0.106170595 0.036093272
0.060087256 -0.044455506 0.008141459 -0.022391502 0.09721189 0.080475956 -0.023271572 -0.07223063
0.1104918 -0.04276687 -0.07953292 -0.003830887 -0.031284936 0.00433034 0.088919684 -0.066407695
0.04937466 -0.10140473 0.09933178 0.035838056 -0.028851476 -0.035212386 0.089573145 0.08380123
0.046006072 0.02909787 0.022468034 -0.035580434 -0.0016239305 0.07106884 0.044779524 0.030664235
-0.08224511 0.08617827 -0.024640577 0.0026634643 0.09757206 -0.05524257 -0.008708856 -0.027527384
-0.03992432 -0.07510523 0.060971715 -0.013720217 0.06455122 -0.09110594 -0.09226093 -0.041396778
0.05147046 0.106412396 -0.04214982 -0.07326177 -0.11247586 -0.013003165 -0.036334135 -0.01659265
0.0119146835 -0.08552471 -0.09194812 -0.024531644 0.024244089 -0.055649765 0.034512103 0.07252772
-0.10176107 -0.0077008232 0.022490991 -0.109016344 0.0950447 -0.055407986 0.0039931084 -0.067017704
-0.013903768 -0.010950764 -0.09306778 -0.019340493 0.050870277 0.07924311 -0.06153024 0.10272869
-0.05904702 0.08845116 0.03660033 0.10108797 -0.0017279178 -0.007122927 0.08620685 0.011796698
00000000: a252 d7bd 18ed 213a be36 b73d 6cde f43c
00000010: 0c19 6d3d ea22 d43d b27e 333c fa45 193d
00000020: 58a7 5bbd e6e4 1c3d e039 82bd 606f bcbd
00000030: 231b 03bc b341 91bc c8e3 12bd ca76 da3d
00000040: 82d5 84bb 5974 c3bd da1f 253d 5d7c d3bc
00000050: 928f c4bd 194b 6fbd e718 a1bd f66c a2bc
00000060: 7416 e53a 1ec4 273d 46d1 70bd 02ff cc3d
00000070: a022 b2bd 9092 5bbd 7450 e0bd eeff 7bbd
00000080: 4cbf a6b9 9ee4 b9bd 9a2e e5bd 7c99 dcbd
00000090: a036 ab3d b69d 03bd 92c6 e6bd 9615 083d
000000a0: 1c8c a83c aa1a a7bc fa35 1f3d 91b5 283d
000000b0: 1ed9 30bc a642 97bb 18c6 3b3b d94e cbbd
000000c0: eaad 5cbd 9632 24bd de57 2abc b08f 823d
000000d0: cccf a9bc dc7b f83c 9655 a53d 9b38 e33d
000000e0: f496 6dbc 3eca bdbb c636 92bd 38c8 373d
000000f0: 5294 933d a871 cebd 0078 923d b2e8 e6bc
00000100: 71cd dcbd fa5a 75bd 3473 ebbc de41 c6bd
00000110: 56dd 16bd 9256 54bc 785d 37bd 1a94 c7bc
00000120: d687 c8bd d59d 7c3d e313 eb3d 54e0 76bd
00000130: 2714 fdbb 84c2 4f3d 3f5d c33d ee9f 093d
00000140: f80c a93d 4d86 c63d ae4d 3b3d 3058 41ba
00000150: 46c8 54bd 6596 db3d 1c98 423d 544e 693d
00000160: 513d 9b3d 13c3 b23d 4e46 b03c bfa2 1b3d
00000170: d6f4 d2bb 1178 cc3c e21a 943d 0dde c2bc
00000180: b0a3 b43d 9b7d 74bb f00e 1ebc e981 d1bd
00000190: ca27 3fbd 6bb1 a8bb 0585 df3d ca01 a0bd
000001a0: 99ce 023d b26d d4bc d525 abbd ee87 293b
000001b0: dc95 c43d d697 9f3d 587c 5abd 523a d33d
000001c0: 5e65 083d 2857 cb3d 10f6 a63d ae13 993d
000001d0: 5d28 373d 68c5 3bbd fa80 cdbd 046b 753c
000001e0: e7cf d9bd 861f ea3c e238 92bd cbff 443c
000001f0: d680 e1bc 0e33 6a3d 62d6 c93d 227e 5c3d
00000200: a576 41bd 3a23 d1bd d560 6a3d aea5 c03c
00000210: ce28 b03d 50a0 b63d 3155 8e3d cec3 933d
00000220: 83d2 71bd 887c 243d 3c8f d6bd 15be 9e3d
00000230: 14db 6abd a393 4dbd 3b81 e2bd ecee e13c
00000240: c597 f83c 2d62 bebc 46b7 9a3d 6f02 6ebd
00000250: c4d2 54bc d28f 643d 9131 383d 5418 373a
00000260: e78c d63c e6f1 483b d262 d93d fcc9 66bd
00000270: 8838 5c3d 98e0 63bd 5a54 f5bb ec65 873d
00000280: ce9e be3d 604c 1e3d d7ff d33c a5dd bd3d
00000290: 03a4 babd 1068 bf3c f86f d93d 8ad6 133d
000002a0: 0e1e 763d fa16 36bd c163 053c 626e b7bc
000002b0: 0717 c73d 94d0 a43d 06a4 bebc a7ed 93bd
000002c0: 8649 e23d 502c 2fbd 28e2 a2bd 9e0f 7bbb
000002d0: a224 00bd 86e5 8d3b 861b b63d c200 88bd
000002e0: 153d 4a3d 48ad cfbd 766e cb3d edca 123d
000002f0: ee59 ecbc dd3a 10bd 2072 b73d fb9f ab3d
00000300: dd70 3c3d a85e ee3c e20e b83c cabc 11bd
00000310: 11da d4ba 8a8c 913d bc6a 373d 9033 fb3c
00000320: 2070 a8bd 3c7e b03d 09db c9bc 848d 2e3b
00000330: dcd3 c73d 0846 62bd 97af 0ebc 1c81 e1bc
00000340: af87 23bd c5d0 99bd 7abd 793d c3ca 60bc
00000350: 6e33 843d c095 babd 4cf3 bcbd ab8f 29bd
00000360: b0d2 523d beee d93d 4aa5 2cbd 440a 96bd
00000370: be59 e6bd 3a0b 55bc 1ad3 14bd 4fed 87bc
00000380: ce35 433c 9427 afbd 4c4f bcbd 96f6 c8bc
00000390: 8a9b c63c 02f1 63bd 905c 0d3d 6a89 943d
000003a0: 1c68 d0bd 3057 fcbb 073f b83c f643 dfbd
000003b0: cca6 c23d 7cf3 62bd 9fd8 823b 9440 89bd
000003c0: a1cc 63bc d56a 33bc 529a bebd f46f 9ebc
000003d0: 5a5d 503d 364a a23d 2207 7cbd 6b63 d23d
000003e0: 4adb 71bd e225 b53d 3aea 153d 3607 cf3d
000003f0: 4d7b e2ba 7167 e9bb 388d b03d f046 413c

conv1.bias f4 [6]
-0.11545411 -0.055595778 -0.09872137 0.10352792 -0.015686166 -0.1068498
00000000: 3473 ecbd 66b8 63bd 6e2e cabd 7206 d43d
00000010: 4680 80bc 11d4 dabd

conv2.weight f4 [16, 6, 5, 5]
0.029793672 -0.06342037 0.077637225 0.009943303 -0.044637233 -0.07973562 0.02549706 0.056241114
-0.024125291 -0.013063848 -0.0012080709 -0.05018078 0.00011156744 0.041153852 -0.04086905 -0.005596938
0.07455173 0.010363426 -0.048093505 -0.061386608 0.041575678 0.0056938673 -0.051026393 -0.008423853
0.06591415 -0.05352387 -0.03840866 0.03964729 -0.042876907 0.014635926 0.01911238 -0.0057121087
0.05709072 -0.0041871862 -0.073908515 -0.06880095 0.07147677 0.037370034 0.02156686 0.038902424
-0.04356237 -0.0033648664 0.0026371998 0.062264778 -0.04955454 -0.027337376 -0.07990339 -0.08379018
-0.029974401 -0.0059318747 -0.03599958 0.0012339104 -0.009944877 0.028051775 0.072043255 0.063896835
0.070662886 -0.040779345 0.006858761 -0.021468047 0.0027124807 -0.0690772 -0.05872135 -0.013239664
-0.034961727 -0.051324576 0.06103079 -0.064317614 -0.048651002 0.022844464 -0.0439501 -0.04045526
-0.053322844 0.0231448 -0.048417322 0.015498151 -0.016329145 -0.08000646 0.033152215 0.057019457
-0.025667472 0.02603932 -0.031238519 0.00801927 -0.027188316 0.06894112 -0.035850685 -0.04957714
0.04470039 -0.07845193 -0.051808666 -0.04560481 -0.034043804 0.03306137 -0.08637382 -0.026366828
-0.05415511 -0.00834202 -0.0012428851 -0.07737329 -0.030918412 -0.036924325 0.007123797 -0.008037982
0.0486349 0.059747808 0.045827657 0.015247288 -0.020786135 0.014085457 0.04515072 -0.047319815
-0.0003578862 0.07610537 -0.036232904 0.078912534 -0.043152217 0.07527017 0.05974276 0.076769486
0.022591231 0.07749243 -0.01652871 -0.077246316 -0.069268666 -0.07493135 -0.061809808 -0.051277086
-0.061834633 -0.027792465 0.06294447 0.070309184 0.054425944 0.025422387 -0.0667045 -0.033752926
-0.029275015 0.07343237 0.0028028986 -0.061537594 0.00060639135 0.057562027 2.5685644e-05 -0.041490585
-0.03705193 0.0774203 -0.012543407 0.08193169 -0.012181714 -0.02831611 -0.024908124 0.0287152
0.05256425 -0.07251573 -0.045336403 -0.05841369 0.02309841 0.0668218 -0.048062373 0.05994914
-0.0010260915 -0.029824656 0.009487615 0.024863709 0.026867134 0.04511509 -0.041667666 -0.016107539
0.031102134 -0.017716143 0.044833697 -0.07933529 0.006375003 0.034768004 -0.036841467 -0.044167206
-0.02008175 0.04576332 0.022480588 -0.07124146 -0.040350474 -0.07454 0.055611037 0.0039782203
-0.06912649 0.02202167 0.078440115 -0.009011792 -0.008942401 0.00015987654 -0.04156531 -0.045842595
0.035906203 0.05709319 -0.063547306 -0.036246 -0.03453683 -0.046817154 -0.064998835 -0.061197225
0.042703282 0.06871229 0.01959103 -0.07467185 0.036922716 0.0075868256 -0.042852074 0.07870017
-0.075276636 0.006198589 0.001478132 0.011347484 -0.055832576 0.045409285 0.07308134 0.039144546
0.0066238213 0.018137302 0.048272774 0.002118031 0.02331072 -0.020937895 -0.06939486 -0.074727744
0.004712629 0.054660775 -0.07840918 0.0076951464 0.0129290065 -0.023200985 0.07797648 0.024895288
0.036777377 -0.046735108 0.04619278 -0.024084937 -0.04282789 -0.011407228 0.075845584 -0.035963017
0.064916745 -0.06117765 -0.066731036 -0.0037138169 -0.047608733 0.06942113 0.022437628 -0.066552415
-0.0630942 -0.07228867 -0.022169089 -0.06729917 0.015566399 -0.03208304 -0.040468484 -0.017009284
00000000: dc11 f43c 8ae2 81bd 4400 9f3d 3ce9 223c
00000010: 88d5 36bd 6e4c a3bd 36df d03c 155d 663d
00000020: 67a2 c5bc c009 56bc 2258 9eba 5d8a 4dbd
00000030: 50f9 e938 f190 283d 4e66 27bd 8566 b7bb
00000040: 94ae 983d 5ccb 293c b2fd 44bd 8670 7bbd
00000050: 424b 2a3d 9f93 ba3b 0d01 51bd 3304 0abc
00000060: fffd 863d d83b 5bbd 6652 1dbd 3265 223d
00000070: b29f 2fbd 86cb 6f3c 9191 9c3c a42c bbbb
00000080: f5d7 693d aa34 89bb 595d 97bd 83e7 8cbd
00000090: 6a62 923d 5211 193d fcac b03c 2658 1f3d
000000a0: 756e 32bd 1785 5cbb dfd4 2c3b 5a09 7f3d
000000b0: b4f9 4abd a2f2 dfbc 63a4 a3bd 309a abbd
000000c0: e08c f5bc 2c60 c2bb 4c74 13bd 2abb a13a
000000d0: d6ef 22bc d6cc e53c 6a8b 933d 58dc 823d
000000e0: b4b7 903d 3e08 27bd 75bf e03b c2dd afbc
000000f0: e0c3 313b 5978 8dbd cc85 70bd 2deb 58bc
00000100: 0734 0fbd b839 52bd 6cfb 793d f4b8 83bd
00000110: 4646 47bd 5024 bb3c 0505 34bd 6ab4 25bd
00000120: 0e69 5abd 2a9a bd3c 3e51 46bd f5eb 7d3c
00000130: b3c4 85bc 6dda a3bd 9eca 073d 3c8d 693d
00000140: 9744 d2bc 6950 d53c ece7 ffbc 4263 033c
00000150: 08ba debc 0031 8d3d 2bd8 12bd 6611 4bbd
00000160: c217 373d 68ab a0bd 5335 54bd 1ccc 3abd
00000170: 8471 0bbd 5c6b 073d c2e4 b0bd 3fff d7bc
00000180: c0d1 5dbd f8ac 08bc 4ee8 a2ba e375 9ebd
00000190: 9c48 fdbc f63d 17bd be6e e93b bdb1 03bc
000001a0: 6435 473d 1eba 743d c8b5 3b3d c3cf 793c
000001b0: af47 aabc b0c6 663c f6ef 383d 6cd2 41bd
000001c0: aca2 bbb9 22dd 9b3d f468 14bd e59c a13d
000001d0: 61c0 30bd 3f27 9a3d d3b4 743d 5239 9d3d
000001e0: 3f11 b93c 5ab4 9e3d 3867 87bc 5133 9ebd
000001f0: bbdc 8dbd 9c75 99bd 482c 7dbd ec07 52bd
00000200: 5046 7dbd 06ad e3bc 08e9 803d 43fe 8f3d
00000210: bded 5e3d 9c42 d03c 5e9c 88bd 8240 0abd
00000220: 28d2 efbc b663 963d d6b0 373b d80e 7cbd
00000230: 3cf6 1e3a 29c6 6b3d 8077 d737 08f2 29bd
00000240: c4c3 17bd 898e 9e3d dd82 4dbc cdcb a73d
00000250: d095 47bc 30f7 e7bc 1f0c ccbc 243c eb3c
00000260: 9c4d 573d 2183 94bd aab2 39bd 3243 6fbd
00000270: e038 bd3c ded9 883d 0ddd 44bd 3b8d 753d
00000280: eb7d 86ba d652 f4bc f171 1b3c faae cb3c
00000290: 7718 dc3c 9aca 383d b7ab 2abd f5f3 83bc
000002a0: e7c9 fe3c 7221 91bc 8aa3 373d 8a7a a2bd
000002b0: 67e5 d03b e568 0e3d 14e7 16bd ace8 34bd
000002c0: 7b82 a4bc 5272 3b3d 3629 b83c 0be7 91bd
000002d0: 8a46 25bd 6da8 98bd 66c8 633d bb5b 823b
000002e0: 3092 8dbd ca66 b43c 36a5 a03d 32a6 13bc
000002f0: 2683 12bc 88a4 2739 6340 2abd 72c5 3bbd
00000300: 6212 133d 8cda 693d 1725 82bd b076 14bd
00000310: 7e76 0dbd 58c3 3fbd 1c1e 85bd f1a9 7abd
00000320: a3e9 2e3d 07b9 8c3d 5e7d a03c 8eed 98bd
00000330: 463c 173d e89a f83b a885 2fbd 8e2d a13d
00000340: a32a 9abd 891d cb3b e1bd c13a ccea 393c
00000350: b3b0 64bd 16ff 393d abab 953d 0856 203d
00000360: a40c d93b ae94 943c acb9 453d aace 0a3b
00000370: 20f6 be3c f385 abbc e41e 8ebd dc0a 99bd
00000380: 666c 9a3b fae3 5f3d fe94 a0bd 9127 fc3b
00000390: 2fd4 533c fe0f bebc 22b2 9f3d 34f1 cb3c
000003a0: e0a3 163d 506d 3fbd a434 3d3d c64d c5bc
000003b0: 4c6c 2fbd 62e5 3abc ee54 9b3d f54d 13bd
000003c0: 12f3 843d 6a95 7abd 48aa 88bd 8263 73bb
000003d0: 6001 43bd aa2c 8e3d 1ecf b73c a24c 88bd
000003e0: 8837 81bd 150c 94bd f39b b5bc 26d4 89bd
000003f0: 360a 7f3c 8169 03bd 48c2 25bd 0e57 8bbc

conv2.bias f4 [16]
0.042650953 -0.061569877 -0.037496205 0.026738945 0.015475857 -0.03252533 0.050637517 -0.05757565
-0.042770997 0.07749101 -0.0017544662 0.032045245 -0.06739875 0.061040174 -0.055677976 -0.0005431818
00000000: c4b2 2e3d b230 7cbd 9f95 19bd a20b db3c
00000010: 738e 7d3c 4839 05bd 4969 4f3d 72d4 6bbd
00000020: a430 2fbd 9bb3 9e3d 1ef6 e5ba e041 033d
00000030: 5b08 8abd 4305 7a3d 970e 64bd 5064 0eba

fc1.weight f4 [120, 400]
-0.022730082 -0.002462684 -0.03996258 0.017301083 0.011554884 0.03947504 -0.019004816 -0.03730735
-0.037658155 0.034067735 -0.01629204 -0.0044544255 -0.025580425 0.000523002 -0.0029574458 -0.04597165
0.044550188 0.045856282 0.000890724 -0.024755351 0.029991377 -0.014433799 0.035303622 -0.010313403
0.020392358 0.01040493 0.03170152 0.01292791 0.04423845 0.010060575 -0.039657973 -0.01915836
0.040648155 0.020791408 0.023214443 -0.034573637 -0.028682701 0.0024424545 -0.0060164337 0.033006847
0.04632409 0.039670676 -0.014806375 0.030294186 0.02879508 0.037132412 0.034041308 0.016027534
-0.012877049 -0.048369035 0.012796052 -0.0053092767 0.019094229 0.046749294 0.036613658 -0.033662044
0.02656237 -0.0003892756 -0.035222083 -0.032046862 -0.011867128 0.010478757 0.022511724 -0.045470428
-0.011755501 0.008611973 -0.051960632 0.03888297 0.010833285 -0.051551037 -0.00018805591 -0.001915177
0.004489591 -0.031555578 -0.012028375 0.03676385 0.027130399 0.00022811408 -0.0013656658 -0.036854155
-0.0040507317 -0.037098423 0.04148364 -0.0006451005 -0.0049007963 -0.05015464 -0.008220453 0.04756175
0.039398834 0.04696867 -0.023757696 0.02897598 0.032342978 -0.008621771 0.008846155 -0.03143815
0.0017900823 -0.04190685 -0.043811016 -0.0046488326 0.0069399937 -0.016158968 -0.045502402 -0.0035595768
-0.023628537 -0.045026913 -0.03795434 0.0057917153 -0.0021431714 -0.021545999 0.00087435043 0.029699203
0.007511406 0.027988303 -0.020342711 -0.037583746 -0.030764053 0.018263593 -0.013604602 -0.04596602
-0.048430018 -0.018588476 0.009520706 -0.018965695 0.014283318 0.045295954 -0.00445948 0.044663817
0.036345266 -0.026539482 0.012098625 -0.017065547 0.008171108 -0.013434179 0.04455127 -0.025624616
0.036563292 -0.014907658 -0.04445704 0.0019792826 -0.013885814 0.0032694289 0.038357817 0.046592712
-0.005544048 0.03439553 -0.008504478 -0.036999293 -0.0043268027 -0.014240566 0.007368456 -0.0060499273
0.018628925 0.039962217 -0.033185385 0.037599802 -0.039932884 -0.03733267 0.013037818 0.03702098
-0.027361073 0.00954977 -0.034061 -0.012489016 0.038636416 -0.03574101 -0.016126553 0.030399675
-0.025487922 -0.045410432 0.028351566 0.009229068 0.030312667 0.011342227 -0.038066782 -0.0075683193
-0.0328016 0.0026158309 0.016515192 -0.033838566 0.014205834 -0.033627182 -0.018106213 0.04346747
0.026740422 0.045759697 0.023319365 0.005183545 0.048067406 -0.050208516 -0.04033295 0.04350683
0.02398575 -0.048760034 -0.014673687 -0.042826418 0.049070314 0.027177019 -0.04402773 0.028984826
0.012064094 0.025688373 0.03217517 -0.028465465 -0.043615766 0.027446302 -0.0013925221 -0.04296623
-0.022765215 -0.009638912 -0.0069937 -0.048913687 0.022019671 -0.014174843 -0.003920393 -0.02219489
0.015030195 0.039198004 0.039918654 0.03507927 -0.011063496 0.0017018327 -0.010092155 0.038746007
0.015837055 0.017847523 -0.01244854 -0.0026618992 -0.0027002408 -0.03367021 0.0460786 -0.005485328
0.019243794 0.03339821 0.011900772 -0.0169583 -0.028913949 0.02129643 -0.019914037 0.038811013
-0.02324388 -0.0526703 0.015669236 0.014424943 -0.046368174 -0.015179766 0.0073265387 -0.005163703
-0.021206541 -0.011362156 -0.05053795 -0.014939081 0.014990796 0.015991703 -0.03232792 0.02256478
00000000: 7034 babc fb64 21bb cdaf 23bd 00bb 8d3c
00000010: b250 3d3c 94b0 213d fdaf 9bbc 98cf 18bd
00000020: 703f 1abd 9c8a 0b3d e276 85bc 6ef6 91bb
00000030: 0a8e d1bc 121a 093a b5d1 41bb c54c 3cbd
00000040: 427a 363d ccd3 3b3d 7a7f 693a bccb cabc
00000050: 7ab0 f53c be7b 6cbc 889a 103d 8cf9 28bc
00000060: e00d a73c 7179 2a3c 74d9 013d 96cf 533c
00000070: 6033 353d 1cd5 243c 6670 22bd fef1 9cbc
00000080: ae7e 263d be52 aa3c 372c be3c 169d 0dbd
00000090: fcf7 eabc 9611 203b 8125 c5bb 3032 073d
000000a0: 54be 3d3d b87d 223d 7096 72bc 832b f83c
000000b0: a9e3 eb3c 2818 183d e66e 0b3d 2d4c 833c
000000c0: 42fa 52bc 9c1e 46bd 88a6 513c 71f9 adbb
000000d0: 806b 9c3c 307c 3f3d 34f8 153d 36e1 09bd
000000e0: 5499 d93c b017 ccb9 0845 10bd 9243 03bd
000000f0: 586e 42bc 18af 2b3c 826a b83c 333f 3abd
00000100: 259a 40bc 3c19 0d3c acd4 54bd c043 1f3d
00000110: 177e 313c 2e27 53bd e030 45b9 ad06 fbba
00000120: 6b1d 933b 6c40 01bd a912 45bc b195 163d
00000130: 9240 de3c e831 6f39 2400 b3ba 62f4 16bd
00000140: 00bc 84bb 84f4 17bd c0ea 293d f61b 29ba
00000150: dc96 a0bb f46e 4dbd 14af 06bc 1cd0 423d
00000160: ac60 213d 3862 403d 809f c2bc 095f ed3c
00000170: 127a 043d 5442 0dbc 77ef 103c 4ac5 00bd
00000180: 32a1 ea3a 84a6 2bbd 2e73 33bd 3c55 98bb
00000190: e368 e33b d05f 84bc ba60 3abd ca47 69bb
000001a0: a290 c1bc 246e 38bd 0376 1bbd 6ec8 bd3b
000001b0: 7374 0cbb 3c81 b0bc aa34 653a be4b f33c
000001c0: 3e22 f63b ba47 e53c c2a5 a6bc 6af1 19bd
000001d0: e504 fcbc 889d 953c d6e5 5ebc de46 3cbd
000001e0: 8e5e 46bd dc46 98bc bcfc 1b3c f25d 9bbc
000001f0: 9404 6a3c 4088 393d d420 92bb 68f1 363d
00000200: c6de 143d 5469 d9bc 5039 463c 0ccd 8bbc
00000210: 1ce0 053c 081b 5cbc 647b 363d b7ea d1bc
00000220: 64c3 153d 403f 74bc 9618 36bd dab6 013b
00000230: 5381 63bc ea43 563b 161d 1d3d 00d8 3e3d
00000240: d8aa b5bb 54e2 0c3d 5e56 0bbc 928c 17bd
00000250: dac7 8dbb 4351 69bc 1773 f13b 783e c6bb
00000260: b09b 983c 6caf 233d 66ed 07bd 4002 1a3d
00000270: aa90 23bd 24ea 18bd 929c 553c 50a3 173d
00000280: 5424 e0bc a376 1c3c 8c83 0bbd bb9e 4cbc
00000290: 3841 1e3d 2a65 12bd d51b 84bc bd08 f93c
000002a0: 0ccc d0bc 4a00 3abd 8b41 e83c 8435 173c
000002b0: 4552 f83c c0d4 393c eaeb 1bbd aaff f7bb
000002c0: f85a 06bd 5c6e 2b3b de4a 873c 4f9a 0abd
000002d0: 96bf 683c a8bc 09bd 7b53 94bc f20a 323d
000002e0: bb0e db3c 856e 3b3d 4108 bf3c bada a93b
000002f0: 54e2 443d 72a7 4dbd 2a34 25bd 3834 323d
00000300: c37d c43c 9ab8 47bd e769 70bc c16a 2fbd
00000310: f4fd 483d 57a2 de3c 6c56 34bd 9671 ed3c
00000320: 7aa8 453c 6c70 d23c 1cca 033d 6830 e9bc
00000330: 72a6 32bd 11d7 e03c 4a85 b6ba 5cfd 2fbd
00000340: 1e7e babc 87ec 1dbc 682b e5bb b859 48bd
00000350: 9962 b43c 9a3d 68bc a476 80bb 0fd2 b5bc
00000360: 3541 763c 168e 203d be81 233d 48af 0f3d
00000370: aa43 35bc 0810 df3a 9159 25bc 22b4 1e3d
00000380: b6bc 813c f834 923c f6f4 4bbc 4273 2ebb
00000390: 86f6 30bb c6e9 09bd eabc 3c3d 44be b3bb
000003a0: 29a5 9d3c 90cc 083d 75fb 423c 22ec 8abc
000003b0: f2dc ecbc da75 ae3c c322 a3bc 4cf8 1e3d
000003c0: f369 bebc d0bc 57bd c55c 803c 9956 6c3c
000003d0: 8eec 3dbd 8eb4 78bc 7613 f03b 4834 a9bb
000003e0: 57b9 adbc 5628 3abc e200 4fbd 0cc3 74bc
000003f0: f59b 753c 0801 833c 486a 04bd c6d9 b83c

fc1.bias f4 [120]
-0.0044830404 0.008296235 0.014150662 -0.030006453 0.02963288 0.009444171 0.06338841 -0.017863188
-0.020105533 0.03926591 -0.03419286 0.0054946677 0.020100448 0.013770043 -0.015866213 0.030342929
-0.042092104 0.04535815 0.02950386 0.021274941 0.006148978 0.044621125 0.039344512 0.016513707
0.054071635 -0.022096131 -0.019734927 0.0151128825 0.04467591 -0.012008125 0.011910411 -0.038520865
0.02411291 0.0399756 0.030613936 0.011101416 0.03986284 0.0018232531 -0.02407985 0.0103707835
0.016777847 0.02032038 -0.0022006654 0.022543244 0.010034218 0.007101898 -0.032784466 -0.030433673
-0.052855976 0.037663028 -0.012964238 -0.032729402 0.037682027 -0.0058793416 -0.04183473 0.04333452
-0.0023836666 -0.0048984736 0.029833235 0.0014165824 0.008755373 0.00274945 -0.040663086 0.019882215
-0.034841035 0.006797056 0.03336434 0.022769682 0.028901719 -0.022598311 0.057271007 -0.02803603
-0.042542964 -0.027960783 0.039507072 -0.0016615046 0.06318708 0.027917761 -0.018718217 -0.048276942
0.0126947295 0.019220497 0.024930365 0.04441031 0.042242046 0.049430422 0.030727625 -0.008924115
-0.04276308 -0.023824083 0.033954937 -0.033616975 -0.0020209244 -0.054476164 0.0137103405 0.02381849
-0.04205417 -0.03002606 0.010651958 -0.023679802 -0.034733064 -0.04722189 0.01607655 -0.005661681
-0.043049596 0.013875934 0.006300564 -0.00022302824 0.04237342 -0.025970083 -0.04499878 -0.022132514
0.006261292 0.0062816767 0.050624613 -0.018716093 0.014332635 -0.042545937 0.03104693 0.034415737
00000000: 78e6 92bb efec 073c 2ed8 673c 18d0 f5bc
00000010: a7c0 f23c b9bb 1a3c c8d1 813d d255 92bc
00000020: 5cb4 a4bc 4ad5 203d d00d 0cbd 9d0c b43b
00000030: b2a9 a43c bf9b 613c dcf9 81bc bc91 f83c
00000040: c568 2cbd 78c9 393d 14b2 f13c c948 ae3c
00000050: 5e7d c93b a4c4 363d b627 213d c147 873c
00000060: 387a 5d3d f202 b5bc 24ab a1bc 069c 773c
00000070: 16fe 363d babd 44bc e223 433c 0ec8 1dbd
00000080: 7088 c53c 74bd 233d 14ca fa3c b7e2 353c
00000090: 3847 233d 39fa ee3a 1b43 c5bc 38ea 293c
000000a0: b271 893c ed76 a63c 0a39 10bb 9cac b83c
000000b0: 9066 243c 0ab7 e83b 0149 06bd 0a50 f9bc
000000c0: 827f 58bd 8c44 1a3d f567 54bc 440f 06bd
000000d0: 7858 1a3d 7ea7 c0bb e55a 2bbd 8a7f 313d
000000e0: 4a37 1cbb 6083 a0bb d464 f43c 9eac b93a
000000f0: b272 0f3c 1e30 343b 568e 26bd 07e0 a23c
00000100: 79b5 0ebd d7b9 de3b 0ca9 083d 7c87 ba3c
00000110: 4cc3 ec3c 1820 b9bc 0195 6a3d d1ab e5bc
00000120: 8841 2ebd 030e e5bc 2bd2 213d d8c6 d9ba
00000130: 3a68 813d cab3 e43c f256 99bc 0bbe 45bd
00000140: 8efd 4f3c 4e74 9d3c c43a cc3c 96e7 353d
00000150: ff05 2d3d 8e77 4a3d 80b8 fb3c 7436 12bc
00000160: 5728 2fbd b92a c3bc 5514 0b3d f4b1 09bd
00000170: 7c71 04bb 6622 5fbd 56a1 603c fe1e c33c
00000180: fe40 2cbd 36f9 f5bc 8d85 2e3c 25fc c1bc
00000190: 4244 0ebd be6b 41bd f8b2 833c 9f85 b9bb
000001a0: c654 30bd e357 633c f674 ce3b b0dc 69b9
000001b0: c08f 2d3d 36bf d4bc a450 38bd 3f4f b5bc
000001c0: 862b cd3b 86d6 cd3b c15b 4f3d 7e52 99bc
000001d0: 6ed3 6a3c a644 2ebd 2256 fe3c 84f7 0c3d

fc2.weight f4 [84, 120]
0.0025743502 0.054644533 0.042432994 -0.078314304 0.009709302 -0.030787274 -0.0074654864 -0.06794199
-0.063205704 0.041424364 0.053712405 0.029057395 -0.058891065 0.040103886 0.026671505 -0.055620767
-0.05252905 -0.0206751 -0.08864207 -0.019104708 -0.020494066 -0.017935457 -0.060957298 0.014228054
0.06274918 0.028323814 -0.06933819 0.03911888 0.0031708814 -0.08254766 0.034450665 -0.00069233263
0.009826212 -0.042828508 0.0049055144 -0.034924954 -0.08253664 -0.04625245 -0.08193211 -0.029491125
-0.04808853 0.057798766 -0.078199685 0.05514657 0.006301852 0.007699784 -0.036242463 -0.037603643
-0.023697801 -0.03423261 -0.07749786 0.019755332 -0.066724986 0.06873982 -0.059942514 0.03364493
0.081275046 0.050725784 0.0641965 -0.063189484 -0.060721874 0.052529156 0.08336867 -0.07225507
0.00054794806 -0.014871655 0.06290084 -0.059000153 0.051538106 0.005595624 0.07538783 0.07809403
-0.05026894 -0.040651098 0.0039915615 -0.04000617 0.025717348 -0.080807805 0.05570659 0.029776394
-0.058752332 0.04044172 0.080372676 -0.0618876 -0.03213542 -0.029376037 -0.042075507 -0.027875949
0.07786586 -0.041482985 -0.017848637 -0.09872985 -0.03486502 -0.033882063 -0.026282504 0.016999755
-0.06584068 0.04597357 0.06549749 -0.06806645 -0.016547635 0.049072932 -0.06454861 0.026254982
-0.012665591 0.08280164 -0.061509117 0.08312538 0.012295273 -0.08836608 0.08197964 -0.03778532
0.058789812 -0.030638326 0.08518784 -0.05915162 -0.048283942 -0.053437207 -0.0050631566 0.036064
0.07747637 -0.058558617 0.031917293 -0.07961853 0.02371256 -0.085516825 0.06902999 -0.0320279
-0.041121494 0.039372887 0.067910105 0.08081348 -0.055939086 0.0170247 0.021528903 0.08726911
-0.05711801 -0.04473356 -0.012384973 0.01231942 -0.09048686 0.04260602 0.051212277 -0.030604128
0.08627762 0.045646824 -0.056362025 0.050903708 -0.06547613 0.010875396 -0.049088366 0.028010597
-0.080420114 -0.02053936 -0.047862053 0.0015217757 0.05173682 -0.014507812 -0.025943642 0.03831311
0.021590881 0.060952805 0.054242924 0.0096608065 0.09039348 -0.0031274687 -0.023703314 -0.0101547185
0.06135621 -0.02619871 0.029940676 -0.033109665 -0.008477317 0.06102506 -0.0036573715 0.03506346
-0.07258347 0.028892204 0.00097595865 -0.086889446 0.087383516 -0.013627447 0.046277218 -0.006019789
-0.01749042 -0.0023252363 -0.08161989 -0.05324415 0.027281892 0.04870963 0.011204111 0.018519102
-0.047947377 0.07902554 0.05369328 0.042166967 -0.01836459 0.084672526 0.06311845 -0.07064851
0.054390617 -0.06151008 0.0061162626 0.0328277 0.07395916 -0.054513466 0.048648253 -0.027171427
0.022945825 -0.016893484 -0.04568106 -0.039388936 0.08366495 -0.057166703 0.04378482 0.08283531
0.040626086 0.0480674 0.030034745 0.062627435 0.06814145 -0.055207506 0.06485596 0.008536015
0.081594616 -0.04359462 -0.043803107 0.05105372 -0.03316753 -0.067415886 -0.05885099 0.052851558
0.049003594 0.06795876 0.021090806 0.086823225 0.030954162 0.012374512 -0.08082293 -0.092934504
-0.076074585 -0.079808116 0.028892154 -0.046867244 -0.05004199 -0.06037393 -0.022330184 0.027375184
-0.031047577 0.0028730156 0.009013936 0.071495056 0.07975656 0.024198651 0.08836438 -0.080922544
00000000: 6eb6 283b f2d2 5f3d 38ce 2d3d 4063 a0bd
00000010: c413 1f3c 9835 fcbc 0aa1 f4bb 2c25 8bbd
00000020: fe71 81bd 98ac 293d 8a01 5c3d c609 ee3c
00000030: c237 71bd f943 243d 337e da3c 9ad2 63bd
00000040: b328 57bd d45e a9bc f989 b5bd 7a81 9cbc
00000050: 2ce3 a7bc 61ed 92bc 5cae 79bd c91c 693c
00000060: a482 803d 5807 e83c 2e01 8ebd 1e3b 203d
00000070: 90ce 4f3b bf0e a9bd 241c 0d3d a87d 35ba
00000080: 1ffe 203c f26c 2fbd 70be a03b 780d 0fbd
00000090: f808 a9bd 3673 3dbd 06cc a7bd 5f97 f1bc
000000a0: 7af8 44bd 66be 6c3d 2827 a0bd 5fe1 613d
000000b0: c47f ce3b 784e fc3b fa72 14bd 4706 1abd
000000c0: e421 c2bc 7e37 0cbd 33b7 9ebd efd5 a13c
000000d0: 1ca7 88bd 76c7 8c3d 4886 75bd 44cf 093d
000000e0: 8873 a63d d7c5 4f3d 7479 833d 7d69 81bd
000000f0: 80b7 78bd d028 573d 31bd aa3d 77fa 93bd
00000100: 2ca4 0f3a 3ea8 73bc 28d2 803d 25aa 71bd
00000110: 9f19 533d 7f5b b73b ef64 9a3d c3ef 9f3d
00000120: cee6 4dbd c481 26bd a5cb 823b 82dd 23bd
00000130: 30ad d23c 907e a5bd 982c 643d a0ed f33c
00000140: 49a6 70bd 38a6 253d 6e9a a43d da7d 7dbd
00000150: 6ea0 03bd 04a6 f0bc 5e57 2cbd 1a5c e4bc
00000160: 2378 9f3d 10ea 29bd 4e37 92bc e032 cabd
00000170: a0ce 0ebd ebc7 0abd 684e d7bc 1243 8b3c
00000180: 7ad7 86bd c84e 3c3d 8c23 863d 6c66 8bbd
00000190: e88e 87bc b300 493d 1032 84bd b014 d73c
000001a0: 5783 4fbc e893 a93d fcf0 7bbd a43d aa3d
000001b0: 1d72 493c 46f9 b4bd f1e4 a73d c8c4 1abd
000001c0: 96cd 703d 3afd fabc f676 ae3d f848 72bd
000001d0: 62c5 45bd f9e0 5abd d6e8 a5bb d8b7 133d
000001e0: eeab 9e3d 29db 6fbd b5bb 023d 0a0f a3bd
000001f0: d840 c23c 7223 afbd 985f 8d3d b02f 03bd
00000200: 036f 28bd 7745 213d 7414 8b3d 8a81 a53d
00000210: 6220 65bd 6277 8b3c 625d b03c 26ba b23d
00000220: 93f4 69bd 8a3a 37bd 57ea 4abc 65d7 493c
00000230: 2d51 b9bd a683 2e3d f7c3 513d 82b5 fabc
00000240: 52b2 b03d 2af8 3a3d dedb 66bd 6880 503d
00000250: 5918 86bd b82e 323c e210 49bd 7b76 e53c
00000260: 4db3 a4bd 2942 a8bc 000b 44bd 5276 c73a
00000270: fde9 533d 2db2 6dbc c387 d4bc 35ee 1c3d
00000280: 5cdf b03c a6a9 793d d42d 5e3d 5c48 1e3c
00000290: 3820 b93d 38f6 4cbb 742d c2bc fa5f 26bc
000002a0: a650 7b3d ad9e d6bc 2646 f53c 009e 07bd
000002b0: 72e4 0abc 6af5 793d 83b0 6fbb b49e 0f3d
000002c0: a4a6 94bd 58af ec3c 7ad7 7f3a 18f3 b1bd
000002d0: 21f6 b23d a845 5fbc 2e8d 3d3d a641 c5bb
000002e0: 1248 8fbc fe62 18bb 5428 a7bd 8a16 5abd
000002f0: 467e df3c c083 473d 7391 373c 5fb5 973c
00000300: 7864 44bd 24d8 a13d 7ced 5b3d 45b7 2c3d
00000310: 5671 96bc ca68 ad3d 3f44 813d 2ab0 90bd
00000320: b2c8 5e3d fef1 7bbd ee6a c83b 5776 063d
00000330: e677 973d 8349 5fbd 6443 473d 9d96 debc
00000340: e2f8 bb3c 3464 8abc 101c 3bbd 4b56 21bd
00000350: 8858 ab3d a227 6abd b657 333d 8fa5 a93d
00000360: 8a67 263d 52e2 443d 6d0b f63c d042 803d
00000370: bf8d 8b3d 4421 62bd 34d3 843d a4da 0b3c
00000380: 141b a73d 4690 32bd e36a 33bd b51d 513d
00000390: adda 07bd 5711 8abd bc0d 71bd e07a 583d
000003a0: feb7 483d f62d 8b3d a0c6 ac3c 60d0 b13d
000003b0: 9593 fd3c 77be 4a3c 7e86 a5bd 7254 bebd
000003c0: fecc 9bbd 7072 a3bd 3daf ec3c def7 3fbd
000003d0: d4f8 4cbd a74a 77bd caed b6bc ec41 e03c
000003e0: 7d57 febc 3449 3c3b 30af 133c 006c 923d
000003f0: 6857 a33d 403c c63c 62f8 b43d b8ba a5bd

fc2.bias f4 [84]
0.04977838 -0.054950424 -0.085901335 -0.05231063 -0.059043847 0.001671724 0.041835263 0.08574191
0.006557126 -0.06768993 -0.07891753 0.034823425 0.06501052 0.0845644 0.02608087 0.03516274
-0.022065904 -0.08315609 0.022369701 -0.07327822 -0.041569762 -0.04509908 0.043853857 0.05419378
0.078589335 0.04342027 -0.037580974 0.09293583 0.0030665367 0.0084198695 -0.09024615 0.018115161
-0.04041221 0.058242977 0.03996444 0.06519693 -0.0683739 0.046433017 0.04000906 -0.03495988
-0.014297893 -0.03474153 0.04029605 0.03846083 0.061358247 0.012961722 -0.04443392 0.051587828
0.010450103 -0.07848644 0.08976443 -0.025132278 0.066840485 0.07052559 0.013467423 -0.08100928
0.03085098 0.045756616 -0.082059756 0.052067038 -0.005600867 0.038843647 0.018534916 0.048458464
0.03647031 -0.07299289 0.08329835 0.050464217 -0.06655972 -0.07381126 0.043269895 -0.02074848
0.024868423 0.08327716 0.051773507 0.012915498 0.0023573865 0.078159004 -0.07229082 -0.020712845
0.05438879 0.03565991 0.09595026 -0.024137221
00000000: 6ae4 4b3d b213 61bd 0aed afbd ac43 56bd
00000010: f6d7 71bd c01d db3a 745b 2b3d 7499 af3d
00000020: 29dd d63b 05a1 8abd 849f a1bd 02a3 0e3d
00000030: 3c24 853d 1a30 ad3d 8ca7 d53c ce06 103d
00000040: 8ec3 b4bc bd4d aabd aa40 b73c e412 96bd
00000050: 0e45 2abd d0b9 38bd 1aa0 333d 4cfa 5d3d
00000060: 72f3 a03d 74d9 313d 82ee 19bd 2455 be3d
00000070: f3f7 483b 7ef3 093c f9d2 b8bd 3f66 943c
00000080: 4687 25bd 3090 6e3d c1b1 233d f885 853d
00000090: 9e07 8cbd 8c30 3e3d 8ae0 233d 1732 0fbd
000000a0: b641 6abc 224d 0ebd 790d 253d 1a89 1d3d
000000b0: c952 7b3d 675d 543c 5800 36bd c24d 533d
000000c0: e936 2b3c 80bd a0bd 6ad6 b73d 35e2 cdbc
000000d0: aae3 883d b86f 903d 77a6 5c3c 32e8 a5bd
000000e0: 32bb fc3c 4a6b 3b3d f20e a8bd 3f44 553d
000000f0: 7a87 b7bb 841a 1f3d 89d6 973c 627c 463d
00000100: e461 153d 4c7d 95bd 5398 aa3d 91b3 4e3d
00000110: 7650 88bd 5c2a 97bd c63b 313d b7f8 a9bc
00000120: ddb8 cb3c 378d aa3d 7510 543d 869b 533c
00000130: 627e 1a3b d411 a03d 360d 94bd fcad a9bc
00000140: c8c6 5e3d 2010 123d 9281 c43d 6cbb c5bc

fc3.weight f4 [10, 84]
-0.012559969 -0.011932502 0.08147112 0.07550183 -0.008325094 0.004015279 -0.08798212 -0.043967746
0.0054464187 -0.061128415 -0.02661796 0.030031674 0.01142473 0.0010495074 -0.105102435 0.104751706
-0.05350899 0.03356822 -0.016777972 -0.081937104 0.010848021 0.10100067 0.035820734 0.045450676
-0.04307724 -0.024255514 -0.101287365 -0.06743976 -0.045904208 -0.042621568 -0.0702187 0.102122195
0.050945166 0.03536367 -0.10429175 -0.047729947 0.06274827 -0.046962492 -0.011196892 0.07020614
-0.09681381 -0.05925452 0.014785358 0.09810619 -0.00653808 0.06512909 0.080500215 0.032902468
0.0590522 -0.060989946 -0.103909165 0.0764565 -0.006987089 -0.1115884 0.086468995 -0.063154
0.082908586 -0.028788464 -0.05778317 0.07376136 -0.046232317 0.07913016 0.07731709 -0.04009701
0.060542185 -0.014642122 0.10354735 0.016980864 -0.07650705 -0.08551827 -0.06438912 -0.08328204
0.04722619 0.011746805 0.030612126 0.033418916 0.05187025 -0.023047758 0.01799688 0.04532729
0.06435977 -0.09232654 -0.052279174 -0.034576036 0.044076256 -0.011418067 0.09160943 -0.036858134
0.04253476 0.012174562 -0.008472422 -0.09838502 -0.028870355 0.055136852 0.03853789 -0.030025605
-0.023941442 -0.09452687 -0.020534258 0.073210225 0.09544198 -0.06190443 -0.07337372 -0.054561213
-0.09888387 -0.10523642 0.06053393 -0.10315205 -0.05809214 0.064266056 -0.08866967 0.04239493
-0.044582907 0.051874515 -0.03826794 -0.04390352 0.007949611 -0.076298974 -0.05787783 0.06944554
-0.035331555 0.029987555 -0.050765425 -0.07301449 0.0070380503 0.06664688 0.038013697 -0.02474868
0.06697152 0.06459625 -0.040156923 -0.09242609 -0.071195126 0.0029569818 0.10559738 0.075110584
-0.054756798 0.09299128 -0.06487067 0.00457177 0.107200176 0.035991315 0.033094525 0.09489465
0.0053007146 -0.04191169 -0.068635486 0.10558371 -0.011882881 -0.06614739 0.105840534 0.017697237
0.023035305 -0.007054574 -0.0068988143 0.03576677 0.011962126 -0.109324105 -0.117889315 0.029697295
0.015203642 0.0026231774 -0.06376214 -0.033112675 -0.043865643 0.04261008 -0.07208033 -0.064828
0.06949709 -0.09379665 0.03866583 0.026077688 0.06842119 0.0731466 0.08065987 0.059805762
-0.05553476 -0.049024373 0.09118859 0.039306175 0.03286153 -0.016805928 0.0599054 -0.025056433
0.098543614 0.03271109 -0.06190847 -0.11027177 -0.10826397 0.045554638 0.01120387 0.10272826
-0.06337501 -0.065383606 -0.09384726 0.0009213955 -0.026889682 0.0711564 0.039130326 -0.082211554
0.09517582 -0.046151623 -0.06073837 0.044629026 -0.0057705864 0.102237836 -0.049916163 0.04257337
-0.09865973 0.03866362 -0.034533106 0.036209688 0.084028125 0.04004173 0.043361105 0.08833669
-0.010283544 0.04819732 -0.030031875 -0.0616666 0.055058897 -0.010354637 -0.04778358 -0.017224865
-0.0018312703 -0.10487194 -0.10365875 -0.056845903 0.040193524 0.10201943 0.07536007 -0.102371335
-0.07853146 0.046339266 -0.06557603 0.0027304082 -0.08279473 -0.09319885 0.039007813 -0.072936006
-0.10279572 0.10785702 0.091944836 -0.018849988 0.08507362 -0.09058446 0.06893212 0.08586757
0.06617678 -0.106670186 0.100617036 0.09104407 0.03285117 0.10243219 0.016111644 -0.10040319
00000000: 54c8 4dbc 8a80 43bc 55da a63d b4a0 9a3d
00000010: fa65 08bc 9a92 833b f82f b4bd 8617 34bd
00000020: df77 b23b ca61 7abd e80d dabc fc04 f63c
00000030: ca2e 3b3c a08f 893a f23f d7bd 1088 d63d
00000040: 3e2c 5bbd d47e 093d f571 89bc a4ce a7bd
00000050: e6bb 313c 70d9 ce3d c3b8 123d 7d2a 3a3d
00000060: c371 30bd 80b3 c6bc c06f cfbd db1d 8abd
00000070: 0d06 3cbd f493 2ebd d2ce 8fbd 7125 d13d
00000080: e1ab 503d 7fd9 103d ea96 d5bd 7a80 43bd
00000090: 2a82 803d be5b 40bd 2b73 37bc 3dc8 8f3d
000000a0: 5246 c6bd deb4 72bd 493e 723c e6eb c83d
000000b0: 643d d6bb 6662 853d 4cdd a43d bdc4 063d
000000c0: b8e0 713d 98d0 79bd 54ce d4bd 3a95 9c3d
000000d0: f3f3 e4bb 7688 e4bd a816 b13d e256 81bd
000000e0: facb a93d c9d5 ebbc 0cae 6cbd 3210 973d
000000f0: 195e 3dbd fe0e a23d 6c58 9e3d c33c 24bd
00000100: 15fb 773d 83e5 6fbc a210 d43d 741b 8b3c
00000110: baaf 9cbd 3424 afbd 71de 83bd c68f aabd
00000120: 4070 413d ac75 403c 48c6 fa3c 46e2 083d
00000130: e675 543d a7ce bcbc 316e 933c 1ca9 393d
00000140: 0ecf 833d b215 bdbd b022 56bd 9a9f 0dbd
00000150: 4e89 343d d812 3bbc ba9d bb3d 8ef8 16bd
00000160: ee38 2e3d d077 473c eacf 0abc 167e c9bd
00000170: 8681 ecbc 2ed7 613d e8d9 1d3d 42f8 f5bc
00000180: d820 c4bc 4e97 c1bd 7637 a8bc 3eef 953d
00000190: 1677 c33d 808f 7dbd f644 96bd 947b 5fbd
000001a0: a083 cabd 3186 d7bd 6df2 773d 6241 d3bd
000001b0: 06f2 6dbd ec9d 833d 7298 b5bd 4ea6 2d3d
000001c0: 919c 36bd 5f7a 543d d8be 1cbd 2dd4 33bd
000001d0: 163f 023c a342 9cbd 4e11 6dbd 7739 8e3d
000001e0: d2b7 10bd 76a8 f53c 68ef 4fbd 9f88 95bd
000001f0: 729f e63b 297e 883d 40b4 1b3d bebd cabc
00000200: 5d28 893d 0a4b 843d 967b 24bd e449 bdbd
00000210: c0ce 91bd ecc9 413b 7043 d83d 94d3 993d
00000220: aa48 60bd 3672 be3d eada 84bd c9ce 953b
00000230: c48b db3d a16b 133d 208e 073d 2058 c23d
00000240: 9eb1 ad3b 98ab 2bbd c390 8cbd 463c d83d
00000250: 6ab0 42bc 4878 87bd ecc2 d83d ccf9 903c
00000260: 89b4 bc3c 0e2a e7bb 730f e2bb 2d80 123d
00000270: cbfc 433c 51e5 dfbd f46f f1bd be47 f33c
00000280: b218 793c 9de9 2b3b ba95 82bd 28a1 07bd
00000290: 76ac 33bd e887 2e3d da9e 93bd 8bc4 84bd
000002a0: 7e54 8e3d 7518 c0bd 1060 1e3d e0a0 d53c
000002b0: 6920 8c3d e2cd 953d 0031 a53d e3f6 743d
000002c0: 6b78 63bd c8cd 48bd 15c1 ba3d 83ff 203d
000002d0: d099 063d 96ac 89bc 5d5f 753d 2643 cdbc
000002e0: 3cd1 c93d 10fc 053d bc93 7dbd 2ad6 e1bd
000002f0: 80b9 ddbd 8097 3a3d 7090 373c 3263 d23d
00000300: c2ca 81bd d7e7 85bd fe32 c0bd ce89 713a
00000310: c047 dcbc 72ba 913d 1f47 203d 885e a8bd
00000320: 8aeb c23d 7c09 3dbd ccc8 78bd edcc 363d
00000330: 3017 bdbb 1262 d13d e474 4cbd 6a61 2e3d
00000340: 1d0e cabd be5d 1e3d 9672 0dbd 9c50 143d
00000350: f016 ac3d cc02 243d 6a9b 313d dee9 b43d
00000360: 4f7c 28bc 8e6a 453d 6805 f6bc 1e96 7cbd
00000370: 7085 613d 7fa6 29bc b7b8 43bd 291b 8dbc
00000380: 3c07 f0ba 1ac7 d6bd 0a4b d4bd 40d7 68bd
00000390: f7a1 243d 90ef d03d 6156 9a3d 10a8 d1bd
000003a0: 1ad5 a0bd 3ece 3d3d ba4c 86bd a6f0 323b
000003b0: 4990 a9bd 0adf bebd a8c6 1f3d 795f 95bd
000003c0: 9086 d2bd 24e4 dc3d 934d bc3d 4a6b 9abc
000003d0: 143b ae3d 5884 b9bd 492c 8d3d 56db af3d
000003e0: b187 873d e675 dabd 4e10 ce3d 5075 ba3d
000003f0: f38e 063d f8c7 d13d 91fc 833c 30a0 cdbd

fc3.bias f4 [10]
-0.016116474 0.065175675 -0.093114376 0.055414386 -0.067078896 -0.10080673 0.040014856 0.07865386
-0.0526824 -0.03655883
00000000: b206 84bc d37a 853d c0b2 bebd 32fa 623d
00000010: a960 89bd c273 cebd 9ee6 233d 4615 a13d
00000020: 80c9 57bd b6be 15bd
