output/global_model.pth (torch, 251646 bytes, 10 tensors)

conv1.weight f4 [6, 3, 5, 5]
0	0x3cf5f372	0.03002331
1	0xbdd31403	-0.10306551
2	0x3d544cbc	0.051830992
3	0xbd37d6e6	-0.044882677
4	0xbd89f6ec	-0.0673655
5	0x3c3cffe4	0.011535618
6	0x3c760c6a	0.015017608
7	0x3dc58217	0.09643953
8	0x3ca2a9aa	0.019856293
9	0xbc42eb08	-0.011896856
10	0x3d8ace25	0.067776
11	0xbd38480a	-0.044990577
12	0xbdb117c8	-0.08647114
13	0xbdd391fc	-0.10330579
14	0xbdcff46e	-0.10154043
15	0xbc59b760	-0.013288349
16	0xbd229c0c	-0.0396996
17	0x3db88838	0.09010357
18	0xbd3dc48a	-0.046330012
19	0x3dbad726	0.091230676
20	0x3d508bb6	0.05091449
21	0xbdb3e794	-0.087844044
22	0x3d72bf42	0.05926443
23	0xbce2e994	-0.02769927
24	0x3d8fc888	0.0702067
25	0xbdc628b0	-0.09675729
26	0x3dd9821a	0.10620518
27	0xbd3ef020	-0.04661572
28	0xbde5793a	-0.11204763
29	0xbdc84117	-0.0977804
30	0x3cb9b3e0	0.022668779
31	0x3d4b70fb	0.049668293
32	0x3d3d4df6	0.046216927
33	0xbd58c1ce	-0.0529192
34	0x3da38922	0.079851404
35	0xbddc1054	-0.10745302
36	0x3c1b9c87	0.009497768
37	0xbdb4f166	-0.088351056
38	0xbd90dea0	-0.07073712
39	0x3dcea16a	0.10089381
40	0xbdbb3aa9	-0.09142048
41	0xbdeac322	-0.11463
42	0x3ddf99ea	0.10918029
43	0x3dbccac1	0.0921836
44	0xbdb229ae	-0.08699356
45	0xbdead483	-0.11466315
46	0xbdab5830	-0.0836643
47	0x3c1447ae	0.009050293
48	0x3dd038c8	0.1016708
49	0xbd975856	-0.073898956
50	0xbd979cdd	-0.07402966
51	0x3d555c68	0.05209008
52	0xbd65f376	-0.056140386
53	0x3ced161e	0.02894121
54	0x3cd459ca	0.025921721
55	0xbdf6f916	-0.12059228
56	0x3bebce08	0.0071961917
57	0x3d388290	0.04504639
58	0xbd88cf5e	-0.06680177
59	0xbd4b5430	-0.049640834
60	0xbe03cfa4	-0.12872177
61	0x3de10323	0.109869264
62	0xbd2c9896	-0.042137705
63	0xbc80d7a4	-0.015727825
64	0x3d20f846	0.039299272
65	0xbdcf912c	-0.10135111
66	0xbcd68e7a	-0.026190985
67	0xbc2a4592	-0.010392563
68	0x3dc17923	0.09446933
69	0xbd342b66	-0.0439867
70	0x3ce0b67d	0.027430767
71	0xbdcb8ea8	-0.09939319
72	0xbd85a6ea	-0.06525977
73	0x3dbabf32	0.09118499
74	0x3db89fc0	0.09014845
75	0xbdc26602	-0.09492113
76	0x3d694e47	0.056959417
77	0x3d8b0755	0.06788508
78	0x3d081298	0.033220857
79	0x39ebebeb	0.00044998465
80	0xbdcd5e22	-0.1002772
81	0x3dc83964	0.097765714
82	0x3c3cbef8	0.01152014
83	0x3d471cb8	0.048611373
84	0x3c6ec62a	0.014573613
85	0xbdbf42d8	-0.09338921
86	0xbdb3039e	-0.08740924
87	0x3db6a13e	0.08917473
88	0xbd91c4e4	-0.07117632
89	0x3d85bae9	0.06529791
90	0xbd9386c6	-0.0720344
91	0x3cc4f4f6	0.024042588
92	0x3d515784	0.051108852
93	0x3de20402	0.11035921
94	0xbcffd2d4	-0.03122846
95	0x3cdf8d81	0.027289154
96	0xbb94c0ee	-0.0045396006
97	0x3d9e8d64	0.07741812
98	0x3d929d6c	0.07158932
99	0xbba0fa6e	-0.004912666
100	0x3c3bc378	0.011460178
101	0xbd1a637c	-0.037692532
102	0x3dc215ba	0.094768
103	0x3dc41bdd	0.09575627
104	0xbce976ac	-0.02849897
105	0x3daeb56a	0.08530696
106	0xbbf5b71a	-0.007498634
107	0xbc8fbe71	-0.017546864
108	0xbde76492	-0.11298479
109	0xbd593864	-0.053032294
110	0xbdb6a136	-0.08917467
111	0xbdb89620	-0.09013009
112	0x3d52eb6d	0.05149405
113	0xbd73b426	-0.059497975
114	0x3de6e702	0.1127453
115	0xbd28baec	-0.041193888
116	0xbc16cd2b	-0.009204189
117	0xbdac577b	-0.08415123
118	0x3dbe5ae3	0.09294679
119	0xbc36161c	-0.01111367
120	0xbc67d39b	-0.014149572
121	0x3c227510	0.009915605
122	0xbd994b27	-0.07485037
123	0xbd5511ad	-0.05201881
124	0xbd3ae9fc	-0.0456333
125	0xbd62940e	-0.055316977
126	0x3d2d5442	0.042316683
127	0x3dcf87e4	0.10133341
128	0x3d89a561	0.06720997
129	0x3d2a672c	0.0416023
130	0xbc7f68b0	-0.015588924
131	0x3dadef74	0.08492938
132	0x3d1105f9	0.035406087
133	0x3d555615	0.052084047
134	0xbd8fa569	-0.07013971
135	0x3c1b8962	0.009493204
136	0x3ba90020	0.0051574856
137	0xbd47a210	-0.04873854
138	0xbd0c7210	-0.034288466
139	0x3dff0ba2	0.12453391
140	0xbda19118	-0.078890026
141	0xbd716518	-0.0589343
142	0xbd52985f	-0.051414844
143	0xbda18440	-0.07886553
144	0xbc353ee1	-0.011062355
145	0xbce7ac99	-0.028280543
146	0x3d6cc94e	0.057809167
147	0x3996ea8f	0.0002878499
148	0x3c90c0b2	0.01767001
149	0x3db19cf5	0.08672515
150	0xbc52d639	-0.0128684575
151	0x3db60cce	0.08889161
152	0xbde7ed5a	-0.11324568
153	0xbda1f10e	-0.07907306
154	0x3dba9df4	0.091121584
155	0xbd0a90bc	-0.033829436
156	0x3cea7450	0.028619915
157	0xbdad2b4c	-0.08455524
158	0x3d1ac6ca	0.037787236
159	0xbcadfcdc	-0.021238737
160	0x3dba6a5a	0.09102316
161	0x3d7ceec3	0.06175114
162	0x3d5c7e52	0.053831406
163	0xbd7e7b58	-0.06212935
164	0x3d6779ac	0.05651252
165	0x3caea35f	0.021318136
166	0x3d399a46	0.045313142
167	0x3dda6570	0.10663879
168	0x3d2b5632	0.04183025
169	0xbda30280	-0.07959461
170	0xbdd715e4	-0.10502222
171	0xbd012a78	-0.031534642
172	0x3d07d218	0.033159345
173	0x3d7f8bae	0.06238907
174	0xbd99d856	-0.07511966
175	0x3d745df6	0.05965992
176	0xbdbdc271	-0.092656024
177	0x3df45f6c	0.11932263
178	0xbb950a54	-0.0045483503
179	0x3bda5dcd	0.006664014
180	0x3d92c3ea	0.07166274
181	0x3ddd30f0	0.1080035
182	0x3c23a3ed	0.009987813
183	0x3ddb8e3a	0.10720487
184	0x3d2b294e	0.041787438
185	0xbd75b71d	-0.059989084
186	0x3d8164b2	0.06318034
187	0xbd5002d0	-0.050783932
188	0xbdd9a714	-0.10627571
189	0xbdc82bf2	-0.09774007
190	0x3bc57a92	0.0060265744
191	0x3d43e896	0.047829233
192	0x3d223865	0.039604563
193	0xbd13dca4	-0.03609909
194	0x3cdd31d0	0.027001292
195	0x3d90e838	0.07075542
196	0x3ddacf66	0.10684089
197	0xbdd9baf2	-0.1063136
198	0x3dbebf92	0.09313883
199	0x3da80773	0.08204546
200	0xbb932efa	-0.004491684
201	0x3dc05adc	0.0939233
202	0xbce68e40	-0.028144002
203	0x3a8ad5f7	0.0010592331
204	0xbcad2b30	-0.021138757
205	0x3df01380	0.11722469
206	0xbb8773fa	-0.0041336985
207	0xbd854bc8	-0.06508595
208	0xbd59a7d1	-0.053138558
209	0x3d914680	0.07093525
210	0x3dba4456	0.09095065
211	0xbe01468c	-0.12624568
212	0x3cdf430d	0.027253652
213	0x3de0d1e9	0.10977537
214	0x3db59cf0	0.08867824
215	0xbc211a36	-0.009832909
216	0xbd79befb	-0.06097315
217	0x3d0dfff6	0.03466793
218	0x3de834fe	0.113382325
219	0x3db84c6e	0.08998953
220	0xbd801898	-0.06254691
221	0x3d87f6ee	0.06638895
222	0x3d7c737c	0.061633572
223	0xbce3a140	-0.02778685
224	0x3dd776da	0.10520716
225	0x3dca1d59	0.09868879
226	0x3d8515dd	0.06498311
227	0x3c9090ec	0.01764723
228	0xbd0c642a	-0.03427521
229	0x3d6e88b2	0.05823583
230	0xba38ccae	-0.00070495426
231	0xbd30cd35	-0.04316445
232	0xbd468550	-0.04846698
233	0xbd474bfd	-0.048656452
234	0x3c0785d4	0.008271653
235	0xbd0563bd	-0.03256582
236	0xbbe51d80	-0.006992042
237	0x3df64b96	0.120261356
238	0x3c80b0d8	0.015709326
239	0x3dc1f1cc	0.09469947
240	0xbc9b9ce0	-0.018995702
241	0xbd56c084	-0.05242969
242	0x3da8a6c6	0.082349345
243	0x397a2734	0.00023856462
244	0xbc64c050	-0.0139618665
245	0x399d2fe2	0.0002998105
246	0xbd6007cf	-0.054694947
247	0x3c5d9856	0.013525089
248	0xbd461908	-0.048363715
249	0x3dd1763c	0.102276295
250	0x3de7032b	0.11279901
251	0xbd0c5976	-0.034265004
252	0xbd0d2f98	-0.034469217
253	0x3d2ac296	0.041689478
254	0x3ccfdaea	0.025372941
255	0xbd1e9590	-0.038716853

conv1.bias f4 [6]
0	0xbda4ec7e	-0.0805292
1	0x3db7de33	0.08977928
2	0xbd33c508	-0.043889076
3	0x3d12cd56	0.035840355
4	0xbd74d2ee	-0.05977147
5	0x3b9c7a4b	0.0047753206

conv2.weight f4 [16, 6, 5, 5]
0	0x3c3ee515	0.011651297
1	0x3d6675ec	0.056264803
2	0x3cb77fea	0.022399861
3	0xbcc41d13	-0.023939645
4	0x3d05289c	0.03250943
5	0x3ca1cf77	0.019752247
6	0x3d9b2f77	0.075774126
7	0xbd4bc414	-0.04974754
8	0xbcb17ad3	-0.021665012
9	0xbd932d73	-0.07186403
10	0xbca36406	-0.019945156
11	0x3d38f088	0.045151263
12	0x3d40a3a8	0.047031075
13	0x3c039ba8	0.008032717
14	0xbd7c32d8	-0.061571926
15	0x3d82beca	0.063840464
16	0xbd4cd012	-0.05000312
17	0x3d27fdd9	0.041013572
18	0x3cfce97a	0.030873049
19	0x3d9bb590	0.0760299
20	0x3db40896	0.087907
21	0xbd260146	-0.04052856
22	0xbc16ebeb	-0.009211521
23	0xbcf3e6b0	-0.029773086
24	0xbc4c406e	-0.012466533
25	0x3cbe6b38	0.023244485
26	0x3cb7912e	0.022408094
27	0xbd8c590e	-0.06852923
28	0x3c280ab9	0.010256463
29	0xbc225fd8	-0.009910546
30	0x3cd6a1c4	0.026200183
31	0xbcbc9c58	-0.02302377
32	0xba0bdf0c	-0.0005335666
33	0x3da147bf	0.078750126
34	0x3db43388	0.08798891
35	0x3cc13b42	0.023587827
36	0x3c5d4c7f	0.013507008
37	0x3dacd0eb	0.084382854
38	0x3d9a31b7	0.075290136
39	0x3d84e82c	0.06489596
40	0xbc88064a	-0.016604561
41	0xbc09b7e1	-0.008405657
42	0xbc904139	-0.017609226
43	0x3c1837a6	0.009290611
44	0x3dbb4c38	0.09145397
45	0xbb89c76a	-0.00420468
46	0xbd9312c8	-0.071813166
47	0xbd4465ca	-0.047948636
48	0x3d24c43d	0.04022621
49	0xbd75aab4	-0.05997725
50	0xbd54534a	-0.051837243
51	0x3d0b6533	0.034032058
52	0xbd1ed63e	-0.038778536
53	0xbda3b891	-0.079941876
54	0xbd810936	-0.06300585
55	0xbd8748e7	-0.06605702
56	0xbd11c3bb	-0.035587054
57	0x38fbc4de	0.00012005282
58	0x3cebf846	0.02880491
59	0xbba5bbb0	-0.0050577745
60	0x3ccbb31e	0.024865683
61	0x3c8cb665	0.017176816
62	0x3d927d36	0.07152788
63	0xbd7cee90	-0.06175095
64	0x3d6c10bc	0.057633147
65	0xbc39a5c7	-0.011331028
66	0x3cdbe3ac	0.02684196
67	0xbd57d408	-0.052692443
68	0x3b9094d4	0.004412273
69	0xbd08794e	-0.03331881
70	0xbbdeb858	-0.006796878
71	0x3c8866c8	0.016650572
72	0x3bb95b24	0.0056566168
73	0x3d7a0835	0.061042983
74	0x3dadef8b	0.08492955
75	0xbda6f210	-0.081516385
76	0xbd7293cd	-0.059222985
77	0x3cb5c5ce	0.022189047
78	0x3d8c71a7	0.06857615
79	0xbd206710	-0.039160788
80	0x3d76f112	0.060288496
81	0x3c4bdba2	0.012442501
82	0xbdcaf3af	-0.0990976
83	0xbc4ee0d4	-0.012626845
84	0x3c1e5ea0	0.009666115
85	0x3d056bac	0.032573387
86	0x3d2139a6	0.03936162
87	0x3d89ec14	0.067344815
88	0xbd4cdade	-0.050013416
89	0xbd4b4ea2	-0.049635537
90	0x3cc217d9	0.023693012
91	0xbcdd75fe	-0.027033802
92	0xbd90f57a	-0.07078071
93	0x3d5b1f25	0.0534965
94	0xbdb941ac	-0.09045729
95	0x3cbf7cbe	0.023374911
96	0xbd5903d6	-0.052982174
97	0x3d78edc8	0.06077364
98	0xbc5d0250	-0.013489321
99	0xbd49af53	-0.049239468
100	0xbc958aa4	-0.018254586
101	0x3ce7d842	0.028301362
102	0x3d8dea04	0.069294006
103	0xbda8446d	-0.08216176
104	0xbcbc989a	-0.023021985
105	0x3d040432	0.032230563
106	0xbda00cac	-0.07814917
107	0x3d66de92	0.056364603
108	0x3d2016b8	0.039084166
109	0x3d707449	0.05870465
110	0x3d106a26	0.03525748
111	0xbd49e1fc	-0.04928778
112	0x3d6a858b	0.057256263
113	0x3cf54aa2	0.029942814
114	0x3b2efb14	0.0026699947
115	0xbd275fbc	-0.040862784
116	0xbd7f130a	-0.062274016
117	0x3d96e004	0.07366946
118	0xbc2504bc	-0.01007193
119	0x3bba8856	0.005692522
120	0x3bf1f938	0.0073844455
121	0xbcd9613d	-0.026535625
122	0xbc624f0e	-0.013812793
123	0xbd8e4700	-0.06947136
124	0x3d24e472	0.040256925
125	0x3da0da96	0.07854192
126	0xbc1e4c6c	-0.009661775
127	0x3d25f6da	0.04051862
128	0xbdb2c4aa	-0.08728917
129	0xbd06481c	-0.032783613
130	0x3cc15307	0.02359916
131	0xbdba7eac	-0.09106192
132	0xbcc3c610	-0.023898154
133	0x3a51ab56	0.00079982483
134	0xbcdeb042	-0.027183656
135	0x3d3371e4	0.043809786
136	0xbd3320cf	-0.04373246
137	0xbd9d9ede	-0.07696317
138	0xbd9f5ef4	-0.07781783
139	0xbda36bdf	-0.07979559
140	0x3d7fe30a	0.06247238
141	0x3d4710fa	0.048600174
142	0x3d1ec4ae	0.038761787
143	0x3da41161	0.08011127
144	0xbd5e0cba	-0.054211356
145	0x3da786ee	0.08180033
146	0xbc73fd42	-0.014891924
147	0xbd8e311e	-0.06942962
148	0xbc756ca8	-0.014979519
149	0x3d9b57c1	0.07585097
150	0x3a06603e	0.00051260355
151	0xbc8006fe	-0.015628334
152	0x3d9dab36	0.076986715
153	0xbdaf9e40	-0.08575106
154	0x3d7058c7	0.058678415
155	0x3d16e953	0.03684361
156	0xbd870ae6	-0.065938756
157	0x3d90fc38	0.07079357
158	0x3d5e1f82	0.054229267
159	0xbd9340e6	-0.07190113
160	0xbcbca1da	-0.023026396
161	0x3d8209f4	0.06349555
162	0xbdaff6d8	-0.085920036
163	0x3d073946	0.033013605
164	0xbc848a9f	-0.016179381
165	0x3cb60cb4	0.022222854
166	0x3d81546a	0.06314929
167	0xb9aed58c	-0.0003334697
168	0x3d41b066	0.047287367
169	0xbd56288e	-0.05228477
170	0x3da18b42	0.078878894
171	0x3d585514	0.05281551
172	0xbd9650de	-0.07339643
173	0xbb248ed1	-0.002510954
174	0xbc8a3998	-0.016873166
175	0x3dacb244	0.08432439
176	0xbcf31f88	-0.029678121
177	0x3d053072	0.032516904
178	0xbd4787fa	-0.04871366
179	0xbd9d2372	-0.07672776
180	0x3cbe0e2e	0.02320012
181	0xbd80c8aa	-0.06288274
182	0x3d5c3ae2	0.053767093
183	0x3d35d1ee	0.044389658
184	0xbd0aee8b	-0.0339189
185	0x3c9806ac	0.018557869
186	0x3cb45e42	0.022017602
187	0xbd44708d	-0.0479589
188	0xbd186ec0	-0.037214994
189	0xbcd9e726	-0.026599478
190	0x3c2bc748	0.010484524
191	0xbcd6dad2	-0.026227389
192	0xbd9f405c	-0.077759475
193	0x3c1242d0	0.008927062
194	0x3d23c994	0.03998716
195	0xbc34532c	-0.011006158
196	0x3d36d0e6	0.044632815
197	0x3d43f9fb	0.04784582
198	0x3cc66ac6	0.024220835
199	0xbcf57f14	-0.029967822
200	0xbd928f22	-0.07156207
201	0x3cbfbaf1	0.02340457
202	0xbd30ce88	-0.043165714
203	0x3da639be	0.08116482
204	0xbcd77580	-0.026301146
205	0xbdc28177	-0.0949735
206	0xbd32cafc	-0.043650612
207	0x3dbc6690	0.0919925
208	0xbc2bf899	-0.010496282
209	0x3c56b717	0.013105175
210	0x3d138b0d	0.03602128
211	0x3c1bcfae	0.009509964
212	0x3d80ea9d	0.06294749
213	0xbb3b4b1e	-0.002857871
214	0xbd9f7b93	-0.07787242
215	0xbd6ad524	-0.057332173
216	0xbd87db1e	-0.0663359
217	0xbaa5e2b3	-0.0012656063
218	0xbdbf1fe0	-0.093322515
219	0xbcf2d5d6	-0.02964298
220	0x3d2eaf20	0.04264748
221	0x3d857e6a	0.06518252
222	0xbcc9e980	-0.024647474
223	0x3d03f1ca	0.03221301
224	0xbb9de67b	-0.004818735
225	0xbc8ee090	-0.017441064
226	0x3b50d61c	0.00318659
227	0xb9cae020	-0.00038695429
228	0x3d715fd6	0.058929287
229	0xbd5abee4	-0.053404704
230	0x3d6fcc5c	0.0585445
231	0xbcaef50a	-0.021357078
232	0xbc0f2817	-0.0087375855
233	0x3bc29bd2	0.0059389854
234	0x3d9ce208	0.076602995
235	0xbc63d27c	-0.013905164
236	0xbd26ace0	-0.04069221
237	0xbcb42387	-0.021989597
238	0xbcf3fbfa	-0.029783238
239	0x3caf86bc	0.021426551
240	0xbc883164	-0.016625114
241	0xbcead324	-0.028665133
242	0xbda085ec	-0.078380436
243	0x3c923d98	0.017851636
244	0xbd152aae	-0.036417656
245	0x3d6fd4f0	0.058552682
246	0x3d0ffc60	0.035152793
247	0xbcf5fada	-0.030026842
248	0xba892453	-0.0010463096
249	0x3d58a22c	0.052889034
250	0x3bedf76c	0.007262161
251	0x3d6a822a	0.05725304
252	0xbd211166	-0.039323233
253	0xbc3e4fa6	-0.011615669
254	0xbd80da60	-0.06291652
255	0xbd25f0a4	-0.040512696

conv2.bias f4 [16]
0	0xbb3c1e76	-0.002870468
1	0x3dae1f26	0.08502035
2	0xbce1634c	-0.027513169
3	0x3d755733	0.059897613
4	0x3bde8d26	0.0067917285
5	0x3d053f70	0.0325312
6	0xbd8f480a	-0.06996162
7	0x3d93d084	0.072175056
8	0x3d8906bf	0.0669074
9	0xbdab72c5	-0.083715
10	0xbd87ead3	-0.06636586
11	0x3d8786ca	0.06617506
12	0xbc22cbde	-0.009936301
13	0x3c68d708	0.014211424
14	0x3d50bb61	0.05095995
15	0x3d3d4562	0.046208747

fc1.weight f4 [120, 400]
0	0x3cf71c51	0.03016487
1	0xbc97379f	-0.01845914
2	0x3a2a396f	0.00064935436
3	0x3d06522b	0.032793205
4	0xbd659027	-0.056045678
5	0xbc3f1f73	-0.011665213
6	0xbcdab88e	-0.02669933
7	0xbd2c0428	-0.04199615
8	0x3d0bdcad	0.034146
9	0x3c5716be	0.013127981
10	0xbc455c3c	-0.012045916
11	0xbbcb5fee	-0.006206504
12	0xba21a82f	-0.0006166724
13	0x3d05edc7	0.032697465
14	0xbd2031b0	-0.039109886
15	0xbc6f7474	-0.014615167
16	0x3c66fa4a	0.0140977595
17	0xbc6d9632	-0.014501141
18	0xbd566780	-0.0523448
19	0x3d0c876a	0.03430883
20	0x3d24c2f6	0.04022499
21	0xbd1b6a20	-0.037943006
22	0x3c41b0a4	0.0118219
23	0x3d0119f7	0.031518903
24	0x3cbcca23	0.023045605
25	0xbb7739d8	-0.0037723687
26	0x3c5fd270	0.013661012
27	0x3c7599b4	0.014990259
28	0xbd380546	-0.044926904
29	0xbd200cf5	-0.039074857
30	0xbcc8abb4	-0.024495937
31	0x3d0c9e9b	0.034330945
32	0x3c86e29e	0.016465481
33	0x3d092588	0.03348306
34	0x3cefc003	0.029266363
35	0x3c84bfe1	0.016204776
36	0x3823833c	3.898445e-05
37	0xbd1bcb48	-0.03803566
38	0xbd1409d3	-0.03614218
39	0x3ce5f623	0.028071469
40	0xbd15dc98	-0.036587328
41	0x3cccd37c	0.025003187
42	0x3ce668c0	0.02812612
43	0x3cee355e	0.029078182
44	0xbca6a410	-0.020341903
45	0xbc9b29c6	-0.018940818
46	0x3d02b89e	0.031914346
47	0xbc8fbf9c	-0.017547421
48	0xbc8aa386	-0.016923677
49	0xbc2bddfc	-0.010489937
50	0x3ba3ef2a	0.005002876
51	0xbcdc0edc	-0.026862554
52	0x3cdc17d8	0.026866838
53	0xbc8dc2d0	-0.017304808
54	0xbd8c6af7	-0.068563394
55	0x3b8f16f8	0.0043667518
56	0xbc4cc63c	-0.012498435
57	0x3c18c6b8	0.009324722
58	0xbbc4877e	-0.0059975972
59	0xbcc03a18	-0.023465201
60	0x3cdad63c	0.026713483
61	0xbb7d8c93	-0.0038688525
62	0xbd4bc908	-0.049752265
63	0xbcf43411	-0.029809983
64	0x3c009009	0.007846841
65	0xbd0ab728	-0.033866078
66	0x3d503312	0.050829954
67	0xbcbcfa28	-0.023068503
68	0x3ce5b7fe	0.028041836
69	0xbcff4814	-0.0311623
70	0xbc909b2e	-0.01765212
71	0x3d042143	0.032258283
72	0x3ad81fd4	0.0016488978
73	0x3ce3d98c	0.027813695
74	0x3c96698c	0.018360876
75	0x3c8d5d8c	0.01725652
76	0xbd104472	-0.035221525
77	0xbd6f7d92	-0.058469363
78	0x3d245dca	0.040128507
79	0xbc4967b8	-0.012292795
80	0xbb9c2822	-0.0047655264
81	0x3cbe13a4	0.023202725
82	0x3cef15c6	0.029185187
83	0xbd2472e8	-0.040148646
84	0x3c1f83cb	0.009736012
85	0x3c88c657	0.016696138
86	0xbd25788d	-0.04039817
87	0xbc37c3b2	-0.011216091
88	0xbd058d78	-0.03260562
89	0x3bb2c4c0	0.0054555833
90	0xbcd0d910	-0.025494128
91	0xbcdf489d	-0.027256304
92	0xbb6d84a3	-0.0036242388
93	0x3acf5bf6	0.0015820253
94	0x3cbe337a	0.023217905
95	0x3befbdf6	0.0073163463
96	0xbd5193fd	-0.051166523
97	0xbcdd652a	-0.027025778
98	0xbd0c2303	-0.034213077
99	0xbd1f98b2	-0.03896398
100	0xbc9174fa	-0.017755974
101	0xbd45fc7d	-0.048336495
102	0xba87ee5e	-0.0010370722
103	0xbd358c9f	-0.04432356
104	0x3c92c1e8	0.017914727
105	0xbbfa3308	-0.007635478
106	0xbcf5acdb	-0.02998965
107	0x3d23f23b	0.04002593
108	0x3ccc41f0	0.024933785
109	0xbb1b7297	-0.0023719424
110	0x3c4c36b2	0.012464212
111	0x3a3c8de0	0.0007192772
112	0x3c1afeaa	0.009460131
113	0xbc650780	-0.013978839
114	0x3cb9cb08	0.02267982
115	0x3cf2aa7a	0.029622305
116	0x3ca81c7e	0.020521399
117	0xbcd92220	-0.02650553
118	0xbd72f0ad	-0.059311558
119	0x3d389b76	0.045070134
120	0xbc305834	-0.010763217
121	0xbc8bfe85	-0.017089138
122	0xbcc71d1f	-0.024305878
123	0xbc8bd350	-0.017068535
124	0xbd296254	-0.04135354
125	0xbc5fa6d5	-0.013650616
126	0xbcf8b7c7	-0.03036107
127	0xbcfe2cde	-0.031027254
128	0x3cfec520	0.031099856
129	0x3adeea56	0.0017007093
130	0xbcd7775c	-0.026302032
131	0x3b9c1485	0.0047631883
132	0xbc05ba8a	-0.00816215
133	0xbc187430	-0.009305045
134	0xbd53f08a	-0.051743068
135	0xbbb9c1e4	-0.0056688655
136	0xbcb93a05	-0.022610674
137	0x3cf619b7	0.030041559
138	0x3ca029f0	0.019551247
139	0xbc71b4ae	-0.01475255
140	0xbb425272	-0.0029651192
141	0x3c97a446	0.018510949
142	0xbc612b04	-0.013743166
143	0x3d075b79	0.03304622
144	0xbd3b9be1	-0.045802955
145	0x3cfaf471	0.030634137
146	0x3c898480	0.016786814
147	0xbcc7d168	-0.024391845
148	0x3d499129	0.0492107
149	0x3bba5715	0.0056866505
150	0xbd341a16	-0.04397019
151	0x3cb2f974	0.021847464
152	0xbbf600f8	-0.0075074397
153	0xbd4655aa	-0.04842154
154	0x3d59ccbc	0.053173766
155	0xbc8d2c1f	-0.017232953
156	0xbd17e5fa	-0.037084557
157	0x39b992e8	0.00035395403
158	0xbcd39fc1	-0.025833013
159	0xbc980436	-0.018556695
160	0x3d04ae97	0.032393064
161	0x3d0aff87	0.033935096
162	0x3ccb1fcc	0.024795435
163	0x3c04ffa0	0.008117586
164	0x3d60ec3e	0.054912798
165	0xbc6bdd9e	-0.014396099
166	0xbd32269c	-0.043493852
167	0xbc6fb692	-0.0146309305
168	0xbcc65b41	-0.024213435
169	0xbceb5094	-0.028724946
170	0xbca88c9c	-0.02057486
171	0x3d2040a8	0.03912416
172	0x3cc5d80c	0.02415087
173	0x3cb45074	0.02201102
174	0x3c8ac64c	0.016940258
175	0xbcf55fcc	-0.029952906
176	0xbd489e56	-0.048979126
177	0xbced9678	-0.029002413
178	0x3d16dd55	0.036832172
179	0x3cf168e1	0.029468955
180	0xbca48be4	-0.020086236
181	0xbc110522	-0.008851321
182	0x39957426	0.00028506032
183	0x3b9416fc	0.0045193415
184	0xbc3b681c	-0.011438396
185	0xbca78bf6	-0.02045248
186	0xbd52d4b6	-0.05147239
187	0x3d031ccd	0.03200989
188	0xbc036c1c	-0.008021381
189	0xbc9833da	-0.018579412
190	0x3cf7ad13	0.030233895
191	0x3c554b43	0.013018432
192	0x3b26f30c	0.0025474457
193	0xbceddd2a	-0.029036123
194	0x3d52c022	0.051452763
195	0x3c64a82a	0.013956109
196	0xbd01be8a	-0.031675853
197	0xbc4a3978	-0.012342803
198	0x3c723b70	0.014784679
199	0x3c72e18b	0.014824281
200	0xbd05a16e	-0.032624654
201	0x3d3b1153	0.04567082
202	0x3d0f2be1	0.034953956
203	0xbc59902f	-0.013279005
204	0xbcf477a4	-0.029842205
205	0xbc1ee7ce	-0.009698821
206	0x3d416c68	0.047222525
207	0xbd059ec8	-0.03262213
208	0xbcb21978	-0.02174066
209	0xbd55e08a	-0.05221609
210	0xbd17673c	-0.036963686
211	0x3d04c7e6	0.0324172
212	0x3d3bbefa	0.045836426
213	0x3d4785c5	0.048711557
214	0xbcece2e8	-0.028916791
215	0xbd2c0c15	-0.04200371
216	0x3d25f774	0.040519193
217	0xbd2681d2	-0.04065115
218	0xbd1dc1eb	-0.038515013
219	0xbb5ce92e	-0.0033708322
220	0xbd71f466	-0.059070967
221	0xbcf9619a	-0.030442048
222	0xbba6ebd4	-0.005094031
223	0xbcf73fc3	-0.030181771
224	0xbcffb7dd	-0.031215603
225	0x3b95cf14	0.004571805
226	0x3d3a4389	0.045474563
227	0xbd73034f	-0.059329327
228	0x3b5ad2f4	0.0033389898
229	0xbd246a25	-0.04014029
230	0x3d233f9e	0.039855592
231	0xbbac61d9	-0.005260688
232	0x3c809c77	0.015699608
233	0xbd26d854	-0.04073365
234	0x3baa1e38	0.0051915906
235	0xbcf210f9	-0.029549109
236	0xbbb3e472	-0.0054898793
237	0x3d281a46	0.04104068
238	0xbd2646da	-0.040594913
239	0xbc53500c	-0.012897503
240	0xbd093e38	-0.033506602
241	0x3b6afea3	0.0035857342
242	0x3cfaf557	0.030634565
243	0x3d0b4046	0.033996843
244	0xbcf0b3cf	-0.029382614
245	0xbb3daf88	-0.0028943736
246	0x3d1c7b53	0.03820355
247	0xbc71afbc	-0.014751371
248	0x3cc2098c	0.023686193
249	0x3cd1e5d4	0.025622286
250	0x3c54ae30	0.012980983
251	0xbcfbdeb8	-0.030745849
252	0xbafe4ad0	-0.0019400958
253	0x3d468697	0.0484682
254	0xbc6573ee	-0.014004691
255	0x3c55bf84	0.013046149

fc1.bias f4 [120]
0	0xbd205105	-0.039139766
1	0xbc4794db	-0.012181486
2	0xbc7e8280	-0.015534043
3	0x3d237c40	0.039913416
4	0xbb4b8a24	-0.003105768
5	0xbcea04b8	-0.028566703
6	0x3bd86fb6	0.006605114
7	0x3d515352	0.05110485
8	0x3c107b1a	0.008818412
9	0xbaca0c9b	-0.0015415134
10	0xbc7096e0	-0.014684409
11	0x3d4f73ba	0.050647475
12	0x3cfc0d23	0.030767983
13	0xbd011b7e	-0.03152036
14	0xbd1713fe	-0.0368843
15	0xbd65de9a	-0.056120493
16	0x3d0301d7	0.031984176
17	0xbd1e748a	-0.03868536
18	0xbd4bdab4	-0.04976912
19	0x3c1195a4	0.008885775
20	0x3d113b30	0.035456836
21	0xbb7fc5a8	-0.0039027724
22	0xbd0592b4	-0.03261061
23	0xbd0881fe	-0.033327095
24	0xbd2907dc	-0.04126726
25	0xbd21e85a	-0.03952823
26	0x3d2ce3fc	0.04220961
27	0xbcb0b159	-0.021568941
28	0xbd28f313	-0.04124744
29	0x3ca761bd	0.020432347
30	0xbbadc88a	-0.005303447
31	0xbcf53b42	-0.029935483
32	0xbd31c6fd	-0.04340266
33	0x3c49249a	0.012276793
34	0x3af57b3c	0.0018728743
35	0x3ce6015a	0.028076816
36	0x3d00e35e	0.031466834
37	0x3c4eecd1	0.012629704
38	0xbd551503	-0.05202199
39	0xbc3610c0	-0.011112392
40	0x3d89d6b6	0.06730406
41	0x3d260920	0.040536046
42	0xbd306d68	-0.043073088
43	0xbd34903e	-0.044082873
44	0xbd142258	-0.036165565
45	0xbd3ac88b	-0.04560141
46	0x3c30d78a	0.010793576
47	0x3d4bbc42	0.049740084
48	0x3d21ac5e	0.039471023
49	0x3cc76904	0.024342068
50	0x3cad4679	0.021151768
51	0x3cb2c28b	0.021821281
52	0xbbb4b200	-0.0055143833
53	0xbcdf8d71	-0.027289124
54	0x3c46e559	0.012139642
55	0xbcbf58d1	-0.02335778
56	0x3c73a7d6	0.014871558
57	0xbd05467e	-0.03253793
58	0xb9a2bd95	-0.00031040297
59	0xbce4403e	-0.027862664
60	0xbb384d1b	-0.002812213
61	0xbc24bb46	-0.010054415
62	0x3cc27c40	0.023740888
63	0x3c449307	0.011997945
64	0x3d4493cc	0.047992513
65	0xbc8af2f2	-0.016961548
66	0xbd4f9529	-0.05067936
67	0x3c849312	0.01618341
68	0x3a1f8de2	0.0006086511
69	0x3d3c4b12	0.04597003
70	0x3c84c93c	0.016209237
71	0x3cfa6bc2	0.030568961
72	0xbd76ebf6	-0.060283624
73	0xbb8d3710	-0.0043095425
74	0xbd04fe6c	-0.032469198
75	0xbd4f15ea	-0.05055801
76	0xbc3ea310	-0.011635557
77	0x3c9c22f8	0.019059643
78	0xbd0e9886	-0.034813426
79	0x3d25c524	0.04047121
80	0x3bb626a9	0.005558808
81	0xbd3fe141	-0.04684568
82	0x3c4e5561	0.012593598
83	0x3bd6c03a	0.006553677
84	0x3d2f5c70	0.042812765
85	0xbc3f2938	-0.011667542
86	0xbd268b4c	-0.040660188
87	0x3c6f969e	0.014623312
88	0xbd687a74	-0.056757405
89	0xbccf90c1	-0.025337579
90	0xbc095066	-0.008380985
91	0x3cf39597	0.029734416
92	0xbd3d2b64	-0.04618396
93	0xbcbb81ac	-0.02288898
94	0x3bf43a50	0.0074532405
95	0xbd1ed6c8	-0.03877905
96	0xbc69cfc2	-0.014270725
97	0xbc54ef06	-0.012996441
98	0xbad8e588	-0.0016547898
99	0xbd4f368a	-0.050589122
100	0xbd083720	-0.033255696
101	0x3bd148fe	0.006386875
102	0xbc71d106	-0.014759308
103	0x3cfd9ea2	0.030959431
104	0xbd248e14	-0.04017456
105	0x3b6dd232	0.0036288616
106	0x3d3cc23e	0.04608368
107	0x3cfb96f4	0.030711628
108	0xbb8ec1de	-0.004356607
109	0x3cc93bf6	0.024564724
110	0xbc321492	-0.010869162
111	0x3c6a268c	0.014291417
112	0x3ccd624a	0.025071282
113	0xbd1b6e0a	-0.03794674
114	0x3b28af81	0.0025739374
115	0x3c8bf5f8	0.01708506
116	0x3ce41ae2	0.02784485
117	0xb997a536	-0.00028924056
118	0x3d520c8c	0.051281497
119	0xbc07ca9e	-0.008288054

fc2.weight f4 [84, 120]
0	0xbd5d7ab2	-0.05407209
1	0x3d3e644a	0.04648236
2	0x3d706230	0.05868739
3	0xbdb325a2	-0.08747412
4	0x3c2d5dcf	0.010581448
5	0xbd898835	-0.067154326
6	0x3cd21fc0	0.025649905
7	0x3d5ce69c	0.053930864
8	0xbd023156	-0.03178533
9	0xbdb89e18	-0.09014529
10	0xbd8227c8	-0.06355244
11	0xbd11da11	-0.035608355
12	0x3d959f44	0.07305768
13	0xbd1e34f2	-0.03862471
14	0x3d132d59	0.03593192
15	0x3d163a9d	0.03667699
16	0xbd160b6c	-0.036631986
17	0xbd1fadc6	-0.038984083
18	0x39a3ee4e	0.00031267334
19	0x3d246c9c	0.04014264
20	0xbd1a4095	-0.037659246
21	0x3d9d3e4d	0.076778986
22	0xbda3c1b8	-0.07995933
23	0xbda541c5	-0.08069185
24	0xbb8fffd7	-0.004394512
25	0x3be92830	0.0071153864
26	0xbd66beda	-0.056334354
27	0xbd891643	-0.06693699
28	0xbd116794	-0.03549917
29	0x3cb2466c	0.021762095
30	0xbc0325ff	-0.008004664
31	0xbd4faeb9	-0.050703738
32	0x3d8af9a0	0.067858934
33	0xba4adc0f	-0.000773848
34	0x3cbb0aa4	0.022832222
35	0x3cb2f980	0.021847486
36	0xbc850345	-0.01623691
37	0x3d6748b4	0.05646582
38	0x3d0395bf	0.03212523
39	0x3d99d630	0.07511556
40	0x3d1dfbdf	0.03857028
41	0xbd8e2395	-0.069403805
42	0xbd2b17bd	-0.041770685
43	0xbda06d17	-0.07833307
44	0x3daca922	0.08430697
45	0x3c803842	0.015651826
46	0xbd9b6b8f	-0.075888745
47	0xbd1066aa	-0.035254158
48	0x3d5ef17e	0.054429524
49	0xbd4b30b1	-0.049606983
50	0xbda3a523	-0.07990482
51	0xbd4b1eae	-0.049589805
52	0x3da05f04	0.07830623
53	0x3d985dde	0.07439779
54	0xbdd2cf6c	-0.10293469
55	0xbcf2cb4c	-0.029637955
56	0xbad73564	-0.001641911
57	0x3ce4e97b	0.027943363
58	0xbd72c070	-0.059265554
59	0x3d776cf2	0.060406633
60	0x3baa8cf4	0.005204791
61	0x3d2d24f4	0.04227157
62	0x3c0b74ab	0.0085117025
63	0x3bc20f1c	0.0059222113
64	0x38250842	3.9346756e-05
65	0x3c0e0f12	0.008670585
66	0xbda332e9	-0.07968695
67	0x3c414859	0.011797034
68	0xbda0c012	-0.078491345
69	0xbdc32ca1	-0.09529997
70	0x3d40d856	0.047081314
71	0xbb131c55	-0.0022447307
72	0x3db5a636	0.08869593
73	0xbc49b798	-0.012311839
74	0x3c7e7125	0.015529905
75	0xbd9839da	-0.07432909
76	0xbd5e702b	-0.05430619
77	0xba98904e	-0.0011639686
78	0xbd2f3ff6	-0.042785607
79	0x3be0a501	0.0068556075
80	0xbd03edaa	-0.032209076
81	0xbbb42734	-0.0054978374
82	0x3d9fb698	0.07798499
83	0xbc8fbc70	-0.017545909
84	0xbd8172d8	-0.06320733
85	0xbd6f6d8f	-0.058454093
86	0x3d05aafa	0.03263376
87	0x3d0ccbda	0.034374095
88	0xbc98e35c	-0.0186631
89	0x3bd53942	0.00650707
90	0xbd81bc50	-0.06334746
91	0x3d6419de	0.05568873
92	0x3da1d452	0.07901825
93	0x3d8ad3a1	0.06778646
94	0x3d9a7a70	0.07542884
95	0x3d8b3e82	0.06799032
96	0xbd1b0780	-0.03784895
97	0xbd561124	-0.05226244
98	0xbdb9fa93	-0.09080996
99	0x3c01a3b2	0.007912563
100	0x3a49a1c5	0.0007691647
101	0x3d6078ce	0.05480271
102	0x3cd82652	0.02638546
103	0x3d6a1e7b	0.057157975
104	0xbd85e358	-0.06537503
105	0xbc9e1684	-0.019297846
106	0x3dc4339d	0.09580157
107	0xbd9c23e4	-0.07624033
108	0xbd2f39fc	-0.042779908
109	0x3d7fd516	0.062459074
110	0xbda7695c	-0.081743926
111	0xbce73070	-0.028221339
112	0xbdbb2d30	-0.09139478
113	0xbc55d26a	-0.013050655
114	0xbc9b664a	-0.018969674
115	0x3dc91b8a	0.09819706
116	0x3ce47bce	0.027891066
117	0xbd7d85cf	-0.061895188
118	0xbd8db5b2	-0.06919421
119	0xbd8d54c4	-0.069009334
120	0x3d7ca849	0.061683927
121	0x3d62370e	0.055228285
122	0x3c74d821	0.014944107
123	0x3b950a8e	0.0045483774
124	0xbd946950	-0.07246649
125	0xbd536518	-0.051610082
126	0xbd58c24e	-0.05291968
127	0xbcb7f2d8	-0.022454664
128	0xbd570cdc	-0.052502498
129	0xbd4d36a8	-0.050100952
130	0x3ce5620c	0.028000854
131	0xbd15a81f	-0.036537286
132	0x3be50813	0.006989488
133	0xbdadb932	-0.08482589
134	0xbd319e76	-0.04336401
135	0x3da6c2f5	0.08142654
136	0xbd036db9	-0.03208706
137	0xbda6577c	-0.08122155
138	0x3db3cbf0	0.08779132
139	0xbd0e5c39	-0.03475592
140	0xbbddf068	-0.0067730434
141	0xbd8d8b66	-0.06911354
142	0xbd262618	-0.040563673
143	0x3d940408	0.072273314
144	0xbdc134b2	-0.09433879
145	0x3cc832a5	0.024438212
146	0x3d5479c4	0.051873937
147	0x3bc16396	0.005901764
148	0xbda53492	-0.080666676
149	0xbd6cc5d0	-0.057805836
150	0x3c80e6d0	0.01573506
151	0x3dbf3b12	0.09337439
152	0xbc2d00c1	-0.010559262
153	0x3a9b1cfa	0.0011834197
154	0xbcebe890	-0.028797418
155	0xbd9afdea	-0.075679615
156	0x3d9781c0	0.07397795
157	0x3d136e77	0.03599402
158	0xbd56f6d2	-0.05248148
159	0xbccec63e	-0.025241014
160	0xbd86c95f	-0.06581377
161	0xbc41190b	-0.011785756
162	0x3d0904fc	0.03345202
163	0x3d34df0c	0.044158027
164	0xbd076254	-0.033052757
165	0xbd01bcc2	-0.031674154
166	0xbce2bf0e	-0.027678993
167	0xbd37b252	-0.044847794
168	0xbd08acbe	-0.033367865
169	0xbd4aa3ec	-0.049472734
170	0xbd35423a	-0.04425261
171	0x3d61779e	0.055045716
172	0xbb3e7b10	-0.002906505
173	0xbd9aa856	-0.07551639
174	0xbd31e179	-0.043427918
175	0xbd8e0476	-0.069344446
176	0xbd94d192	-0.07266535
177	0x3cf5bb56	0.029996555
178	0xbc999a28	-0.018750265
179	0xbd3427f1	-0.043983404
180	0x3cb3c1f2	0.021943066
181	0x3d0f039b	0.034915548
182	0x3d0495a2	0.032369263
183	0x3d0c6b14	0.034281805
184	0x3daff1cb	0.0859104
185	0x3c96046e	0.01831266
186	0xbcc222f0	-0.0236983
187	0xbcfd9236	-0.030953508
188	0x3d170290	0.03686768
189	0x3dc73d12	0.09728445
190	0x3d97f0f4	0.07419005
191	0xbd874abd	-0.06606052
192	0xbd9c338a	-0.07627018
193	0x3d1049f0	0.035226762
194	0xbd979f6e	-0.07403456
195	0xbb672b08	-0.0035273451
196	0xbd429bd8	-0.047511905
197	0xbda067f5	-0.07832328
198	0xbc416bf4	-0.011805523
199	0xbc47f866	-0.012205219
200	0x3d38d386	0.0451236
201	0x3d103078	0.035202473
202	0xbce7c2c0	-0.028291106
203	0x3d8940da	0.067018226
204	0x3de524de	0.111886725
205	0x3c6efdc0	0.014586866
206	0x3c43a187	0.011940367
207	0xbdacb2de	-0.08432554
208	0xbd531340	-0.05153203
209	0xbbae2009	-0.0053138775
210	0x3d36332a	0.044482388
211	0x3d8c1f63	0.06841924
212	0xbd10a7fa	-0.035316445
213	0x3d9e4c03	0.07729342
214	0x3d0c9f5c	0.034331664
215	0x3c71e39e	0.014763741
216	0x3d6586f0	0.05603689
217	0x3ca2b4dc	0.019861631
218	0xbd82cdc2	-0.063869014
219	0x3b07fe6a	0.0020751008
220	0xbd6f7491	-0.058460776
221	0x3d4f5912	0.050622053
222	0xbdb71790	-0.08940041
223	0x3cc1f56d	0.023676598
224	0x3d3b3374	0.045703366
225	0xbd3dd6d6	-0.04634746
226	0xbd3e6934	-0.04648705
227	0x3d9c590c	0.07634172
228	0x3da610cf	0.08108675
229	0xbcd31866	-0.02576847
230	0xbd991bf4	-0.07476035
231	0xbd70f8aa	-0.058830895
232	0x3d09871a	0.03357611
233	0x3c82a462	0.015947524
234	0x3cad3a2c	0.021145903
235	0x3ced8808	0.028995529
236	0xbca4740d	-0.020074869
237	0xbc643986	-0.01392973
238	0x3c1252cd	0.008930874
239	0x3da0b771	0.07847489
240	0xbdaa4bfe	-0.083152756
241	0x3b066f06	0.0020512952
242	0xbce3818e	-0.027771737
243	0x3c846d90	0.016165525
244	0xbb1c5fcc	-0.002386081
245	0xbbb0a906	-0.005391243
246	0x3db3f3ae	0.087867126
247	0x3d686e60	0.056745887
248	0x3d7ac66a	0.06122438
249	0x3d32dd42	0.04366804
250	0x3c73a60e	0.0148711335
251	0xbd712394	-0.05887182
252	0x3d335bb2	0.04378862
253	0x3d305f95	0.043059904
254	0xbdad263a	-0.08454557
255	0xbcb0e68c	-0.021594308

fc2.bias f4 [84]
0	0x3d0f8122	0.03503526
1	0x3bf394e6	0.0074335216
2	0x3d05467c	0.032537922
3	0x3d862631	0.06550253
4	0xbcb63d9d	-0.022246176
5	0x3bca7a34	0.0061791185
6	0x3d852067	0.06500321
7	0xbd968ed0	-0.07351458
8	0x3d92e79d	0.07173083
9	0xbdba0c40	-0.09084368
10	0x3be088c2	0.0068522403
11	0xbd1a6266	-0.037691496
12	0x3dcb59b2	0.099292174
13	0xbd0bde74	-0.034147695
14	0xbdb46c62	-0.08809735
15	0xbdb8a82e	-0.09016453
16	0xbc7f4ee2	-0.015582772
17	0x3d470081	0.048584465
18	0xbd88b9aa	-0.066760376
19	0xbc554f4a	-0.013019392
20	0xbd09c0b4	-0.03363104
21	0xbd86fbb8	-0.0659098
22	0x3d8af8db	0.06785747
23	0xbd21865d	-0.03943478
24	0xbd68e9de	-0.056863658
25	0xbb3f264b	-0.0029167111
26	0xbc97de77	-0.018538697
27	0x3dbeacb0	0.09310281
28	0x3d52644a	0.051365174
29	0xbd88b77d	-0.066756226
30	0x3db1849f	0.086678736
31	0x3d7d5df8	0.061857194
32	0x3d97977f	0.074019425
33	0xbd8194fe	-0.06327246
34	0x3db9bc86	0.09069161
35	0x3d968a68	0.07350618
36	0xbd163535	-0.036671836
37	0x3da38c8c	0.079857916
38	0xbda275d2	-0.07932629
39	0xbc9422a7	-0.01808293
40	0x3d4dc09b	0.05023251
41	0x3d25deb4	0.04049559
42	0x3b97bdad	0.0046307654
43	0xbdc058b1	-0.093919165
44	0x3d55de36	0.05221387
45	0x3cac50f4	0.021034695
46	0x3d55a42c	0.05215852
47	0xbd5c319a	-0.05375824
48	0x3cb02764	0.021503158
49	0xbd6183ab	-0.05505721
50	0xbd2312bc	-0.03981279
51	0xbd2cd363	-0.04219378
52	0x3cb77ff3	0.022399878
53	0xbc94bd48	-0.018156663
54	0x3aa6e044	0.0012731631
55	0xbdaf9d64	-0.08574942
56	0x3c0b58b2	0.008505033
57	0xbd8f5e7e	-0.07000445
58	0xbdbd35a8	-0.0923875
59	0x3c27562d	0.010213417
60	0x3d1bcac7	0.03803518
61	0x3d7d570c	0.061850592
62	0xbcbcf91c	-0.023068003
63	0xbc0588a8	-0.008150257
64	0xbd87d876	-0.066330835
65	0xbd9f2e79	-0.07772536
66	0xbcc21ca0	-0.02369529
67	0x3d9642bc	0.07336947
68	0x3cbfc8c6	0.023411166
69	0x3da9b6c0	0.0828681
70	0x3c10b630	0.008832499
71	0x3d043532	0.032277294
72	0x3d99f2a2	0.07516982
73	0xbd02dd72	-0.031949468
74	0xbd4f01ef	-0.050538953
75	0xbae0e15e	-0.0017157008
76	0x3ce6ee64	0.028189845
77	0x3d53d0bb	0.051712733
78	0xbdb26dba	-0.08712335
79	0xbd9a20d2	-0.07525791
80	0xbd8dffc0	-0.06933546
81	0xbda15086	-0.07876687
82	0x3dabce60	0.08388972
83	0xbcfdf0da	-0.030998636

fc3.weight f4 [10, 84]
0	0xbd2ad9ea	-0.041711725
1	0xbd9f045d	-0.07764504
2	0xbdd0e9f3	-0.10200872
3	0x3dbe7dde	0.09301351
4	0x3dd1f776	0.102522776
5	0xbda06ca8	-0.078332245
6	0x3be15ca2	0.006877498
7	0x3d8a9fd4	0.06768766
8	0xbc8163e4	-0.015794702
9	0x3c7a16a8	0.015264191
10	0x3cd4b9cc	0.025967501
11	0x3d33d8ad	0.04390781
12	0xbdd3eb0f	-0.10347568
13	0x3d9fb46e	0.07798086
14	0xbc1c2af4	-0.009531725
15	0xbdabca71	-0.08388222
16	0xbd0d3360	-0.034472823
17	0xbd7f2114	-0.062287405
18	0xbb631b52	-0.0034653735
19	0x3daa6214	0.08319488
20	0xbdbf6cdc	-0.09346935
21	0x3badcaea	0.0053037303
22	0x3d9b767c	0.075909585
23	0x3db0e366	0.08637123
24	0x3b696e51	0.0035618732
25	0xbd6efd68	-0.058347136
26	0x3cfd0167	0.030884458
27	0xbdc8df12	-0.09808172
28	0xbd19759e	-0.037465684
29	0xbdc39fa2	-0.09551932
30	0xbd35ca22	-0.044382222
31	0xbde7d06e	-0.11319052
32	0xbbef6120	-0.0073052794
33	0xbcf99972	-0.030468676
34	0x3d835452	0.06412567
35	0x3dabe44c	0.083931535
36	0x3cec9b6b	0.028882703
37	0xbdcc7b00	-0.09984398
38	0xbddf569e	-0.10905193
39	0x3d4df435	0.050281722
40	0xbd5eeafc	-0.054423317
41	0xbd5db13e	-0.05412411
42	0xbd31dee4	-0.043425456
43	0xbc170612	-0.009217756
44	0xbd2e4d3d	-0.04255413
45	0x3da011c2	0.07815887
46	0xbcf5f6ac	-0.030024849
47	0xbc3275c4	-0.010892335
48	0x3d035c18	0.03207025
49	0xbdcb2ade	-0.09920286
50	0xbd28e80a	-0.041236915
51	0x3cee81d2	0.029114638
52	0x3d58cea4	0.052931443
53	0x3c09cd58	0.008410774
54	0xbd3cb67b	-0.046072464
55	0x3dfb3390	0.12265694
56	0x3c042e9b	0.008067752
57	0xbde3344a	-0.11093958
58	0xbd1da791	-0.038489882
59	0x3d45b38e	0.04826694
60	0x3d4a30c8	0.049362928
61	0xbc10df1c	-0.008842256
62	0xbdd6ddea	-0.104915455
63	0xbc4d1a3f	-0.012518465
64	0x3c5059dd	0.012716738
65	0x3c6c2618	0.014413379
66	0x3da7dd2c	0.08196482
67	0xbd3b2c24	-0.045696393
68	0x3cc24e6e	0.023719039
69	0xbdb57382	-0.08859922
70	0x3de525f2	0.11188878
71	0xbdd6d8a3	-0.10490539
72	0xbd36a90a	-0.044594802
73	0xbd9cfb86	-0.07665162
74	0x3d03b417	0.03215417
75	0x3b879bda	0.004138452
76	0xbcef81c6	-0.029236685
77	0xbd0b4eee	-0.03401082
78	0x3cf3e1fe	0.029770847
79	0x3d7a1302	0.061053284
80	0x3dd978e2	0.1061876
81	0xbbb00756	-0.0053719683
82	0xbd7c9bbe	-0.061671965
83	0x3dd6b203	0.10483172
84	0x3d2f34b0	0.042774856
85	0x3dd9a734	0.106275946
86	0x398e5c7d	0.0002715326
87	0xbca00744	-0.019534715
88	0x3d758c06	0.05994799
89	0x3da19b8d	0.07890997
90	0xbccf9952	-0.025341664
91	0x3d888dc6	0.06667666
92	0x3db70be8	0.08937818
93	0xbd773856	-0.06035646
94	0xbd3cbaa8	-0.046076447
95	0x3dc01860	0.09379649
96	0xbdc465b7	-0.09589713
97	0xbd26e8b3	-0.040749263
98	0x3c3d01ac	0.011536043
99	0x3c4a27a2	0.012338551
100	0xbd4fc156	-0.05072149
101	0x3d8bb440	0.06821489
102	0xbd22aaae	-0.039713554
103	0x3d9d02d0	0.07666552
104	0xbdaa38c6	-0.0831161
105	0xbd8d0416	-0.06885545
106	0xbdc8fdca	-0.098140314
107	0x3c97aeca	0.018515963
108	0xbd0ebd57	-0.034848537
109	0xbd608590	-0.054814875
110	0xbcca6119	-0.024704503
111	0x3bfcfebe	0.0077207973
112	0xbda9e8f1	-0.08296383
113	0xbd1d775c	-0.038443908
114	0x3d7b01af	0.061280902
115	0x3dc288cf	0.094987504
116	0x3cc1f00f	0.02367404
117	0x3daa5ec3	0.083188556
118	0xbd041fb4	-0.032256797
119	0x3d8dffe4	0.06933573
120	0x3cad4bc0	0.021154284
121	0x3d76a83c	0.060219035
122	0xbdb5374c	-0.08848438
123	0x3d920d9d	0.07131503
124	0xbd078f08	-0.03309539
125	0x3d1aa40c	0.037754104
126	0x3d94e246	0.07269721
127	0x3d845a54	0.06462541
128	0xbc9e258c	-0.019305013
129	0xbd818558	-0.063242614
130	0xbdb64e30	-0.08901632
131	0xbd67e75e	-0.056617133
132	0xbd154d76	-0.036450826
133	0xbca14b99	-0.019689368
134	0x3d73bce2	0.059506305
135	0xbd3f9f88	-0.046783
136	0xbdc91064	-0.098175794
137	0xbc02b73c	-0.007978257
138	0x3ddd3219	0.10800571
139	0x3dbade94	0.09124485
140	0x3dc18f5a	0.0945117
141	0xbdbf86d1	-0.09351886
142	0xbdc760e5	-0.09735278
143	0xbd93cdff	-0.07217025
144	0xbdadae91	-0.084805615
145	0xbd2ef362	-0.042712577
146	0x3e05d1c2	0.13068298
147	0xbd657616	-0.05602082
148	0xbc8624bf	-0.016374944
149	0x3db89c3c	0.09014174
150	0x3c8c2e3f	0.017111896
151	0x3d959439	0.07303662
152	0xbd26ccf1	-0.04072279
153	0xbd4fdee4	-0.050749674
154	0xbd8a0113	-0.06738486
155	0x3be35765	0.0069379085
156	0xbd33fb70	-0.04394096
157	0xbdb4d4ac	-0.088296264
158	0x3c534136	0.0128939655
159	0x3d262c17	0.04056939
160	0x39b5d4fb	0.00034681693
161	0x3d07f778	0.03319499
162	0xbcc81888	-0.02442576
163	0xbd8c0f14	-0.068388134
164	0x3d17ecc4	0.03709103
165	0xbdce1688	-0.10062891
166	0x3df303da	0.11865969
167	0x3d77b042	0.060470827
168	0x3dda37af	0.10655152
169	0x3d06640a	0.03281025
170	0x3b43dda5	0.002988675
171	0xbcc09b12	-0.023511443
172	0x3dce8224	0.10083416
173	0xb983b581	-0.00025121498
174	0xbcda8f1a	-0.026679564
175	0x3d58fe8e	0.052977137
176	0x3c812698	0.015765473
177	0xbadfcee5	-0.0017075209
178	0x3ccf69e4	0.025319047
179	0x3dab4524	0.08362797
180	0xbde0e113	-0.109804295
181	0x3d6141de	0.054994456
182	0x3ce56570	0.02800247
183	0x3d4d6fd8	0.05015549
184	0xbd8e98e0	-0.06962752
185	0x3d8a3892	0.06749071
186	0x3ce26d58	0.02764003
187	0xbd2ed220	-0.04268086
188	0xbd4ecfb4	-0.05049105
189	0x3967496c	0.00022057228
190	0x3d8577dc	0.06517002
191	0x3ddcb270	0.10776222
192	0x3e036452	0.12831238
193	0xbdcab130	-0.09897077
194	0xbd8c14d2	-0.06839909
195	0x3d19615c	0.037446365
196	0x3dae194e	0.0850092
197	0x3ddab826	0.10679655
198	0xbd44322c	-0.04789941
199	0xbd9062e0	-0.07050109
200	0xbd229930	-0.039696872
201	0xbd328350	-0.04358226
202	0x3d48ddae	0.049039535
203	0xbd7a1c80	-0.061062336
204	0x3dd4aa5e	0.103840575
205	0x3d814902	0.06312753
206	0xbce5517a	-0.027992953
207	0xbca10f82	-0.019660715
208	0xbd8c20bd	-0.06842182
209	0xbb7d388c	-0.003863844
210	0x3d6a81c1	0.05725265
211	0xbcc042bc	-0.023469321
212	0x3bdc4894	0.006722519
213	0xbc5eff56	-0.0136106815
214	0x3d4605b0	0.048345268
215	0x3c9ddf17	0.019271417
216	0xbdcd7ad4	-0.10033193
217	0xbcf9a2c7	-0.030473126
218	0xbd1f6b8e	-0.03892093
219	0x392b02f0	0.00016308925
220	0xbcfec2c6	-0.031098735
221	0xbd9976d2	-0.07493366
222	0xbda74c16	-0.08168809
223	0x3c4397d2	0.011938052
224	0x3dc1083e	0.094254
225	0xbcc924a5	-0.024553606
226	0xbd171a98	-0.036890596
227	0xbd962777	-0.07331746
228	0xbd6076c0	-0.05480075
229	0xbd3f3c94	-0.04668863
230	0xbd5ec893	-0.0543905
231	0xbd443e1c	-0.047910795
232	0xbdc615b4	-0.09672108
233	0x3bd3a31e	0.006458654
234	0xbd298f90	-0.041396677
235	0xbd5247ac	-0.051337883
236	0x3ce7f984	0.02831722
237	0xbd9da83c	-0.07698104
238	0x3dbc64ca	0.091989115
239	0xbda5bc49	-0.08092553
240	0x3d84456a	0.06458552
241	0x3da96f71	0.08273209
242	0x3dab1052	0.08352722
243	0xbd9c35d9	-0.07627458
244	0x3ddd10c6	0.10794215
245	0xbd34edc3	-0.04417206
246	0x3d77c9c0	0.06049514
247	0x3d534e3b	0.05158828
248	0xbd261210	-0.04054457
249	0xbd674b5a	-0.056468345
250	0x3c9ab9ef	0.018887488
251	0xbd4b5a48	-0.049646646
252	0x3d25a794	0.040443018
253	0x3bf98229	0.0076143933
254	0x3d519546	0.05116775
255	0xbd6c0c28	-0.05762878

fc3.bias f4 [10]
0	0x3db098dd	0.08622906
1	0x3c4a1f24	0.012336526
2	0xbdcc4f68	-0.09976083
3	0x3d60be15	0.054868776
4	0x3cafa59e	0.021441277
5	0x3d8d0e94	0.06887546
6	0xbd81cd4e	-0.06337987
7	0x3cd37d16	0.025816482
8	0xbda0c42e	-0.07849918
9	0x3dfcd6f6	0.12345688
