output/global_model.pth (torch, 251646 bytes, 10 tensors)

conv1.weight f4 [6, 3, 5, 5]
0	0xbe3dec8f	-0.18547271
1	0xbe1b734a	-0.15180698
2	0xbea6b63d	-0.32560912
3	0xbdf1463c	-0.11780974
4	0xbd8afc29	-0.06786377
5	0xbe4c4dde	-0.19951579
6	0x3cfa4ec3	0.030555135
7	0x3ea8d77b	0.329769
8	0xbc4d1550	-0.012517288
9	0x3dd86c85	0.105675735
10	0xbe91293a	-0.28351766
11	0x3e9e4eab	0.30919394
12	0x3ea2ba0a	0.31782562
13	0xbbddcbe8	-0.0067686923
14	0xbcb928ab	-0.0226024
15	0xbedbe6da	-0.42949563
16	0x3e4dae82	0.200861
17	0x3f030da4	0.5119269
18	0x3e059e3a	0.1304864
19	0xba98e3d8	-0.0011664582
20	0xbd917084	-0.07101539
21	0x3db12afb	0.08650776
22	0x3c016100	0.007896662
23	0x3dbaa67c	0.091137856
24	0xbda6f5cd	-0.081523515
25	0x3df56bd2	0.11983456
26	0xbc9aa4b8	-0.018877372
27	0xbe99a3d8	-0.30007815
28	0x3d1f50ec	0.038895532
29	0x3deabae4	0.11461428
30	0xbecf94b4	-0.4054314
31	0x3d892014	0.066955715
32	0x3df95260	0.12173915
33	0xbe454fb8	-0.19268692
34	0xbe030de6	-0.1279827
35	0xbf2431b7	-0.6413836
36	0xbdc27a6a	-0.09496005
37	0x3dccd610	0.10001767
38	0xbea0a794	-0.31377852
39	0xbc2ea83c	-0.010660227
40	0xbf07cc33	-0.5304596
41	0xbe8ccc26	-0.27499503
42	0x3d786b5a	0.060649253
43	0xbd584d6a	-0.052808203
44	0xbe29b682	-0.16573527
45	0xbe829b18	-0.25508952
46	0xbf02819a	-0.50979006
47	0xbe686350	-0.22694135
48	0xbc0e52fd	-0.008686778
49	0xbe2cb01a	-0.16864052
50	0x3ed2afa3	0.41149625
51	0x3d58e02c	0.052948162
52	0xbd372364	-0.044711486
53	0x3caa3773	0.020778393
54	0x3e666d14	0.22502548
55	0xbd47b004	-0.048751846
56	0xba216980	-0.00061573833
57	0x3e111bc0	0.14170742
58	0xbe182297	-0.14856945
59	0xbbed1470	-0.0072351024
60	0xbe333767	-0.17501603
61	0x3cae5957	0.021282835
62	0x3d76ba93	0.060236525
63	0xbe9ac2a0	-0.30226612
64	0x3c8b8978	0.017033324
65	0xbef0de31	-0.4704452
66	0xbdeb83a0	-0.11499715
67	0xbd149131	-0.036271278
68	0xbe0246f1	-0.12722374
69	0xbc0c1ef9	-0.008552306
70	0xbea87716	-0.32903355
71	0xbe5b9e74	-0.21447164
72	0xbe8e7a9c	-0.2782792
73	0xbdb13879	-0.086533494
74	0xbe70ec4a	-0.23527637
75	0x3e34798d	0.17624493
76	0x3c574666	0.013139343
77	0x3dffd9a0	0.124926805
78	0xbdc33486	-0.095315024
79	0x3da48b80	0.0803442
80	0x3e0ef7e6	0.13961753
81	0xbd9af486	-0.075661704
82	0xbd24ccdf	-0.040234443
83	0x3dfd0422	0.12354304
84	0x3e398386	0.18116578
85	0x3df88b42	0.12135936
86	0x3cf03b1b	0.029325059
87	0xbeb28890	-0.34869814
88	0xbdb4c7a1	-0.08827139
89	0xbd864e9d	-0.06557963
90	0x3c6bad6a	0.014384607
91	0xbb8284aa	-0.0039831
92	0xbca1f96a	-0.01977225
93	0x3cc131b1	0.023583265
94	0xbcf3e548	-0.029772416
95	0x3dc117f8	0.094284
96	0x3dbe76a0	0.0929997
97	0x3da6dbba	0.08147378
98	0xbdd53afa	-0.104116395
99	0xbd0a66ac	-0.03378932
100	0xbd988cb5	-0.07448713
101	0xbde33a80	-0.11095142
102	0xbc4c82ed	-0.012482387
103	0x3d3be5d9	0.045873497
104	0xbe391ade	-0.18076655
105	0x3bc7e314	0.006100068
106	0xbe32ba02	-0.17453769
107	0xbdb9c550	-0.090708375
108	0x3e23083a	0.15921107
109	0x3da6ed45	0.08150724
110	0x3e048331	0.1294067
111	0xbd2c55cd	-0.042074014
112	0xbb9a5184	-0.0047094245
113	0x3e479476	0.19490227
114	0x3abfd7a0	0.0014636405
115	0x3d872fae	0.06600891
116	0x3d8c6c79	0.06856627
117	0x3db58cfa	0.0886478
118	0x3d86a8b3	0.065751456
119	0xbdec2dec	-0.115321964
120	0xbe37314f	-0.17889903
121	0x3c77c340	0.015122235
122	0x3d225b76	0.039638005
123	0xb9ef9340	-0.00045695342
124	0x3d730392	0.059329577
125	0xbdbec8c1	-0.093156345
126	0xbc43f0e6	-0.01195929
127	0x3d980460	0.074227095
128	0x3c58cfba	0.01323312
129	0xbdecf114	-0.115694195
130	0x3d8a31ba	0.06747766
131	0xbe50f2a7	-0.20405065
132	0xbcb27aad	-0.021787012
133	0x3e2fd7db	0.17172186
134	0x3cf1d629	0.029521065
135	0x3d4767d7	0.048683014
136	0x3c8ac87d	0.016941303
137	0xbdecabee	-0.115562305
138	0x3e51fade	0.20505854
139	0xbe140a4a	-0.1445705
140	0xbe1d1714	-0.15340835
141	0xbd761795	-0.060081083
142	0xbe2c9990	-0.16855454
143	0xbd5afa31	-0.053461257
144	0xbcd36adc	-0.02580779
145	0xbdd0d73a	-0.10197301
146	0xbe3530de	-0.17694423
147	0xbe3ab424	-0.1823278
148	0xbd546db2	-0.051862426
149	0xbd83bafe	-0.0643215
150	0xbee3489f	-0.44391343
151	0xbea37f7e	-0.31933206
152	0xbedb9d4a	-0.4289344
153	0xbe954f24	-0.29161942
154	0xbeaa0c15	-0.33212343
155	0xbe43a202	-0.1910477
156	0xbdae9cee	-0.08526026
157	0x3d0f0c77	0.034923997
158	0xbdb83ede	-0.08996366
159	0xbd964326	-0.07337026
160	0x3db22ad3	0.08699574
161	0x3dd9e16e	0.106387004
162	0xbd9cb54a	-0.07651766
163	0xbea0d91c	-0.3141564
164	0xbeb51ffc	-0.35375965
165	0x3debd146	0.11514525
166	0xbe32ab48	-0.17448151
167	0xbe8fca09	-0.28083828
168	0xbe72fb23	-0.23728614
169	0xbe430d5e	-0.19048068
170	0xbde194ba	-0.110146955
171	0xbef2fbea	-0.4745782
172	0xbede839c	-0.43459785
173	0xbef524aa	-0.47879535
174	0xbf0d6bc2	-0.5524255
175	0xbe34282a	-0.17593446
176	0x3d036026	0.032074116
177	0x3de13324	0.109960824
178	0x3e06951c	0.13142818
179	0x3c43804c	0.011932444
180	0x3d0d3a66	0.03447952
181	0x3e040246	0.12891492
182	0x3e6abc80	0.2292347
183	0x3e925ffb	0.28588852
184	0x3e0adbd9	0.13560428
185	0x3c87e7fa	0.016590107
186	0x3e26385e	0.1623244
187	0x3ebb21d6	0.36549252
188	0x3db2f0fd	0.08737371
189	0xbe5e921c	-0.21735424
190	0x3e890246	0.26759547
191	0x3e59a3f0	0.21253943
192	0xbde67213	-0.11252227
193	0xbe178ca5	-0.14799745
194	0xbe1af24c	-0.15131491
195	0xba4fb280	-0.0007923022
196	0xbe93bcb6	-0.28854913
197	0xbea09fb6	-0.3137185
198	0xbecd2370	-0.400661
199	0xbec73fd4	-0.38915884
200	0xbdb294f9	-0.087198205
201	0x3d8a9769	0.067671604
202	0x3dc3f9a8	0.095691025
203	0x3e325a77	0.17417322
204	0x3dd48258	0.103764236
205	0x3c6bf2b2	0.014401125
206	0x3e1d5198	0.15363157
207	0x3eb2178c	0.3478359
208	0x3e9c5010	0.30529833
209	0x3df69b27	0.12041312
210	0x3eb20fdb	0.34777722
211	0x3ec6d0ee	0.38831276
212	0x3ee6be5e	0.45067114
213	0x3e0e0e3f	0.13872622
214	0x3da52e8c	0.08065519
215	0x3edbc143	0.42920884
216	0x3ebd435a	0.36965448
217	0x3d9a4772	0.07533158
218	0xbde13c72	-0.10997857
219	0xbd2ac8f5	-0.041695554
220	0x3eadafb3	0.3392311
221	0xbd6216a2	-0.055197366
222	0xbe598914	-0.21243697
223	0xbe11142a	-0.14167848
224	0xbe242e27	-0.1603323
225	0x3e640550	0.22267652
226	0x3e509600	0.2036972
227	0xbdd2e516	-0.10297601
228	0xbe04f729	-0.12984909
229	0xbdcc2f01	-0.09969903
230	0x3e324362	0.17408517
231	0x3deb2050	0.114807725
232	0xbdd89654	-0.10575548
233	0xbcc9c550	-0.024630219
234	0xbe6f4483	-0.23365979
235	0x3e7a335e	0.24433658
236	0x3dcdeb77	0.10054677
237	0x3e14c9e4	0.1453014
238	0xbe5de148	-0.21667969
239	0xbc73e2ea	-0.0148856435
240	0x3c89a7aa	0.016803581
241	0x3b597bce	0.0033185366
242	0x3d1ebf50	0.03875667
243	0x3da6a9fc	0.08137891
244	0xbcbbc0da	-0.022919107
245	0x3e7c35c3	0.24629883
246	0xbe65dfda	-0.22448674
247	0xbe0fab66	-0.14030227
248	0x3e6a056b	0.2285363
249	0x3d7bcf12	0.061476775
250	0xbe77d834	-0.24203569
251	0x3db6edb2	0.089320555
252	0xbe695bd9	-0.22788943
253	0x3d97ee69	0.0741852
254	0x3df1a972	0.11799897
255	0xbd6a2a8b	-0.05716948

conv1.bias f4 [6]
0	0xbf9b194d	-1.2117096
1	0xc003c7ca	-2.0590692
2	0xbeb2597a	-0.3483389
3	0xc013d0bb	-2.309615
4	0xbfa17548	-1.2613916
5	0xbaee9f08	-0.0018205354

conv2.weight f4 [16, 6, 5, 5]
0	0xbdbacaac	-0.09120688
1	0xbdc6f36d	-0.097143985
2	0xbc4de564	-0.012566898
3	0xba3cd020	-0.0007202644
4	0xbd93d77c	-0.07218835
5	0xbdb410b8	-0.08792251
6	0xbdd21cd0	-0.10259402
7	0xbca383f7	-0.019960387
8	0xbddaea38	-0.10689205
9	0xbdafdf3c	-0.085875005
10	0xbdca1956	-0.09868114
11	0xbd3b1588	-0.04567483
12	0xbe1a24dd	-0.15053125
13	0x3c94c7af	0.018161623
14	0xbd2b9e24	-0.04189886
15	0xbdf12224	-0.1177409
16	0xbddfc30d	-0.10925875
17	0xbe09f108	-0.13470852
18	0xbca836e8	-0.020533994
19	0xbde0aa6c	-0.109700054
20	0xbd6f1b4e	-0.05837565
21	0xbce5fe22	-0.028075282
22	0xbdccf2d6	-0.10007255
23	0xbd82c660	-0.06385493
24	0xbc3cb8ac	-0.011518639
25	0xbd91c4cb	-0.071176134
26	0xbd4244c4	-0.04742886
27	0xbdea4752	-0.114393845
28	0xbdc26a3d	-0.094929196
29	0xbdb456da	-0.08805628
30	0xbc0914e4	-0.008366797
31	0xbdff0e2b	-0.12453874
32	0x3d4a7d4a	0.04943589
33	0xb916b3e8	-0.00014372135
34	0xbc3bd862	-0.011465164
35	0xbdf7ea50	-0.121052384
36	0xbd07cfb8	-0.03315708
37	0xbdc6d7ed	-0.09709153
38	0xbce137ac	-0.027492367
39	0x3d0cfa85	0.0344186
40	0xbdad9db2	-0.084773436
41	0xbdca2fb6	-0.098723814
42	0xbde94154	-0.113894135
43	0x3cb28a2c	0.021794401
44	0xbc729964	-0.014807079
45	0xbd298270	-0.04138416
46	0xbdedd8a8	-0.116135895
47	0xbd887b5f	-0.06664156
48	0xbd0a6ade	-0.033793323
49	0xb89eaac0	-7.565832e-05
50	0xbe053d08	-0.13011563
51	0xbca7ac51	-0.020467909
52	0xbd943a87	-0.07237726
53	0xbd17d186	-0.03706505
54	0xbd6f43a2	-0.05841411
55	0xbc5ce108	-0.013481386
56	0xbcb3ee49	-0.02196421
57	0xbc9eecee	-0.019400086
58	0xbd18fe82	-0.037352093
59	0xbdf78eb4	-0.12087765
60	0xbd55751e	-0.052113645
61	0xbdee962f	-0.11649739
62	0xbda977e0	-0.082748175
63	0xbbda6d88	-0.006665889
64	0x3ca2d825	0.019878456
65	0xbd8088b2	-0.062760726
66	0xbd523ac3	-0.05132557
67	0xbd7cad0b	-0.061688464
68	0x3c66f47e	0.014096377
69	0xbdb22b6c	-0.08699688
70	0xbdd58d70	-0.10427368
71	0x3d2aa1d8	0.041658252
72	0xbe0cf55e	-0.13765475
73	0xbd109ce7	-0.035305884
74	0xbd829d3e	-0.06377648
75	0x3d19d176	0.037553273
76	0xbd2b8b5a	-0.041880943
77	0xbd5a9486	-0.0533643
78	0xbd099fc7	-0.03359964
79	0xbd40fb16	-0.047114454
80	0x3a020b30	0.00049607735
81	0xbd003464	-0.031299964
82	0x3cc40aff	0.023931025
83	0x3d47c3d7	0.04877075
84	0x3c046267	0.008080102
85	0xbdd2fdec	-0.10302338
86	0xbdd20647	-0.102551036
87	0xbd39af0f	-0.045332965
88	0x3d37112a	0.044694103
89	0xbd41cfab	-0.04731719
90	0x3c430ec3	0.011905375
91	0xbb5a3498	-0.0033295508
92	0xbd7256b6	-0.059164725
93	0x3c828764	0.0159337
94	0xbde72a96	-0.112874195
95	0xbd832f10	-0.06405461
96	0xbd130136	-0.035889827
97	0xbdd84216	-0.1055948
98	0x3cb3cbc6	0.021947753
99	0xbdb93c3e	-0.090446934
100	0xbdf2fc40	-0.11864519
101	0xbe0e0046	-0.13867292
102	0xbda2ce0a	-0.07949455
103	0xbd682b8a	-0.056682147
104	0xbccea0bb	-0.025223127
105	0xbd6ade2f	-0.057340797
106	0x3c07cd38	0.008288674
107	0xbd3fee46	-0.046858095
108	0xbd6ec606	-0.05829432
109	0xbd8cc882	-0.06874181
110	0xbd8c16d4	-0.068402916
111	0xbe10d1e6	-0.1414257
112	0xbd8fe999	-0.07026977
113	0xbc2e1202	-0.010624411
114	0xbc6da036	-0.014503529
115	0x3d12a208	0.035799056
116	0xbdd829bc	-0.10554835
117	0x3bbb37a4	0.00571342
118	0xbdf30a65	-0.11867217
119	0x3c76e97c	0.015070315
120	0xbc8193bc	-0.015817516
121	0x3c9ae29a	0.01890688
122	0xbcc6de34	-0.024275877
123	0xbc6931de	-0.014233081
124	0xbd4b2f80	-0.049605846
125	0xbd6307de	-0.055427425
126	0xbdb10d31	-0.08645094
127	0xbc112f0d	-0.008861315
128	0xbc7a8837	-0.015291265
129	0xbdb98fc4	-0.09060624
130	0x3b90e232	0.004421496
131	0xbd8890bc	-0.06668231
132	0xbdce16c8	-0.10062939
133	0xbda4f282	-0.08054067
134	0x3c3570fd	0.011074302
135	0xbc99db68	-0.018781379
136	0xbe034c12	-0.12821987
137	0x3bdb4280	0.006691277
138	0xbdaba295	-0.083806194
139	0xbc802f1b	-0.015647462
140	0xbd7947d6	-0.060859524
141	0xbddfa68a	-0.10920437
142	0xbdedbc1e	-0.11608146
143	0xbd401d0f	-0.046902712
144	0xbd7b75c8	-0.06139162
145	0xbe078706	-0.13235101
146	0xbcc01458	-0.0234472
147	0xbdf41b2e	-0.119192466
148	0x3a373f00	0.0006990284
149	0xbde60ff9	-0.11233515
150	0xbf2ba902	-0.6705476
151	0x3dbf5122	0.09341647
152	0xbe5446ba	-0.20730105
153	0xbe65a6d0	-0.22426915
154	0x3e91bee8	0.28465962
155	0x3e16278b	0.14663522
156	0x3eb7c6ed	0.35893956
157	0x3dd47736	0.103743
158	0xbdbbc3bc	-0.09168193
159	0xbe43057c	-0.19045061
160	0x3ebd8570	0.37015867
161	0xbe8c99b8	-0.27461028
162	0x3e650cc8	0.22368157
163	0x3e01d40f	0.1267855
164	0xbee36cbf	-0.44418904
165	0xbe7d5cb4	-0.24742395
166	0x3e5c0646	0.21486768
167	0xbf855d08	-1.0419016
168	0xbc0172ce	-0.007900907
169	0xbed4fc21	-0.4159861
170	0xbd4358ee	-0.04769223
171	0x3e1a5c48	0.15074265
172	0xbf232221	-0.6372395
173	0xbe1bd8c0	-0.15219402
174	0xbf2cd2a2	-0.675089
175	0xbd413398	-0.047168344
176	0x3d01ee30	0.031721294
177	0xbe96dfaf	-0.29467532
178	0x3f057ed5	0.52146655
179	0x3d6a7d38	0.057248324
180	0xbcf92b21	-0.030416073
181	0x3e3b312c	0.18280476
182	0xbd3c5ef1	-0.04598898
183	0x3d55cdce	0.052198224
184	0x3d8f5738	0.069990575
185	0xbeba6d31	-0.3641143
186	0xbe35e25c	-0.1776213
187	0xbedeb8d0	-0.43500376
188	0xbeeb8150	-0.45997095
189	0xbe10502b	-0.14093082
190	0x3ed1e0c2	0.4099179
191	0xbe0689e8	-0.13138545
192	0xbe3e4509	-0.18581022
193	0xbe88f327	-0.2674801
194	0xbd3b505c	-0.045730934
195	0xbcc2ad1a	-0.023764182
196	0x3c252040	0.01007849
197	0x3e33966b	0.17537849
198	0xbe7a2624	-0.24428612
199	0x3cd2646a	0.025682647
200	0xbf366a87	-0.712563
201	0xbea093cf	-0.3136277
202	0x3e7852af	0.24250291
203	0x3e2fc681	0.17165567
204	0xbebfe9be	-0.3748302
205	0x3e321ce4	0.17393833
206	0xbe228b9f	-0.15873574
207	0xbe141245	-0.14460094
208	0xbf005ffe	-0.5014647
209	0xbdbda2a0	-0.09259534
210	0x3e6f342c	0.23359746
211	0x3e62b5c0	0.22139645
212	0xbdc0b5bb	-0.09409662
213	0xbe0045c0	-0.12526608
214	0x3d9d5f7d	0.076842286
215	0xbe9b3018	-0.3031013
216	0x3d15f514	0.036610678
217	0xbe5cd81e	-0.21566817
218	0xbe09bf96	-0.1345199
219	0x3cd6500a	0.026161212
220	0xbd108a17	-0.035287943
221	0xbdc46ca8	-0.09591037
222	0xbdf1247e	-0.117745385
223	0xbe579976	-0.21054634
224	0x3db62550	0.088938355
225	0x3ef172b2	0.47157818
226	0x3ec9aa59	0.39387777
227	0xbf192fdc	-0.5983865
228	0xbcbb2bf4	-0.022848107
229	0x3e6a09b0	0.22855258
230	0xbd190c77	-0.037365403
231	0xbe83296c	-0.2561754
232	0x3e8feeac	0.2811178
233	0x3e41f88c	0.1894247
234	0x3d79bcec	0.060971186
235	0xbe9c709e	-0.3055467
236	0x3dc93dc6	0.098262355
237	0x3ebad6f0	0.3649211
238	0xbe910cd6	-0.28330106
239	0x3e6d1cc3	0.23155503
240	0xbea3e0f2	-0.32007557
241	0x3edd46ba	0.43218023
242	0xbda7d39b	-0.081946574
243	0xbe7f53d6	-0.24934325
244	0x3ea43526	0.320718
245	0xbe29d2f6	-0.16584381
246	0x3f0643e8	0.52447367
247	0xbf10e383	-0.56597155
248	0xbf3e6b94	-0.743829
249	0xbd82a52a	-0.06379159
250	0x3e85ec6c	0.26156938
251	0x3e865a4e	0.26240772
252	0xbe8204cc	-0.25394285
253	0xbde54ffd	-0.11196897
254	0x3e6c2214	0.23059875
255	0xbe98b034	-0.29821932

conv2.bias f4 [16]
0	0xbe299a64	-0.16562802
1	0xbdc91ba7	-0.098197274
2	0xbdeb0b46	-0.114767596
3	0xbd9608fa	-0.07325931
4	0x3e76b90f	0.24094032
5	0xbe1cfdd2	-0.153312
6	0xbea1622c	-0.31520212
7	0xbea681e6	-0.3252098
8	0xbe5bced6	-0.2146562
9	0xbe924f17	-0.28575966
10	0xbde37d74	-0.11107913
11	0xbe41549e	-0.18879935
12	0x3f017934	0.50575566
13	0x3dd7244e	0.105049714
14	0xbeb527c0	-0.3538189
15	0x3fb9f187	1.4526833

fc1.weight f4 [120, 400]
0	0xbc10ebdc	-0.008845296
1	0x3cb74d56	0.022375744
2	0xbcaba945	-0.020954737
3	0xbd87eabe	-0.066365704
4	0x3c560776	0.013063302
5	0xbb13b8a4	-0.0022540474
6	0x3c887d51	0.016661318
7	0xbc31812f	-0.010834022
8	0xbd6ddab2	-0.058069892
9	0x3c190b6c	0.009341102
10	0x3c4e5646	0.012593811
11	0xbce3d97c	-0.027813666
12	0xbd497284	-0.049181476
13	0xbceb8273	-0.028748726
14	0xbcc6d606	-0.024271976
15	0xbca5cf97	-0.020240588
16	0x3d2a9a02	0.04165078
17	0x3d15fb50	0.036616623
18	0x3cc96994	0.024586476
19	0xbd0fae5b	-0.035078388
20	0xbccd9cb7	-0.025099142
21	0xbd0d78e3	-0.034539115
22	0xbd30a482	-0.043125637
23	0xbc0d3400	-0.008618355
24	0xbcc56cd3	-0.024099743
25	0xbf0e4331	-0.55571276
26	0xbe388166	-0.18018112
27	0xbf170ef0	-0.5900717
28	0xbe8cbaec	-0.2748636
29	0xbeec23be	-0.4612102
30	0x3a9c7f13	0.0011939727
31	0x3d3a2d00	0.04545307
32	0x3d354361	0.04425371
33	0xbe082fa0	-0.13299417
34	0xbe4ff436	-0.20308003
35	0xbd37d5a6	-0.044881485
36	0x3e639235	0.22223742
37	0x3f56dad8	0.8392768
38	0xbe8f57fc	-0.27996814
39	0xbe2d2378	-0.16908062
40	0xbe987a36	-0.2978074
41	0xbdb1ad95	-0.08675686
42	0x3f7dec8d	0.9918907
43	0x3f11837a	0.5684124
44	0xbd397f95	-0.045287687
45	0xbeaacf93	-0.33361492
46	0x3e87400e	0.26416057
47	0x3e1236fc	0.14278787
48	0xbd18d606	-0.037313484
49	0xbf333c7e	-0.7001418
50	0x3d2437e7	0.040092375
51	0xbce03cf3	-0.027372813
52	0x3c818533	0.015810585
53	0x3bd177a7	0.0063924375
54	0xbd41d2b8	-0.047320098
55	0x3be75b80	0.007060468
56	0xbd2d8733	-0.042365264
57	0xbd34e570	-0.04416412
58	0x3ce8f9c0	0.028439403
59	0xbbff9b80	-0.0078005195
60	0xbcfd2763	-0.03090257
61	0xbce7ca30	-0.028294653
62	0x3ccb5423	0.024820393
63	0xbd10e8cf	-0.035378274
64	0xbccd9aa0	-0.025098145
65	0xbd171c4b	-0.036892217
66	0x3d183f2a	0.037169613
67	0x3d2f7eff	0.042845722
68	0x3c885e4d	0.016646529
69	0xbd118620	-0.035528302
70	0xbc852107	-0.0162511
71	0x3b93aa73	0.004506403
72	0x3b74cdcd	0.0037354112
73	0xbd322010	-0.04348761
74	0xbb3b5cb3	-0.0028589189
75	0xbd01e4b3	-0.031712245
76	0x3d28b2cd	0.041186143
77	0x3d055ea0	0.032560945
78	0x3cc70bf3	0.02429769
79	0x3c9c833a	0.019105542
80	0xbcd8fa7d	-0.02648663
81	0xbbb3ed4d	-0.005490935
82	0x3ba7bda7	0.005119044
83	0x3baa0233	0.0051882504
84	0x3d444d0a	0.047925033
85	0x3d39f7a8	0.0454022
86	0xbbbe959a	-0.0058161737
87	0x3bbe688d	0.0058108033
88	0xbca68f2d	-0.020331943
89	0x3d37b15b	0.044846874
90	0xbb9695cd	-0.0045954944
91	0xbc96073a	-0.018313993
92	0xbd2d452f	-0.042302307
93	0x3cfc302d	0.03078469
94	0x3d16f70f	0.036856707
95	0x39be8ccd	0.0003634453
96	0x3bbcc2a7	0.005760509
97	0x3bfb095a	0.007661027
98	0xbb89a25a	-0.004200262
99	0xba080333	-0.0005188465
100	0xbd67460c	-0.056463286
101	0xbedfacc3	-0.43686494
102	0xbf16f19e	-0.5896243
103	0xbf1e4762	-0.6182767
104	0xbe57aade	-0.21061274
105	0xbe6b4ef9	-0.22979344
106	0xbe67d9cc	-0.22641677
107	0x3e81a5fa	0.25321943
108	0xbd03166d	-0.03200381
109	0xbe01c599	-0.12673034
110	0x3d40f13f	0.04710507
111	0xbacf3b10	-0.0015810449
112	0xbbb88354	-0.00563089
113	0xbeafb80d	-0.34320107
114	0xbe620630	-0.22072673
115	0xbb53a100	-0.0032292008
116	0x3d97de92	0.07415499
117	0x3f1ff0e0	0.6247692
118	0x3d5d6dc0	0.054059744
119	0x3ecd710c	0.4012531
120	0xbea10c63	-0.31454763
121	0xbca9c716	-0.020724814
122	0xbe3db3a2	-0.18525556
123	0xbd9f8391	-0.07788766
124	0xbea4a762	-0.32158953
125	0xbb576474	-0.0032866271
126	0x3e0bf32a	0.13666978
127	0x3e0a9d03	0.13536458
128	0xbdb265ea	-0.08710845
129	0xbe71a904	-0.2359963
130	0x3c596a11	0.013269917
131	0x3e1675ba	0.14693347
132	0xbb887be8	-0.0041651614
133	0xbe38ea4c	-0.18058127
134	0xbe0e7ff3	-0.13915996
135	0xbc648761	-0.0139482925
136	0x3db86297	0.090031795
137	0xbdc80c40	-0.097679615
138	0xbc89922a	-0.01679333
139	0xbdd71f38	-0.105040014
140	0xbca3bc35	-0.019987205
141	0xbdd08064	-0.101807386
142	0x3def715a	0.11691542
143	0x3cc1fff5	0.02368162
144	0x3e84e41c	0.25955284
145	0xbd4a3568	-0.04936734
146	0xbddab446	-0.10678916
147	0xbcf57148	-0.029961243
148	0xbbfef470	-0.007780604
149	0x3d0f8dec	0.035047457
150	0x3cf858b4	0.030315734
151	0x3d933f54	0.07189813
152	0xbe182299	-0.14856948
153	0x3ce2b78a	0.027675409
154	0xbca5d4b5	-0.020243028
155	0xbce0e5d4	-0.02745334
156	0x3cb1b0a4	0.021690674
157	0xbd38ccee	-0.04511731
158	0xbdada084	-0.084778816
159	0x3cc3a2bc	0.023881309
160	0xbdc9e293	-0.09857669
161	0xbd9ad1d4	-0.07559553
162	0xbe105308	-0.14094174
163	0x3d4aae02	0.049482353
164	0xbd765cd0	-0.060147107
165	0xbdaf2a99	-0.08553047
166	0xbe12d033	-0.14337234
167	0xbd69e046	-0.05709865
168	0xbdbc5193	-0.091952465
169	0xbd6239f0	-0.055231035
170	0xbd01b5cb	-0.031667512
171	0xbcc52cc3	-0.024069196
172	0x3cd1f866	0.02563114
173	0xbd07a213	-0.03311355
174	0x3c043bee	0.008070929
175	0x3dd33fcd	0.103149034
176	0xbbbb048e	-0.00570733
177	0xbe8332a4	-0.25624573
178	0xbe791262	-0.24323419
179	0xbdf5f2a1	-0.120091684
180	0xbdea6b3e	-0.11446236
181	0x3d834417	0.064094715
182	0xbd8ece7e	-0.06972979
183	0x3ce4278d	0.02785089
184	0xbe38653a	-0.18007365
185	0xbe89b238	-0.26893783
186	0xbe5390ac	-0.20660657
187	0xbe35f454	-0.17768985
188	0x3eae8c77	0.3409154
189	0x3de7ac5e	0.11312173
190	0x3d73de3c	0.05953811
191	0x3e869aaf	0.2628989
192	0x3ea23d80	0.31687546
193	0x3e12868f	0.14309143
194	0x3c4565f4	0.012048233
195	0x3cb256d1	0.021769913
196	0x3e00f53f	0.12593554
197	0x3d87d30b	0.0663205
198	0xbe19497c	-0.14969438
199	0xbddb377f	-0.107039444
200	0xb8f59ccd	-0.00011711717
201	0xbc2a2187	-0.01038397
202	0x3cae07da	0.021243978
203	0xbcd38b7a	-0.025823344
204	0x3ca8ddf7	0.020613654
205	0xbd41b3cf	-0.04729062
206	0x3c0e1847	0.00867278
207	0xbcfa5ad0	-0.03056088
208	0xbd0010ff	-0.03126621
209	0x3d424ea5	0.047438283
210	0xbd19bd98	-0.037534326
211	0xbcc4456d	-0.023958886
212	0xbd3b2418	-0.04568872
213	0x3bc4a567	0.006001163
214	0xbd21cd9d	-0.03950273
215	0xbd3cbb00	-0.046076775
216	0xbc4750cc	-0.01216526
217	0x3cc75ad3	0.0243353
218	0x3ca9d963	0.02073354
219	0xbc848030	-0.016174406
220	0x3cf39ca5	0.02973778
221	0xbd845e1c	-0.064632624
222	0xbb154b0e	-0.0022780332
223	0x3d49bfe3	0.049255263
224	0xbc2d669a	-0.010583544
225	0x3b9e01da	0.004821998
226	0x3d24e2c8	0.040255338
227	0x3cd4589a	0.025921155
228	0xbd245dad	-0.0401284
229	0xbc8d6f7d	-0.017265076
230	0x3d1b729f	0.037951108
231	0x3c1999e0	0.009375066
232	0x3d162d45	0.036664266
233	0x3c6229ad	0.013803882
234	0xbd39895a	-0.045297004
235	0x3b37e580	0.0028060377
236	0xbc95d42a	-0.018289644
237	0xbcf9f0dd	-0.03051036
238	0xbcdaf373	-0.026727414
239	0x3cc94b53	0.02457205
240	0xbd4c3d8a	-0.049863376
241	0xbc7a2687	-0.015267975
242	0xbc477bad	-0.012175483
243	0x3d0082ba	0.03137467
244	0x3d48f587	0.049062278
245	0xbcdb682a	-0.026783068
246	0xbb385280	-0.0028125346
247	0xbcaa9933	-0.020825004
248	0x3cfe107a	0.031013716
249	0x3c8e49a6	0.017369103
250	0xbc9295c3	-0.017893678
251	0x3cc9fc2a	0.024656374
252	0xbcd21923	-0.025646752
253	0xbbe6b100	-0.007040143
254	0xbd2c930a	-0.042132415
255	0xbbd4b5b3	-0.006491387

fc1.bias f4 [120]
0	0xbf2c91a6	-0.6740974
1	0xbf5928da	-0.8482796
2	0xbfd402c8	-1.6563349
3	0x3c88031a	0.016603041
4	0xbeeca136	-0.46216744
5	0xbf25dcd6	-0.64790094
6	0xbff20080	-1.8906403
7	0xbf6c6fa4	-0.9235785
8	0x3e4fd436	0.20295796
9	0xbf939e97	-1.1532773
10	0xbf3a4474	-0.727607
11	0xbfac74bf	-1.3473128
12	0xbfa4d110	-1.2876301
13	0xbf4b4cdf	-0.7941417
14	0xbf0e6fc5	-0.55639297
15	0xbf1649f2	-0.5870658
16	0xbf22c115	-0.6357587
17	0xbe5d7487	-0.21626483
18	0xbef0059e	-0.46879286
19	0xbf7f686e	-0.9976872
20	0x3b7db1bc	0.0038710674
21	0xbfac0e3a	-1.3441842
22	0xbfa3fc3b	-1.281135
23	0xbf42347b	-0.7586133
24	0xbf3d47cf	-0.73937696
25	0xbfa22ea8	-1.2670488
26	0xbfcca830	-1.5988827
27	0xbe8c1218	-0.27357554
28	0x3e8ee8e4	0.27912056
29	0xbf9e014c	-1.2344146
30	0xbc00b820	-0.007856399
31	0xbe0b2060	-0.13586569
32	0xbfdb2cfd	-1.7123104
33	0x3bfcd916	0.0077163083
34	0xbf86153c	-1.047523
35	0xbf40c8b7	-0.75306267
36	0x3f3d7d25	0.7401908
37	0xbe0e10d6	-0.1387361
38	0xbf69a538	-0.9126773
39	0xbf71fbba	-0.9452473
40	0x3f037129	0.51344544
41	0xbf3ce740	-0.7379036
42	0xbf71aeee	-0.94407547
43	0xbf9bdc12	-1.2176535
44	0xbf635c77	-0.88812965
45	0x3e20bef4	0.15697843
46	0x3f05b652	0.52231324
47	0xbec67c40	-0.3876667
48	0xbf4727f8	-0.7779536
49	0xc010731c	-2.2570257
50	0xbf850978	-1.0393515
51	0xbd983e68	-0.07433778
52	0xbe8b897c	-0.2725333
53	0x3f2a88ee	0.6661519
54	0xbfcb3f21	-1.587864
55	0xbf6e44ba	-0.9307362
56	0xbf3db5b7	-0.741054
57	0xbf503b8a	-0.8134085
58	0xbf5f63ed	-0.8726185
59	0xbfcaa4ec	-1.583158
60	0xbed0a21c	-0.4074868
61	0xbf7945e6	-0.9737228
62	0xbf19b045	-0.6003459
63	0xbfbd8914	-1.4807458
64	0xbfa77a99	-1.3084289
65	0xbed6f2f6	-0.4198224
66	0xbf61427e	-0.87992084
67	0xbec41c88	-0.38303018
68	0x3cde033e	0.027101155
69	0xbda0d574	-0.07853213
70	0xbec07b3b	-0.37594017
71	0xbeb710fc	-0.35755146
72	0xbe845cfb	-0.25852188
73	0xbf9a7f7a	-1.2070153
74	0xbfa6f09c	-1.3042178
75	0xbf85840e	-1.0430925
76	0xbf71c50e	-0.94441307
77	0xbf91589a	-1.1355164
78	0xbfb670a5	-1.4253126
79	0xbf931aec	-1.1492591
80	0xbf3c8f8d	-0.7365654
81	0xbf5b0953	-0.855611
82	0xbed45c84	-0.41476834
83	0x3f09de95	0.5385526
84	0xbdc51e37	-0.09624904
85	0xbdf14c84	-0.11782172
86	0xbf94e4ee	-1.1632364
87	0x3bd5ed8f	0.0065285633
88	0xbfd9fed8	-1.7030897
89	0xbfff8186	-1.9961402
90	0xbe0a5f43	-0.13512902
91	0xbf392ff4	-0.72338796
92	0xbdb69251	-0.089146264
93	0xbf6d5b54	-0.9271748
94	0xbe08d2b1	-0.13361622
95	0xbe92737d	-0.28603736
96	0x3daea680	0.08527851
97	0x3d31ce69	0.04340974
98	0xbe1cb736	-0.15304264
99	0xbf45f050	-0.7731981
100	0xbe8615bb	-0.26188454
101	0xbef0b2ba	-0.47011358
102	0xbf73dd31	-0.95259386
103	0xbfa0226c	-1.2510505
104	0xbf81045c	-1.0079455
105	0xbea661ca	-0.32496482
106	0xbf4fbafe	-0.811447
107	0xbf1b4d46	-0.60664785
108	0xbf718d94	-0.94356656
109	0xbf8bb35e	-1.0914114
110	0xbfb60a98	-1.4221983
111	0xbfd9b2bc	-1.700767
112	0x3e63a1d2	0.22229698
113	0xbf6769e2	-0.9039594
114	0xbf160ebb	-0.58616227
115	0xbef0885e	-0.4697904
116	0xbeb093ca	-0.34487754
117	0xbf6f7ca8	-0.93549585
118	0xbf99a55e	-1.2003591
119	0xbf83934b	-1.0279325

fc2.weight f4 [84, 120]
0	0xbd901dcb	-0.070369326
1	0x3c7509da	0.014955962
2	0x3e5ca097	0.21545635
3	0xbe8cce92	-0.2750135
4	0xbd06fe09	-0.03295711
5	0xbf38451a	-0.7198044
6	0x3ec5e664	0.38652337
7	0x3f2fc939	0.68666416
8	0x3e8b38f8	0.271919
9	0x3f03950f	0.5139932
10	0xbee11aee	-0.43965858
11	0xbe2b1dd4	-0.16710597
12	0xbe89c505	-0.26908126
13	0x3e323998	0.17404783
14	0x3eacb791	0.337338
15	0xbe7717ac	-0.24130124
16	0x3f56e5c1	0.83944327
17	0xbe8138b0	-0.25238562
18	0xbef498c0	-0.4777279
19	0x3efa2835	0.488588
20	0x3eff214a	0.49830085
21	0x3f4dc54d	0.8037918
22	0x3ee16ac8	0.4402678
23	0xbeb4d570	-0.3531909
24	0x3dda075c	0.10645935
25	0x3f38eaf3	0.72233504
26	0x3e1dc466	0.15406951
27	0xbe30c717	-0.17263447
28	0xbf82da17	-1.0222806
29	0x3f432d22	0.7624074
30	0xbdeff0b7	-0.117158346
31	0xbe32ea1e	-0.17472121
32	0x3eab622e	0.33473343
33	0xbf054355	-0.52055866
34	0x3eab8a52	0.33503968
35	0x3f319ba6	0.69378126
36	0xbf0c4df0	-0.54806423
37	0x3f47fb7a	0.781181
38	0x3de9c8e9	0.11415274
39	0x3daab051	0.08334411
40	0xbf48e9bd	-0.78481656
41	0x3d57de10	0.05270201
42	0x3e470936	0.19437107
43	0x3e591e54	0.21202976
44	0xbeb861d2	-0.3601213
45	0xbee640bd	-0.44971266
46	0x3dfc92a8	0.1233266
47	0xbdfdaf37	-0.12386935
48	0x3db363f6	0.087593004
49	0xbe45d608	-0.19319928
50	0x3d9bcf1f	0.076078646
51	0x3dad5283	0.084630035
52	0xbcbca784	-0.023029096
53	0xbe40ce20	-0.1882863
54	0x3cc71a6e	0.024304595
55	0x3dd1ac7a	0.102379754
56	0xbee08d36	-0.43857735
57	0x3f20e45e	0.6284846
58	0x3e86f66c	0.2635988
59	0x3ecf6b17	0.4051139
60	0x3e1d60e1	0.15368988
61	0xbf10f67c	-0.56626105
62	0xbf18fdb0	-0.59762096
63	0x3e18c840	0.1492014
64	0x3e1ce745	0.15322597
65	0x3f441dea	0.76608145
66	0x3e08374c	0.13302344
67	0xbe22c18a	-0.15894142
68	0x3ed9ca60	0.42537212
69	0xbeb1917b	-0.34681305
70	0xbc328ba4	-0.010897551
71	0x3d89137b	0.06693169
72	0x3f1f8ee3	0.623274
73	0x3e233874	0.15939504
74	0x3e896c85	0.26840606
75	0xbf3fa1b1	-0.74856097
76	0x3e9901ae	0.29884094
77	0xbea411ca	-0.32044822
78	0x3e8edf3e	0.27904695
79	0xbe337d98	-0.17528379
80	0x3ed72d1a	0.42026597
81	0x3dbd1964	0.092333585
82	0x3e96bb78	0.29439902
83	0x3efa3910	0.4887166
84	0xbe7eb257	-0.24872719
85	0x3eb499be	0.35273546
86	0xbf200546	-0.62508047
87	0xbdf503b2	-0.119635954
88	0xbe5a9d08	-0.21348965
89	0xbe75da39	-0.24009027
90	0xbf4cb6f2	-0.7996665
91	0x3edace5e	0.4273557
92	0xbf0bb7c2	-0.5457727
93	0x3e2ec359	0.17066707
94	0xbf86038f	-1.0469836
95	0x3e01c824	0.12674004
96	0xbf290296	-0.6601957
97	0xbde76486	-0.1129847
98	0xbed86e9a	-0.42271882
99	0x3f0b0dae	0.5431775
100	0x3dca44ab	0.098763786
101	0x3e015d21	0.12633182
102	0x3d6eb9a8	0.058282524
103	0xbf0c9c96	-0.5492643
104	0x3ef09d12	0.46994835
105	0x3e02ea38	0.1278466
106	0x3df72330	0.12067258
107	0xbea41478	-0.32046866
108	0x3e7ab066	0.24481353
109	0xbe9b37f2	-0.3031612
110	0x3f1af5f6	0.60531557
111	0xbf060ce2	-0.5236341
112	0xbea32068	-0.31860662
113	0xbf0211cf	-0.50808424
114	0x3efb7bc8	0.49117875
115	0x3dcc4670	0.099743724
116	0x3e7adf7c	0.24499315
117	0xbf9e3472	-1.2359755
118	0x3eb82e44	0.35972798
119	0x3e8e8b32	0.27840573
120	0x3ceda0a4	0.029007263
121	0x3ed942f6	0.424339
122	0x3dd0905b	0.101837836
123	0xbef27586	-0.47355288
124	0xbddff903	-0.10936167
125	0xbee1266e	-0.43974632
126	0x3efab7c0	0.48968315
127	0x3c055a64	0.008139227
128	0xbd3908dc	-0.045174465
129	0x3e988ce4	0.2979499
130	0x3f90510b	1.1274732
131	0xbdec5b4e	-0.115408525
132	0xbf25b1b6	-0.6472429
133	0xbece21c6	-0.40260142
134	0x3e3df580	0.18550682
135	0xbe85a5e8	-0.2610314
136	0x3e30e5df	0.17275189
137	0xbdae3dea	-0.08507903
138	0x3e3a7c9e	0.182116
139	0x3f358cb2	0.7091781
140	0x3f2f1534	0.6839173
141	0xbee683de	-0.45022482
142	0xbe0a2839	-0.13491906
143	0xbeca7778	-0.39544272
144	0x3f206b78	0.62663984
145	0x3ee09498	0.43863368
146	0xbd8f681e	-0.07002281
147	0xbb6d7d32	-0.0036237952
148	0xbeea5472	-0.45767552
149	0xbeadb0eb	-0.3392404
150	0x3daa53a7	0.08316737
151	0x3e555d80	0.20836449
152	0x3cdebbe2	0.027189199
153	0xbf134d59	-0.575399
154	0xbe896004	-0.26831067
155	0x3ea1dc9a	0.31613618
156	0xbe3ed7f0	-0.18637061
157	0xbeaa1650	-0.33220148
158	0x3f4120ad	0.75440484
159	0x3e106ec5	0.14104755
160	0x3e2b17ea	0.16708341
161	0xbda6376a	-0.08116038
162	0x3ea44b0e	0.32088512
163	0x3e584220	0.21118975
164	0x3e119e92	0.14220646
165	0x3f0c9d86	0.5492786
166	0xbda2813e	-0.07934807
167	0x3c791a6c	0.015204053
168	0x3e5124c8	0.20424187
169	0x3ec577ff	0.38568112
170	0xbe9f58a8	-0.31122327
171	0xbc522286	-0.012825614
172	0x3dc58178	0.09643835
173	0x3d7759a6	0.06038823
174	0x3f286d30	0.65791607
175	0x3cd7b5e1	0.026331844
176	0xbe959d63	-0.2922164
177	0xbf7887b0	-0.9708204
178	0xbec99378	-0.39370322
179	0xbf51906e	-0.8186101
180	0xbf3c9617	-0.7366652
181	0x3ee4e7fa	0.44708234
182	0xbf4652b4	-0.77469945
183	0x3ea699ec	0.32539308
184	0x3ec6b939	0.3881319
185	0xbea4ab14	-0.32161772
186	0x3ebda29a	0.37038118
187	0xbda3e447	-0.08002525
188	0xbf6fff46	-0.9374889
189	0xbe2cc781	-0.1687298
190	0xbe655e9c	-0.22399372
191	0x3e83ce0c	0.2574314
192	0x3f42e99a	0.761377
193	0x3d73e3b1	0.059543315
194	0x3f379c2d	0.7172268
195	0xbe88ba18	-0.26704478
196	0x3f359a8e	0.70938957
197	0x3f8a552e	1.0807245
198	0x3dd265f0	0.10273349
199	0xbe7d080e	-0.24710104
200	0xbecd3442	-0.40078932
201	0x3eb081b1	0.34473947
202	0xbe987272	-0.29774815
203	0xbe458ab7	-0.19291197
204	0xbe986682	-0.29765707
205	0x3f1405f4	0.57821584
206	0xbea0734e	-0.3133797
207	0x3f046b7e	0.5172652
208	0xbf1b86f0	-0.60752773
209	0xbde84ae4	-0.11342409
210	0xbf22c37c	-0.63579535
211	0xbf96ea44	-1.1790242
212	0xbe2d8cca	-0.16948238
213	0xbf94d88a	-1.1628582
214	0xbf3d5a84	-0.7396624
215	0xbe734ead	-0.23760481
216	0xbe494f7c	-0.19659227
217	0xbe8118e2	-0.25214297
218	0x3f0e4212	0.55569565
219	0x3f9a606e	1.2060678
220	0xbebe2ff4	-0.3714596
221	0x3e9584eb	0.2920297
222	0x3f6ea42e	0.9321927
223	0xbcad13b8	-0.021127567
224	0xbf7a596e	-0.9779271
225	0xbe440829	-0.19143738
226	0x3ef0e96c	0.47053087
227	0xbdcd8bff	-0.10036468
228	0xbd81cc50	-0.06337798
229	0xbf4c6710	-0.7984476
230	0xbe0f0ca4	-0.13969666
231	0xbec25edc	-0.37962997
232	0xbcd67e77	-0.02618335
233	0x3e6167cb	0.2201225
234	0xbd36122c	-0.044450924
235	0xbd91bda9	-0.07116253
236	0xbd77e096	-0.060516916
237	0xbe901038	-0.28137374
238	0xbe122cfc	-0.14274973
239	0x3da696b2	0.081342116
240	0x3f3a3a02	0.7274476
241	0x3f0b98b5	0.5452989
242	0x3efbc041	0.49170116
243	0x3de855b3	0.11344471
244	0x3e227e00	0.15868378
245	0xbf2624e6	-0.6490005
246	0x3f5156e4	0.8177321
247	0x3e93e8de	0.288886
248	0xbc9ae98b	-0.01891019
249	0x3eb77b46	0.35836238
250	0xbfab8f5a	-1.3403122
251	0xbe8733f4	-0.26406825
252	0x3f676af7	0.9039759
253	0x3ed27628	0.4110577
254	0xbe84fd61	-0.25974563
255	0x3e4f117b	0.20221512

fc2.bias f4 [84]
0	0xbf9b2540	-1.2120743
1	0x3d91464e	0.07093488
2	0xbf46c844	-0.7764933
3	0xbf01b8a6	-0.50672376
4	0xbf1a356a	-0.60237753
5	0xbf8b8006	-1.0898445
6	0xbfafe9e9	-1.3743259
7	0xbf1e9be2	-0.6195661
8	0xbe7541a6	-0.23950824
9	0xbeb6f781	-0.35735705
10	0xbd6d3dac	-0.057920143
11	0xbf337c0a	-0.70111144
12	0x3e04565a	0.12923566
13	0xbfb80e3d	-1.4379345
14	0xbf89ecb3	-1.077536
15	0xbf3e3e9d	-0.7431429
16	0xbf96ca00	-1.1780396
17	0xbed8588f	-0.42255065
18	0xbf6e6816	-0.9312757
19	0xbf2fcdd7	-0.6867346
20	0xbfba0e98	-1.4535704
21	0xbf4281fd	-0.75979596
22	0xbf2c0352	-0.67192566
23	0xbeb32d3b	-0.34995446
24	0xbebb9d8f	-0.36643645
25	0xbfa1c4b2	-1.2638152
26	0x3e45fb9a	0.1933426
27	0xbdb4d93c	-0.08830497
28	0xbf2a8388	-0.6660695
29	0xbf94f091	-1.1635915
30	0xbf9605dc	-1.1720538
31	0xbe9d3399	-0.30703428
32	0xbf3a0668	-0.72666025
33	0x3efb94b0	0.49136877
34	0xbe444d96	-0.19170222
35	0xbeaaebca	-0.33383018
36	0xbf1218ca	-0.57069075
37	0xbea2e6a5	-0.31816593
38	0xbf9a683a	-1.2063057
39	0x3de421da	0.11139269
40	0xbe2f747e	-0.17134282
41	0xbee220ae	-0.44165558
42	0xbf9594a2	-1.1685984
43	0xbc948cbc	-0.018133514
44	0xbec6859c	-0.3877381
45	0x3d138c5f	0.03602254
46	0xbef7be54	-0.48387396
47	0xbf5b43e6	-0.8565048
48	0xbf9b888c	-1.2151046
49	0xbed4a478	-0.4153173
50	0xbf6689a7	-0.9005379
51	0xbf3c960c	-0.73666453
52	0xbf485804	-0.782593
53	0xbfc4e02e	-1.5380914
54	0xbcd15ace	-0.025555994
55	0xbf51c0f8	-0.8193507
56	0xbb102870	-0.002199676
57	0xbd3811d8	-0.044938892
58	0xbeb34ec4	-0.3502103
59	0xbfbdc45e	-1.4825552
60	0x3c8e61d2	0.017380629
61	0xbefa4286	-0.48878878
62	0xbf134564	-0.57527757
63	0xbf1d0cb5	-0.61347514
64	0xbec9ba3f	-0.39399907
65	0xbe97c072	-0.29639012
66	0x3dc73dae	0.09728561
67	0xbfc64f16	-1.5492885
68	0xbf8957d3	-1.0729927
69	0xbe0b3911	-0.13595988
70	0xbf445a08	-0.76699877
71	0xbf8a6832	-1.0813048
72	0xbfc01196	-1.5005367
73	0xbf13e116	-0.5776533
74	0xbf15f630	-0.5857878
75	0xbf40acfd	-0.7526396
76	0xbf2212b5	-0.63309795
77	0xbeeccc00	-0.4624939
78	0xbe7cf6c8	-0.24703515
79	0xbfe660b3	-1.799826
80	0xbf412e58	-0.7546134
81	0xbe84681e	-0.25860685
82	0x3f020ee7	0.5080399
83	0xbe128c4e	-0.14311334

fc3.weight f4 [10, 84]
0	0xbfd7c97e	-1.6858366
1	0xbf6420fe	-0.8911284
2	0xbea6f6fd	-0.32610312
3	0xc01e4085	-2.472688
4	0xbfd69036	-1.676276
5	0xbfccf66d	-1.6012703
6	0xbfa2658e	-1.2687242
7	0xbfa5cb16	-1.2952602
8	0xbf9dd2d8	-1.232997
9	0xbef694a4	-0.4816028
10	0x3def1736	0.11674349
11	0xbfb29412	-1.3951437
12	0xc04193b1	-3.0246394
13	0xbe42f397	-0.19038235
14	0xbf9af3e7	-1.2105683
15	0xc0c1a7fe	-6.051757
16	0xbf0d44ad	-0.55182916
17	0xc0142492	-2.314732
18	0xbf3440aa	-0.7041117
19	0xbf9ca240	-1.2237015
20	0xbfb152a8	-1.385335
21	0xc05f81be	-3.4922938
22	0xbf2c66bc	-0.6734426
23	0xbfebc3aa	-1.8419087
24	0xbf99af66	-1.2006652
25	0xbf830310	-1.023531
26	0xbfd81ccf	-1.6883792
27	0xc014850a	-2.32062
28	0xbf8c91a0	-1.0981941
29	0xc044a76a	-3.0727181
30	0xbfa655b2	-1.2994902
31	0xc047dd64	-3.1228876
32	0xc0492e34	-3.143445
33	0xbf0e3238	-0.5554538
34	0xbd241a08	-0.040063888
35	0xbe4a6ad1	-0.1976731
36	0xc079e48f	-3.904575
37	0xbfa39efa	-1.2782891
38	0xc096f7d8	-4.7177544
39	0xbfe4b018	-1.786624
40	0xc020e9eb	-2.5142772
41	0xc0845510	-4.1353836
42	0xc053fa53	-3.3121536
43	0xc09c2fcc	-4.8808346
44	0xbe9fea30	-0.31233358
45	0xbf6fe672	-0.93711007
46	0xbf29710a	-0.6618811
47	0xbef3019f	-0.47462174
48	0xbfcdd212	-1.6079733
49	0xbf97bd60	-1.1854668
50	0xbffc7334	-1.9722657
51	0xc08b1283	-4.3460097
52	0xbf59a480	-0.8501663
53	0xbf78b0b7	-0.97144645
54	0xbee34b78	-0.44393516
55	0xbfedf06e	-1.8588998
56	0xc034245e	-2.8147197
57	0xc0128af6	-2.2897315
58	0xc0aa9732	-5.3309565
59	0xc00f7c90	-2.2419777
60	0xbfa9d372	-1.3267653
61	0xbfea1c09	-1.8289806
62	0xbeff1b2b	-0.49825415
63	0xbf97bf8a	-1.1855328
64	0xbfe9b8ba	-1.8259499
65	0xbe2c8992	-0.16849354
66	0xc010cccc	-2.2624998
67	0xc00699ae	-2.1031299
68	0xbefac0fe	-0.48975366
69	0xc043d55c	-3.0598974
70	0xbfe70238	-1.8047552
71	0xbf878a89	-1.0589153
72	0xc036da94	-2.857091
73	0xc004cef9	-2.0751326
74	0xc058a6e0	-3.3851852
75	0xc05a013c	-3.4063253
76	0xbfbc9b60	-1.4734917
77	0xbff464a2	-1.9093211
78	0xc090448a	-4.5083666
79	0xbfabd794	-1.3425164
80	0xc0458138	-3.086012
81	0xc0527ae7	-3.2887514
82	0xc001e52b	-2.0296123
83	0xc062a780	-3.5414734
84	0xbff5cdb8	-1.9203405
85	0xbfa4cd30	-1.2875118
86	0xc05c020d	-3.4376252
87	0xbfb86c6e	-1.440809
88	0xbeeeedc8	-0.46665788
89	0xc00d5bf6	-2.2087379
90	0xc075d1d8	-3.8409328
91	0xbf2af4b2	-0.66779625
92	0xbf9f5794	-1.2448602
93	0xc0332dae	-2.799663
94	0xbdcf30dc	-0.10116741
95	0xbedbeb9e	-0.429532
96	0xc0204532	-2.5042233
97	0xbf808182	-1.0039523
98	0xc011d28c	-2.2784758
99	0xc0856b34	-4.1693363
100	0xc00e21d6	-2.2208152
101	0xbf7f7ed8	-0.99802923
102	0xc03ae2c0	-2.9200897
103	0xbf396dd0	-0.72433186
104	0xc0887e4e	-4.265418
105	0xc01d4652	-2.457417
106	0xc02f1a92	-2.7359967
107	0xbff30190	-1.8984852
108	0xc0079d06	-2.118959
109	0xc076676a	-3.850062
110	0xbfeaeed0	-1.835413
111	0xc03eec44	-2.9831705
112	0xc024b5a4	-2.5735865
113	0xbfa951de	-1.3228109
114	0xbfd7f640	-1.6872025
115	0xbf871bfa	-1.0555413
116	0xbfe427e8	-1.7824678
117	0xbffdf4bd	-1.9840313
118	0xbe10ca28	-0.14139616
119	0xbe95825c	-0.2920102
120	0xc05dfafe	-3.4684443
121	0xc07c59d7	-3.9429834
122	0xc03d958e	-2.962253
123	0xbfc15068	-1.5102663
124	0xbfec294c	-1.8450103
125	0xbf81dde3	-1.014584
126	0xc06c86e8	-3.695734
127	0xc0405ee6	-3.0057921
128	0xbfc11d22	-1.5087016
129	0xbefe4775	-0.49663892
130	0xbea46298	-0.3210647
131	0xbffbb37c	-1.9664149
132	0xbf04245b	-0.51617974
133	0xc028e584	-2.6390085
134	0xc0545232	-3.3175168
135	0xc0abec7a	-5.372617
136	0xbfc0a10c	-1.5049148
137	0xbe48a1fc	-0.19593042
138	0xbf7b61ba	-0.98195994
139	0xbf270f97	-0.65258163
140	0xbf3ed904	-0.7454989
141	0xbe15013e	-0.14551255
142	0xc06c3782	-3.690888
143	0xbf2c147e	-0.6721877
144	0xc0924819	-4.571301
145	0xc015dcb4	-2.3415956
146	0xbd2e4f31	-0.04255599
147	0xbfc1bf0c	-1.5136428
148	0xc02067c2	-2.5063329
149	0xbde872bc	-0.11350009
150	0xc027cf38	-2.6220226
151	0xc0251b70	-2.5797997
152	0xbf57a4a5	-0.842356
153	0xc0334cfc	-2.8015738
154	0xbfddaba2	-1.7318003
155	0xc03d22ec	-2.9552565
156	0xbfe36509	-1.7765208
157	0xc019d904	-2.4038706
158	0xc09983bd	-4.7973313
159	0xc030d51a	-2.7630067
160	0xc0712aa5	-3.7682278
161	0xc016af20	-2.3544388
162	0xc037bfbc	-2.8710775
163	0xc0392c5b	-2.8933322
164	0xbfcac238	-1.5840521
165	0xc00d4152	-2.2071118
166	0xbffa86fa	-1.9572442
167	0xc04b2204	-3.1739511
168	0xbfba3428	-1.4547167
169	0xc0490262	-3.1407704
170	0xc02c4b68	-2.6921024
171	0xbecc61ae	-0.39918274
172	0xbfbb6185	-1.4639136
173	0xbf5c6c10	-0.8610239
174	0xc06584b0	-3.5862236
175	0xc013f27c	-2.311675
176	0xbfc5e298	-1.5459776
177	0xc085fd8c	-4.1872005
178	0xbe1ecfe6	-0.15508994
179	0xc013cc7f	-2.3093565
180	0xc0424419	-3.0354064
181	0xbffa26d0	-1.9543095
182	0xc0120714	-2.281682
183	0xc0069cf5	-2.10333
184	0xc0444580	-3.066742
185	0xc06ea092	-3.7285504
186	0xc03200cc	-2.7812986
187	0xbf5dc929	-0.8663507
188	0xc084fdb9	-4.155972
189	0xbfcbf8bb	-1.5935282
190	0xc046d862	-3.106957
191	0xbfc68ab0	-1.5511074
192	0xbf350080	-0.7070389
193	0xbfa4c7dc	-1.2873492
194	0xbf84011e	-1.0312841
195	0xbfe8849e	-1.8165472
196	0x3db915c0	0.090373516
197	0xc052bf5e	-3.2929301
198	0xc06468f0	-3.5689049
199	0xc023b230	-2.5577507
200	0xc02dac22	-2.7136312
201	0xbfeb6ed5	-1.8393198
202	0x3b53202a	0.0032215216
203	0xbe24e6a6	-0.1610361
204	0xbf2f9f16	-0.6860212
205	0xbf4e97cc	-0.80700374
206	0xc0285987	-2.6304643
207	0xc0344eef	-2.8173177
208	0xc0248e64	-2.5711908
209	0xc02153ee	-2.5207477
210	0xc0247c24	-2.570077
211	0xbf522216	-0.8208326
212	0xbfddfd6e	-1.7342966
213	0xbfa8ce40	-1.3187943
214	0xbe65c40e	-0.2243807
215	0xc02254ed	-2.5364335
216	0xbf6b0398	-0.9180236
217	0xbffcba92	-1.9744437
218	0xc0057c66	-2.0857177
219	0xbfd35c7b	-1.6512598
220	0xc058903c	-3.3838034
221	0xc02ae154	-2.670003
222	0xbfc12aa7	-1.5091141
223	0xbfc91ba7	-1.5711564
224	0xc0048fe2	-2.071282
225	0xbfa499c3	-1.2859424
226	0xbfdacc86	-1.7093666
227	0xc006248a	-2.0959802
228	0xbe0871fa	-0.13324729
229	0xbff7a0fe	-1.9346006
230	0xc00e74b2	-2.2258725
231	0xbfd27fd8	-1.6445265
232	0xbe555dba	-0.20836535
233	0xbdbe6743	-0.09297039
234	0xc025e6b9	-2.5922072
235	0xbff9dfd1	-1.9521428
236	0xc02b3048	-2.6748219
237	0xc0125baa	-2.2868447
238	0xc02ace17	-2.6688287
239	0xc03da457	-2.9631555
240	0xbff42414	-1.907351
241	0xbfe06e10	-1.7533588
242	0xc0416fad	-3.0224411
243	0xbfab8e68	-1.3402834
244	0xc06e2848	-3.7212086
245	0xc0180a2a	-2.3756204
246	0xbf7c431a	-0.9853989
247	0xc044790e	-3.0698886
248	0xc03987a8	-2.8989048
249	0xbf5ce185	-0.86281615
250	0xbf14122e	-0.5784024
251	0xbfb97670	-1.4489269
252	0xc02d0fcb	-2.704089
253	0xc00182ca	-2.0236077
254	0xc0105e6e	-2.2557635
255	0xc01803f8	-2.3752422

fc3.bias f4 [10]
0	0xbf3f7a2a	-0.7479578
1	0x3ccf121c	0.02527719
2	0xbe942afb	-0.28939041
3	0xbe640fe1	-0.22271682
4	0xbd2d0404	-0.042240158
5	0xbf0ceee8	-0.5505204
6	0xbd86c53e	-0.0658059
7	0xbedadb82	-0.42745596
8	0x3d4cb867	0.049980547
9	0xbf0c155a	-0.5472008
