output/global_model.pth (torch, 251646 bytes, 10 tensors)

conv1.weight f4 [6, 3, 5, 5]
000000 77 cf 6b be a7 09 82 3d 7d ce a6 be 5f a1 8b be
       -0.2302836 0.06349497 -0.32579413 -0.27271554
000010 f9 41 25 3d 9c 97 d5 bd 45 09 e9 bd bd 33 fb 3d
       0.04034612 -0.10429308 -0.11378721 0.12265728
000020 88 27 52 3e 62 da df bd d6 16 7c be c9 27 bf be
       0.20522892 -0.10930325 -0.24618086 -0.3733504
000030 85 5d 06 3f 78 55 a5 3e c2 45 f5 be a1 5b fd 3d
       0.5248645 0.3229177 -0.47904783 0.123709925
000040 fd 4c 6a bd 83 48 a4 3e e6 2f 4d 3e 8f 27 7a 3e
       -0.057202328 0.32086572 0.20037803 0.24429153
000050 0f f9 bc 3e 01 3f a4 3e f4 0a c2 be 82 07 02 bf
       0.36908767 0.32079318 -0.37898982 -0.50792706
000060 f7 87 d7 3e 33 3c a6 3d 44 d4 8b 3e 5a 4d a2 be
       0.4209592 0.08116951 0.27310383 -0.3169964
000070 e6 8c 62 bc d6 58 dd 3e cc 44 9d 3e b4 b2 a9 3e
       -0.013827538 0.4323184 0.3071655 0.33144152
000080 76 6e 28 3e 60 92 95 3e 53 2b 79 3d 82 0e af be
       0.16448388 0.29213238 0.060832333 -0.34190756
000090 c7 9c da be 5e 6a 09 3f 11 21 bc 3e d7 84 b6 be
       -0.42697737 0.5367793 0.36743978 -0.35648224
0000a0 41 eb 1b 3e 33 63 a1 3c de d1 98 3e 75 99 5b 3e
       0.15226461 0.019700622 0.29847616 0.21445258
0000b0 1b 1c 0c 3e d5 88 3a 3e f2 f6 f0 3e 28 18 e3 be
       0.13682596 0.1821626 0.47063404 -0.44354367
0000c0 2e ec 40 be 78 a3 b2 3e 84 8b 6d be 13 6a 44 3e
       -0.18840095 0.34890342 -0.23197752 0.19181089
0000d0 70 53 90 be 62 80 31 be 47 a9 d5 3d 7a 89 ad 3c
       -0.28188658 -0.1733413 0.10432678 0.021183718
0000e0 e0 0a 8f bd 87 27 93 bb 4e 07 20 be 1c 5d ae be
       -0.06984496 -0.004490796 -0.15627787 -0.34055412
0000f0 fa c0 87 be a8 13 01 bf 22 21 11 3f a1 1e 1b 3e
       -0.26514417 -0.5042062 0.5669118 0.15148403
000100 9f 7e dc be 8b 2c 15 3e ca a4 53 be d0 e2 1f 3d
       -0.43065354 0.14567773 -0.20668331 0.039034665
000110 c8 63 05 be ee 30 e2 3c 27 77 e3 3d f1 53 bc 3e
       -0.13026345 0.027611222 0.11106711 0.36782792
000120 70 09 02 bf ac ff 0b bf 84 88 92 3e f9 56 03 bf
       -0.5079565 -0.54687 0.28619778 -0.51304585
000130 2d 5b db be 98 3f d0 be c2 19 a7 be 5d ff 0d bf
       -0.42843 -0.40673518 -0.3263684 -0.5546778
000140 4b 2f 22 3e 85 95 ea 3d 59 be 4f 3e c3 26 8c 3e
       0.15838353 0.114543 0.20287456 0.27373323
000150 a2 ee 57 3c 0b 07 e6 3e db 2d a2 3e d6 db b5 3e
       0.013179453 0.44927248 0.3167561 0.35519284
000160 f2 c7 a3 3e 86 e0 0b 3f 6b a2 5e 3e c0 94 ba 3e
       0.31988484 0.5463947 0.21741645 0.36441612
000170 80 85 0c 3f 4f 9a be 3e 49 f9 c4 3e 7b ce 86 be
       0.54891205 0.37227103 0.3847144 -0.26329407
000180 bd 9e 91 be bd 78 0a 3c 41 03 1d be 11 68 a8 be
       -0.2844142 0.008451638 -0.15333273 -0.32891896
000190 0e 25 14 be b4 43 7d 3e fe 0b c7 3e 4c a4 b0 3e
       -0.1446726 0.24732858 0.38876337 0.3450035
0001a0 ec a5 9f 3d 95 0e 5e be bb d3 a4 be 7f 42 a5 be
       0.07795319 -0.2168525 -0.32192788 -0.32277295
0001b0 1c e1 1a be b9 63 49 be c5 81 ad 3c 2e 16 8f be
       -0.15124935 -0.19666947 0.021180043 -0.2794661
0001c0 6c 8f 85 be fa 6f b6 be b6 ed 3a be 44 46 8b 3e
       -0.26085985 -0.35632306 -0.18254742 0.27202046
0001d0 28 cd 2d bd 11 74 eb be 97 8b af be 1d 7a f2 3d
       -0.04243198 -0.4598699 -0.34286186 0.118396975
0001e0 ef e5 94 3e d9 79 5c 3e e5 ac de bd e8 6b 61 be
       0.29081675 0.21530856 -0.10872821 -0.22013819
0001f0 98 a4 46 3e a6 2c c4 3e 37 08 0e 3f 32 a8 ff 3e
       0.19398725 0.38315314 0.55481285 0.4993301
000200 81 d2 05 3f 60 e4 eb 3e 3c ac ec bd 82 f6 07 be
       0.5227433 0.46072674 -0.115562886 -0.13277629
000210 b0 db fb be b5 e6 30 3e 47 66 04 3f 37 52 be be
       -0.49191046 0.17275508 0.5171856 -0.371721
000220 7a 55 a3 be 11 50 02 bf d5 b3 d8 be a5 16 08 be
       -0.3190115 -0.5090342 -0.423247 -0.13289888
000230 76 f0 3b 3b a3 cf 06 bf 4e b6 0b bf f4 97 01 bf
       0.0028677261 -0.5266058 -0.5457505 -0.5062249
000240 a2 71 f1 bd 04 78 ae 3e a9 27 09 3a ed fd d0 be
       -0.11789252 0.3407594 0.0005232045 -0.4081873
000250 72 5c 54 be 1e fa 85 3e dd d3 33 3e fc b1 a6 3e
       -0.2073839 0.26167387 0.17561288 0.32557666
000260 95 13 38 be 41 3d e3 3d c6 18 92 3e 9f a3 3a be
       -0.1797622 0.11095668 0.28534526 -0.18226479
000270 a3 9c 82 be 0d f0 15 be 38 85 ae 3e cf 30 46 3e
       -0.2551013 -0.14642353 0.34086013 0.19354557
000280 e7 df 84 bd df 83 43 3e 1c a4 88 3e 95 5a b4 3e
       -0.064880185 0.19093274 0.26687706 0.3522536
000290 94 3a 2e 3d db b4 b0 be 12 a2 ad be 26 39 cd be
       0.042536333 -0.34512982 -0.33912712 -0.40082663
0002a0 99 fc 30 be 12 25 b2 be 81 23 aa be be 3b fc be
       -0.17283858 -0.34793907 -0.33230212 -0.4926433
0002b0 71 ed e8 be 95 93 f1 be 46 02 dc be 40 e7 33 bd
       -0.45493653 -0.4718291 -0.42970484 -0.04392171
0002c0 f2 02 ce bd 79 51 6e be 4f aa 3c be 87 a8 55 3e
       -0.100591555 -0.23273267 -0.18424343 0.2086507
0002d0 a4 94 9d be 70 7a e5 be 11 1b 9a be 8a 71 18 3e
       -0.30777466 -0.44819975 -0.30098775 0.14887062
0002e0 55 8d 9c bd a5 22 70 3e 6c a5 7a 3e 8d bd a3 3e
       -0.076441444 0.23450716 0.24477166 0.31980553
0002f0 36 b8 ad 3e 6f 33 98 3d 18 b0 80 3e e2 96 b4 3e
       0.33929604 0.07431685 0.2513435 0.35271364
000300 ac a6 e8 3e cf 40 8a 3e 92 ab f1 be 8f 6a a9 be
       0.4543966 0.2700257 -0.4720121 -0.3308911
000310 0c f4 46 be 1e a2 8d bd 9f 88 e5 3d 29 fb dd be
       -0.19429034 -0.06915687 0.11207699 -0.43355682
000320 53 1a c4 ba fc 74 57 be c2 d4 a5 bd 96 64 b2 3e
       -0.0014961459 -0.2104072 -0.08097221 0.34842366
000330 aa 81 ba 3e c1 d6 85 be 5c 4e 60 be 26 94 18 be
       0.3642705 -0.26140407 -0.21904892 -0.14900264
000340 1b 3d e5 3e 8d 4f 56 3e cb 4c 6d 3e 0f 83 49 3e
       0.44773182 0.20928784 0.23173825 0.19678901
000350 4e 15 de 3e 82 0a d0 3e eb 93 65 3d 8b d8 fa 3e
       0.4337563 0.40633017 0.05604927 0.48993334
000360 6b 7d c5 3e d4 1d e3 3e 92 14 8e 3e 77 2e f0 3d
       0.3857225 0.44358695 0.2775007 0.117276125
000370 f7 76 60 be ce b2 c6 3e 50 68 b0 3e 5a 36 e2 3e
       -0.21920381 0.38808292 0.34454584 0.44182092
000380 53 3c c4 3d 29 51 ee 3e df e8 9f 3e 2e 4b c8 bd
       0.095818184 0.46546295 0.31232354 -0.097799644
000390 de a7 c1 bd 1b 02 48 3e b1 07 00 3f 8b 7c ed be
       -0.09455846 0.19532053 0.50011736 -0.4638408
0003a0 c1 aa 6c 3e a0 f5 59 be f3 1c a1 be 45 6f 05 3f
       0.23112012 -0.21285105 -0.314674 0.5212291
0003b0 7d 3d 0a bf 6a 88 d7 3e e4 78 95 3e 01 44 d3 be
       -0.54000074 0.42096263 0.29193795 -0.4126282
0003c0 6f d5 4b 3e aa b0 bf be 6e 48 e6 3e 31 e0 dd 3e
       0.19905637 -0.3743947 0.44977134 0.43335107
0003d0 c8 04 90 be 95 ac 85 3e b5 94 f6 be 95 1c cb 3e
       -0.28128648 0.26108232 -0.4816033 0.39670244
0003e0 6c 86 e2 3e 92 cc ce be c3 57 a9 be 9a 35 c2 be
       0.4424318 -0.4039045 -0.3307477 -0.3793152
0003f0 52 ca 3c be d3 f9 72 be f7 f6 3f 3e f1 85 7a be
       -0.18436554 -0.23728113 0.18746553 -0.24465157

conv1.bias f4 [6]
000000 39 10 d2 be 78 76 0a bf 36 0b 2e be d7 23 e5 be
       -0.41028002 -0.5408702 -0.16996464 -0.44753906
000010 b4 eb cd be 35 b6 04 bf
       -0.4021889 -0.51840526

conv2.weight f4 [16, 6, 5, 5]
000000 fa 82 3c be 1f 71 9d be 1b b2 7b be 5f 8d 72 be
       -0.18409339 -0.30750367 -0.2457966 -0.23686741
000010 cf 9d 9e be b2 f6 a4 be d3 34 32 be 14 34 5a be
       -0.30979773 -0.32219464 -0.17402963 -0.21308929
000020 3c 1f 7e be 0d 0b 8b be d0 36 85 be 6b a5 38 be
       -0.24816602 -0.2715687 -0.2601838 -0.18031852
000030 54 da 9f be fb c4 1d be 6f d6 70 be f0 c1 89 be
       -0.3122126 -0.15407173 -0.235193 -0.26905775
000040 36 c4 61 be f6 cc 9b be 87 0a 9a be 57 9e 84 be
       -0.22047505 -0.3042981 -0.30086157 -0.25902054
000050 8b 75 55 be ac de 96 be 6b 29 23 be 29 bf 99 be
       -0.2084562 -0.2946676 -0.15933768 -0.30028656
000060 86 d0 4a be 78 8f 25 bc fe c4 5e be 94 a0 1c be
       -0.19806108 -0.010105006 -0.21754834 -0.1529563
000070 aa 26 4e be f0 79 5a be c0 85 fd bd b5 62 84 be
       -0.20131937 -0.21335578 -0.123790264 -0.25856557
000080 98 f5 3f be 18 71 33 be 06 1b 00 be 58 1e a3 be
       -0.1874603 -0.1752361 -0.12510309 -0.31859088
000090 fb 93 10 be 12 ce 2c be c6 f0 d5 3d 08 a7 c4 3c
       -0.1411895 -0.16875485 0.104463145 0.024005428
0000a0 3c c5 6d be 7c f0 03 bd 02 1e e2 bc 0e 50 c5 3c
       -0.2321977 -0.032211766 -0.0276022 0.024086025
0000b0 1b 65 94 be b7 bf 8e be 16 df 88 be ca 02 40 be
       -0.28983387 -0.27880642 -0.267327 -0.18751064
0000c0 b6 03 97 be ef 79 7c be 75 28 77 be 87 01 60 be
       -0.2949502 -0.24655889 -0.24136527 -0.21875583
0000d0 2b 14 57 bb 2e 95 7a be 88 aa 30 be df e7 a2 be
       -0.0032818418 -0.2447097 -0.17252553 -0.3181753
0000e0 f1 fa 69 be 56 36 8c be f8 82 8d be 60 70 9c be
       -0.22849633 -0.27385205 -0.27638984 -0.30554485
0000f0 41 2c a3 be c4 8b 95 be 13 62 91 be b5 95 a3 be
       -0.318697 -0.29208195 -0.28395137 -0.31950155
000100 4a c3 4a be a0 18 62 be 6a 56 28 be 83 02 93 be
       -0.1980106 -0.22079706 -0.16439214 -0.28712854
000110 da 36 6c be 1d 2e 43 be 14 63 86 be 56 54 35 be
       -0.23067799 -0.1906056 -0.26247466 -0.17707953
000120 4d a0 9e be 79 55 93 be 1d 1c 67 be a6 f8 8b be
       -0.30981675 -0.28776148 -0.22569318 -0.2733814
000130 af 7c 51 be 03 94 54 be 07 57 9e be fa 56 81 bc
       -0.2045772 -0.20759587 -0.30925772 -0.015788544
000140 69 8d 65 be 1a dd 7e be a5 f0 63 be 71 0c 83 be
       -0.22417225 -0.24889031 -0.22259767 -0.2559543
000150 30 1c 0d be 00 90 0a bd d4 20 35 be db ba 83 be
       -0.13780284 -0.033828735 -0.17688304 -0.25728497
000160 06 c9 ac be f0 a5 8e be 79 97 89 be 06 12 98 be
       -0.3374712 -0.27860975 -0.26873377 -0.2970125
000170 82 2c a0 be 28 91 87 be 6a e4 87 be f3 c3 46 be
       -0.31283957 -0.26477933 -0.26541454 -0.19410686
000180 a6 e1 05 be aa 0d 96 be 53 44 2e be df f7 4c be
       -0.1307436 -0.293073 -0.17018251 -0.2001643
000190 7a 80 37 be 02 0c a0 be fa ed 80 be e2 b7 ab be
       -0.17920104 -0.3125916 -0.25181562 -0.3353873
0001a0 59 e2 9e be b5 27 35 be 0b 63 a1 be 5a 8e 66 be
       -0.31032065 -0.17690928 -0.31520876 -0.2251524
0001b0 ad 99 3a be cf 5d a5 be a8 09 65 be 7a 47 81 be
       -0.18222685 -0.32298133 -0.22366965 -0.25249845
0001c0 8f 72 2f bd c6 4e 27 be f3 4b 8c be c4 04 82 be
       -0.04283386 -0.16338643 -0.27401695 -0.2539426
0001d0 1b bc 4a be 32 2b 77 be 7a d5 2b be 4c b3 75 be
       -0.19798319 -0.24137571 -0.16780654 -0.23994178
0001e0 65 7a 6d be 0e 1e 8a be 77 c1 83 be 3f bc 0e be
       -0.23191221 -0.26976055 -0.2573354 -0.13938998
0001f0 73 ca a3 be 16 78 a8 be d9 57 4b be 52 2e 81 be
       -0.31990394 -0.32904118 -0.1985773 -0.25230652
000200 80 e5 5c be 5d 27 a3 be a8 68 3b be 1f e1 42 be
       -0.21571922 -0.3186597 -0.18301642 -0.1903119
000210 e3 3a 4e be d7 ed 65 be a1 11 9d be 07 3d a1 be
       -0.20139651 -0.2245401 -0.30677512 -0.31491873
000220 83 58 9d be 30 93 11 bd df b3 bf bd 8d ef 2a be
       -0.30731592 -0.03554076 -0.093604796 -0.16692944
000230 d8 b9 80 be bf 4f 0c be b2 24 1c be d0 76 3a be
       -0.25141788 -0.13702296 -0.15248373 -0.18209386
000240 f5 6d 69 be b4 c2 57 be d4 b1 2d be 5c 1b 32 be
       -0.22795852 -0.21070367 -0.16962367 -0.1739325
000250 38 59 9b be 94 e3 33 be 86 bd f6 bd 89 f1 1d be
       -0.30341506 -0.17567283 -0.120478675 -0.1542417
000260 7f 7d 24 be bb 7d 6e be 61 83 7f be 62 a1 85 be
       -0.16063498 -0.2329015 -0.24952461 -0.26099688
000270 85 33 29 be e6 d7 50 be 48 8d 89 be 69 68 46 be
       -0.1652356 -0.20394859 -0.26865602 -0.19375767
000280 9b 43 04 be a2 2c 15 be b9 39 58 be 61 e4 55 be
       -0.12916414 -0.14567807 -0.2111577 -0.20887901
000290 bc 58 0f be eb 37 74 be 0a d1 57 be 82 6f 3a be
       -0.13998693 -0.23849456 -0.21075836 -0.182066
0002a0 17 34 47 be 38 89 85 be fd 6f 34 be 25 80 34 be
       -0.19453464 -0.26081252 -0.17620845 -0.17627008
0002b0 fe e6 29 be b3 0e 26 be 98 12 67 be dd ca 53 be
       -0.16592023 -0.16216545 -0.22565687 -0.20682855
0002c0 ad a3 27 be ec 23 6b be b2 4f 7e be 65 a7 f0 bd
       -0.16371031 -0.22962922 -0.24835089 -0.11750678
0002d0 32 87 5e be 94 bf 1c be 83 d5 e1 bd 8b 96 e8 bd
       -0.2173126 -0.15307456 -0.11027052 -0.11356839
0002e0 8b d5 20 be 7d 56 40 be 05 b8 4b be f7 7a e6 bd
       -0.1570646 -0.18782993 -0.19894417 -0.112539224
0002f0 cc be 81 be 76 ad db bd e3 1a 07 be ba 21 88 be
       -0.2534088 -0.107264444 -0.1319385 -0.2658823
000300 1f f8 6c be 68 93 67 be 86 3f 1f be 21 70 3b be
       -0.23141526 -0.22614825 -0.15551576 -0.18304493
000310 4f d7 72 be 17 6d 38 be b3 8b 6c be c5 f4 67 be
       -0.23714946 -0.18010364 -0.23100166 -0.22651966
000320 bd 30 1b be f3 7d 70 be ea cf 53 be 26 4a 7d be
       -0.15155311 -0.23485546 -0.20684782 -0.24735317
000330 31 f3 24 be db 8a 88 be b2 16 69 be 2b 69 4a be
       -0.16108395 -0.26668438 -0.22762564 -0.19766681
000340 be 7d 05 be 14 c4 3f be df 26 7c be 1c a5 73 be
       -0.13036248 -0.18727142 -0.24624203 -0.23793453
000350 a5 61 7b be 3a 71 1b be 2f 1e 63 be 3c d9 69 be
       -0.24548967 -0.15179911 -0.22179483 -0.22836775
000360 5c 55 54 be b1 3a 83 be c0 d7 d8 bd 29 5c 37 be
       -0.20735687 -0.25630715 -0.10588026 -0.1790625
000370 f0 3e 2a be e1 67 e3 bd 36 e9 6c be a4 b3 77 be
       -0.16625571 -0.11103798 -0.23135838 -0.24189621
000380 f9 dd 46 be d9 81 6f be d8 f5 3b be 63 0d 69 be
       -0.19420613 -0.23389377 -0.183555 -0.22759013
000390 fb f0 7b be 18 84 9b be aa bd 66 be e9 29 02 be
       -0.24603646 -0.30374217 -0.22533289 -0.127113
0003a0 e5 15 3e be 19 3c 29 be 36 d5 40 be f1 fb 84 be
       -0.1856304 -0.16526832 -0.18831334 -0.25973466
0003b0 ef f2 5e be 7c b8 89 be 66 a2 11 be 46 8e 0f be
       -0.2177236 -0.26898563 -0.14222106 -0.14019117
0003c0 c0 9c 34 be b8 80 9e be 08 64 05 be af de 3d be
       -0.1763792 -0.3095758 -0.1302644 -0.18541978
0003d0 78 7a 24 be 97 41 43 be 5d 8b 5f be 66 02 61 be
       -0.16062343 -0.1906799 -0.21830507 -0.21973571
0003e0 2f 43 2d be 51 66 78 be 9c ba 4a be bd f2 70 be
       -0.1692016 -0.2425778 -0.19797748 -0.23530097
0003f0 cc f1 3b be 1a dd 2c be 13 83 68 be aa 9c f9 bd
       -0.18353957 -0.16881219 -0.22706251 -0.121880844

conv2.bias f4 [16]
000000 c6 18 84 be 30 26 8f be d0 da bb be c7 38 ac be
       -0.2580015 -0.27958822 -0.36690378 -0.33637068
000010 d7 2a eb 3e 0f 11 84 be 3f 72 4c 3e df 3b e6 3e
       0.45931122 -0.25794265 0.19965456 0.44967553
000020 6c cb b7 be 2a 55 53 be b9 3a fe be af 13 2c 3e
       -0.35897386 -0.20637956 -0.49654177 0.16804384
000030 a2 71 3a be 69 e4 7d be 78 fc 47 be b5 ac 52 be
       -0.1820741 -0.24794163 -0.19529903 -0.20573695

fc1.weight f4 [120, 400]
000000 ff ca 57 be 64 be 52 3e 8f 2a 65 be aa 29 6e be
       -0.2107353 0.20580441 -0.22379516 -0.23258081
000010 ff d3 13 be d3 fc 2c be 54 5b 62 be 64 d0 68 3e
       -0.14436339 -0.1689332 -0.22105151 0.22735745
000020 43 3a 6c be 0a 3c 55 be 85 8c 25 3e 8a b7 24 be
       -0.230691 -0.20823684 0.16166885 -0.1608564
000030 fc b4 46 be f1 1e 1e be db c6 10 be 5e 6a 6a 3e
       -0.19404978 -0.1544149 -0.14138357 0.22892138
000040 3f 79 53 be a9 ad 37 3e 01 31 58 be b0 8f 0d be
       -0.2065172 0.1793734 -0.21112444 -0.13824344
000050 71 9a 14 3e ac 44 6d 3e 3a c6 5b 3e 7f 4a 25 3e
       0.1451204 0.23170727 0.21462336 0.16141699
000060 10 06 19 be 84 f1 2a be 0f 0c 56 be 08 2c 5b be
       -0.14943719 -0.16693693 -0.20903037 -0.21403515
000070 39 3b 54 be 5c 75 42 be 50 fd 4e be 15 0e 3d be
       -0.20725717 -0.18990082 -0.20213819 -0.18462403
000080 11 56 2b be 4f e7 13 be 68 ed 12 be b8 3e 34 be
       -0.1673205 -0.14443706 -0.14348376 -0.1760205
000090 b9 fd 18 be 66 59 37 be db 37 22 be de 38 55 be
       -0.14940538 -0.17905197 -0.1584162 -0.20822474
0000a0 db 15 64 be 73 3e 67 be f4 e1 32 be 6c 0a 4a be
       -0.22273962 -0.22582416 -0.17469007 -0.19730538
0000b0 1f 43 2e be a4 70 22 be 2d d1 22 be 17 a6 1f be
       -0.17017792 -0.15863281 -0.15900107 -0.15590702
0000c0 61 16 34 be cc cf 61 be 6b be 65 be a6 c3 85 be
       -0.17586662 -0.22051924 -0.2243592 -0.2612583
0000d0 53 f6 51 be b7 c5 5b be 3a 5c 63 be d2 e4 5c 3d
       -0.20504121 -0.21462141 -0.2220315 0.053929158
0000e0 17 0f 80 bc 20 d3 4d be f2 70 91 be 19 46 9d be
       -0.015632195 -0.20100069 -0.28406483 -0.30717543
0000f0 ec dc 6d be de 18 83 be 09 8b 8e be df 08 97 be
       -0.23228806 -0.2560491 -0.2784045 -0.29498956
000100 14 9e 79 be 7a fb 5c 3d 22 de 0e be f9 fe 43 be
       -0.24376708 0.053950764 -0.13951924 -0.19140233
000110 69 aa 2a be a9 a8 d4 3d 50 65 76 bd a4 65 5f be
       -0.16666569 0.10383732 -0.060155213 -0.21816117
000120 6c c6 50 be d2 03 91 bd 19 85 f4 bc 28 8c 46 3e
       -0.20388192 -0.07080807 -0.029848622 0.19389403
000130 e3 8d 6b be 36 e1 6c 3e a5 3a 3f 3e a9 ff 5c 3e
       -0.23003344 0.23132786 0.18674715 0.21581902
000140 71 bb 6f 3e 73 af 0d 3e 78 82 6f be f2 d7 14 be
       0.23411347 0.1383646 -0.23389614 -0.14535502
000150 06 c5 56 3e af 46 60 3e 64 b0 2b 3e a4 d0 34 be
       0.20973596 0.21901964 0.16766506 -0.17657715
000160 f7 44 13 be 02 15 68 be 5f 79 3e 3e fc 2f 23 3e
       -0.14381777 -0.22664264 0.18600987 0.15936273
000170 91 9a 4f be 7c 07 48 be 67 53 3a be d4 95 28 be
       -0.20273806 -0.19534105 -0.18195878 -0.16463405
000180 3a fb 1e 3e cc 4d 19 be bb 9f 3b be 3f d1 17 be
       0.15525523 -0.14971083 -0.18322651 -0.14825915
000190 30 02 00 be 93 b4 58 be 54 d4 94 bc 86 90 8b bc
       -0.12500834 -0.21162634 -0.018167652 -0.017036688
0001a0 fe cb 88 be 1e 77 fa bd ef bc 8c be 0a 52 5a be
       -0.26718134 -0.12229751 -0.27487895 -0.21320358
0001b0 a6 4a 81 be e0 64 48 be c1 38 16 be 86 d4 57 be
       -0.25252265 -0.19569731 -0.14670087 -0.21077165
0001c0 76 3d 87 be b1 5e 84 be d3 ad 6b be aa 12 f3 bd
       -0.26414078 -0.25853494 -0.23015527 -0.11868794
0001d0 5c c4 2e be 8f 82 98 be 08 5e 72 be 80 66 6d be
       -0.17067093 -0.29787108 -0.23668683 -0.23183632
0001e0 65 e2 30 be eb 56 0b be 3c 73 4c 3c 35 2e 40 be
       -0.17273863 -0.13607375 0.012478646 -0.18767627
0001f0 c1 71 70 be 38 f3 31 be 1d 74 6a be f3 5b 38 be
       -0.23480894 -0.17377937 -0.22895856 -0.18003826
000200 0c bc 2b be ec bc 60 be 85 08 1d be 8f 31 4c be
       -0.16770953 -0.21947068 -0.15335281 -0.1994078
000210 99 13 63 be 8d 7f 67 be 4b 75 56 be 26 4f 40 be
       -0.22175445 -0.2260725 -0.20943181 -0.18780193
000220 df 9c 61 be c0 26 2b be ce a6 55 be b2 70 20 be
       -0.22032498 -0.16714 -0.20864412 -0.1566799
000230 ce 25 45 be 56 a1 70 be 52 8b 6b be c4 a9 41 be
       -0.19252703 -0.23499045 -0.23002365 -0.18912417
000240 c3 54 1f be c9 0d 11 be cb ef 53 be f6 bb 31 be
       -0.15559678 -0.14165415 -0.20696943 -0.17356858
000250 9e a2 21 be 33 aa 4a be 29 35 0f be d1 f2 39 be
       -0.1578469 -0.19791488 -0.13985123 -0.18159033
000260 36 4e 22 be 26 78 0d be 9a dc 1d be e2 35 10 be
       -0.15850148 -0.13815364 -0.15416184 -0.14083055
000270 33 2c 5f be 2c c6 56 3e 39 e7 55 3e fe 05 40 be
       -0.21794204 0.20974034 0.20888986 -0.18752286
000280 a9 d2 2b be 3e b5 44 be 9b 00 68 3e 91 20 48 be
       -0.16779579 -0.19209763 0.22656481 -0.19543673
000290 7d bb 12 be e7 9c 21 be b9 82 19 be c2 a4 4e be
       -0.14329334 -0.1578251 -0.14991273 -0.20180038
0002a0 83 0e 23 be 05 fe 1a be 39 54 67 be 14 72 6d be
       -0.15923505 -0.15135963 -0.22590722 -0.23188049
0002b0 1d a2 2c be 96 24 38 be 75 76 1d be b3 31 7d be
       -0.16858716 -0.17982706 -0.15377219 -0.2472599
0002c0 51 47 80 be 16 50 75 be ea 03 91 be 7c 67 d8 3c
       -0.2505441 -0.23956332 -0.283233 0.026416533
0002d0 99 13 8e be 2b 65 7e be 61 8d 3a be 56 c8 69 be
       -0.27749327 -0.2484328 -0.18217994 -0.22830328
0002e0 0d b1 56 be b9 51 5e be a8 b2 87 be a8 56 91 be
       -0.20965977 -0.21710862 -0.2650349 -0.28386426
0002f0 53 4e 8b be 59 35 98 be f0 62 73 be bd 0c e5 bd
       -0.27208194 -0.297282 -0.2376821 -0.1118407
000300 7c 28 e3 3c c2 70 90 be 34 46 7c be 0e e1 8f be
       0.027729265 -0.28211027 -0.24636155 -0.2810139
000310 fa c9 92 bc 0e 55 98 be 12 51 b4 3b 82 3f 7a be
       -0.017918576 -0.29752392 0.0055028284 -0.24438289
000320 0e 7d 64 be 88 37 22 be 19 40 17 be ee a0 5f be
       -0.2231333 -0.15841496 -0.14770545 -0.21838734
000330 8a 54 2a be 4e 12 51 be d8 8b 22 be 40 8c 22 be
       -0.16633812 -0.20417139 -0.15873659 -0.15873814
000340 29 5e 51 be 84 67 5a be 66 4a 10 be f0 16 4b be
       -0.20446075 -0.2132855 -0.14090881 -0.19832969
000350 28 6a 5c be 05 86 49 be 10 62 31 be 87 23 33 be
       -0.2152487 -0.1968003 -0.17322564 -0.17494021
000360 96 b4 1c be 95 64 6f be 98 93 19 be 97 5d 46 be
       -0.15303263 -0.23378213 -0.14997709 -0.19371639
000370 78 0c 72 be 25 43 42 be bc 6d 0e be 48 62 5a be
       -0.23637569 -0.18970926 -0.13909048 -0.21326554
000380 73 01 38 be 4c 83 1c be c0 d0 51 be 2e 4a 5a 3e
       -0.17969303 -0.15284461 -0.20489788 0.2131736
000390 78 f4 3f be a3 07 6e be a0 68 5f be 11 6a 10 be
       -0.18745601 -0.232451 -0.21817255 -0.14102961
0003a0 3d d5 4d 3e 58 e7 0e 3e 2c 6e 1a be b0 5e 45 be
       0.20100875 0.13955438 -0.1508109 -0.19274402
0003b0 b5 ed 63 3e 3b af 33 3e 8c b7 3f 3e e1 94 3d 3e
       0.22258647 0.17547314 0.18722361 0.18513824
0003c0 d4 55 5e be 76 3a 39 be 88 06 14 3e be 62 18 3e
       -0.21712428 -0.18088707 0.14455616 0.14881417
0003d0 c8 92 50 be a5 e7 1a be 7a 1e 3e be 1c f0 42 be
       -0.20368493 -0.15127428 -0.18566313 -0.19036907
0003e0 b0 ff 39 be 16 69 55 be e9 0e 57 be e1 06 3c be
       -0.18163943 -0.20840868 -0.21001782 -0.18361999
0003f0 3b e1 ed bd 93 39 85 be 8a 20 43 be 3c 1e 96 be
       -0.11615225 -0.26020488 -0.19055381 -0.29319942

fc1.bias f4 [120]
000000 d0 b1 92 be 24 06 d1 3e a7 2f 04 3e dd 7a 8b be
       -0.28651285 0.40824997 0.12908803 -0.27242175
000010 ac f1 87 be 51 dc c6 3e bb bd 1f be a4 28 a1 3e
       -0.26551569 0.38839963 -0.1559972 0.3147632
000020 5f b2 4c 3e ff c9 62 be 3d 73 95 3e 56 f4 a9 be
       0.19989918 -0.22147368 0.29189482 -0.33194226
000030 3c 8f 81 3e f2 bf 37 be 9c 97 94 be 6c b2 9b 3e
       0.25304592 -0.17944315 -0.2902192 0.30409563
000040 3e 77 a2 be ff 6b a6 3e dc f5 9a be f4 f6 8e bd
       -0.317316 0.3250427 -0.302657 -0.06980696
000050 2a 4f cf 3e 76 8a 71 be 31 87 fe 3e 73 c3 b4 be
       0.40490085 -0.23587975 0.49712518 -0.35305366
000060 aa 81 a6 bd 68 9d 8c be a4 fc 9f be 17 8f a8 be
       -0.081302 -0.2746384 -0.31247437 -0.3292167
000070 1f 25 3b be 09 99 4e be b7 0e 9f 3d 18 78 8c be
       -0.1827588 -0.20175566 0.077664785 -0.27435374
000080 39 76 e2 3e 22 2c 90 be 29 9d e2 bc 4a 33 f6 be
       0.44230822 -0.2815867 -0.02766283 -0.48086005
000090 01 da c5 3d e2 e5 f0 be ad 3e b4 be 3b 63 72 be
       0.096607216 -0.47050387 -0.35204068 -0.23670666
0000a0 7f aa 87 be 45 7e 6d bc 52 09 76 3e 5f e6 6e be
       -0.26497266 -0.014495437 0.24026993 -0.23330067
0000b0 bc e0 a1 3e 31 68 1f 3e b6 b1 88 be be bd c6 be
       0.3161677 0.1556709 -0.26698083 -0.38816637
0000c0 fb 9d 8c be db 4c 6f be 18 61 f4 be ba 36 8b be
       -0.2746428 -0.23369162 -0.47730327 -0.2719019
0000d0 94 a9 08 be be 07 81 be 78 30 7f 3e ef af 8f be
       -0.13345939 -0.2520122 0.24920833 -0.28063914
0000e0 6d cb 90 be 21 4e d0 be 0e c7 ea be c5 8a 8a 3e
       -0.28280202 -0.40684608 -0.45854992 0.27058998
0000f0 a0 2e 68 be 04 b8 87 be 0c 03 50 be 41 16 63 be
       -0.22674036 -0.2650758 -0.20313662 -0.22176458
000100 44 f9 b8 3e 4c 97 45 be cb de 68 3e d3 bc 7b be
       0.36127675 -0.19295996 0.22741239 -0.2458375
000110 e1 cf 92 be e7 75 6a be b6 eb 6c be dd 34 59 be
       -0.28674224 -0.22896539 -0.23136792 -0.21211572
000120 3d 4e be be 8f 0a 9e be 88 d6 5d be 36 4c 5c be
       -0.37169066 -0.3086743 -0.21663868 -0.21513447
000130 02 4d a5 be 5a 55 5d be d7 15 18 3e 1f fa 78 be
       -0.32285315 -0.2161459 0.14852081 -0.24314164
000140 7b 5a b8 be 65 0b 98 be 27 4b e8 be b1 ef fe be
       -0.3600653 -0.29696193 -0.45369837 -0.49792245
000150 fb b8 9b bd 75 d4 bc be 66 01 84 be 30 32 fc 3e
       -0.076036416 -0.36880842 -0.25782317 0.4925704
000160 ca 3a 1e be 70 78 9e be 15 c6 eb bd a7 5a 56 be
       -0.15452114 -0.30951262 -0.115123905 -0.20933019
000170 ff 82 b6 bd 32 e2 68 be 3c 28 f2 3e 5a 16 a6 be
       -0.08911704 -0.22742537 0.4729632 -0.32438928
000180 55 4a 43 be bb 37 f3 be 3a a6 2c be 6e b7 d3 be
       -0.19071324 -0.47503456 -0.16860285 -0.41350883
000190 59 52 a6 be 74 98 a9 be 6b ad 7c be 17 13 68 3d
       -0.324847 -0.33124125 -0.24675529 0.05665883
0001a0 13 9e 94 be 51 76 94 be b7 3a c6 3e cc a7 2f be
       -0.2902685 -0.28996518 0.3871667 -0.17153853
0001b0 a4 d2 f6 3e a4 65 6a be 5f 02 6c be 46 d1 a8 3e
       0.4820758 -0.22890335 -0.2304778 0.32972163
0001c0 5f 3c 76 be 7a d4 b5 ba 38 5a a7 3e 5b 71 ab 3e
       -0.24046467 -0.0013872527 0.3268602 0.3348492
0001d0 cb 0b 32 3d da 77 5b be d3 8a 84 be e0 09 37 be
       0.043468278 -0.21432438 -0.25887164 -0.17874861

fc2.weight f4 [84, 120]
000000 a1 c8 5a be 5f fe 72 be cc 02 82 bd e2 a1 3f be
       -0.21365596 -0.23729847 -0.0634819 -0.18714097
000010 aa 34 02 be 95 27 0b be 00 b3 78 3e 86 94 6d be
       -0.12715402 -0.13589318 0.24287033 -0.23201188
000020 b7 e3 70 be b3 de 2e be d4 b3 ca be d4 ab 8c be
       -0.23524366 -0.1707714 -0.39590323 -0.27474844
000030 b8 5a 7d be f5 f2 55 be 1d 18 64 be 35 14 32 3e
       -0.24741638 -0.20893462 -0.22274823 0.17390521
000040 e3 e3 85 3e 9c ca ab be 21 17 07 be 07 2c 24 be
       0.26150426 -0.33553016 -0.13192417 -0.1603242
000050 8d 65 a5 be 85 e9 3e be e0 b8 59 be 35 e5 31 3c
       -0.3230404 -0.18643768 -0.2126193 0.01085787
000060 0a fd 6a be 43 b0 45 be c1 6d 00 3e 2c 20 f4 bd
       -0.22948089 -0.1930552 0.12541868 -0.11920199
000070 01 9c 47 bd 53 a9 80 be c3 6b 18 be ce 46 db bc
       -0.04873276 -0.25129184 -0.14884858 -0.02676716
000080 c9 c9 43 be c8 52 7a 3e 3d e0 57 3e 00 d0 b0 be
       -0.19119944 0.24445641 0.21081634 -0.3453369
000090 4e b2 24 be 3a 01 4b be 9f 56 9b be 83 11 48 be
       -0.16083643 -0.19824687 -0.30339524 -0.1953793
0000a0 a0 0c c5 bd 18 5a 22 be 3d 2a 38 be f1 83 d5 bd
       -0.09621549 -0.1585468 -0.17984863 -0.104255565
0000b0 19 20 50 be 31 c1 56 be 9d c1 e2 bd 9a aa 3d be
       -0.20324744 -0.20972134 -0.11072085 -0.1852211
0000c0 e5 04 de 3c 80 2c 47 be 8d a7 98 be 23 4f d4 bd
       0.027101943 -0.19450569 -0.2981533 -0.10366657
0000d0 70 6f 29 be 48 27 9e bd 31 11 04 be 94 d0 e9 3d
       -0.16546416 -0.07722336 -0.12897183 0.11416736
0000e0 68 d7 65 3e 70 17 6d be 82 4f cd be 22 41 57 be
       0.22445452 -0.23153472 -0.40099722 -0.2102094
0000f0 81 1e 42 3e 8e ec 14 bd f7 12 2c be 30 dc 7b bd
       0.18956949 -0.03635841 -0.1680411 -0.061489284
000100 5a ac 5c be 4e b1 5f 3b 6e ad 07 be d3 b5 8e b9
       -0.21550122 0.0034132781 -0.13249752 -0.0002721982
000110 a0 25 8b be 47 e5 83 be 0b 0c e6 bb 1a 51 f6 bd
       -0.27177143 -0.25760862 -0.0070204786 -0.12027188
000120 b4 ef 6a be 78 f4 78 3e 4f 7e f8 bd 06 d1 25 bd
       -0.22943002 0.24312007 -0.121334665 -0.040482543
000130 39 40 2f be 99 d3 00 be 2a c2 93 be a9 b3 e8 bd
       -0.17114343 -0.12580718 -0.28859073 -0.113623925
000140 55 86 61 be f5 b6 e7 bd 24 0f 82 be 62 3e 0e be
       -0.220239 -0.11314193 -0.25402176 -0.13890985
000150 b7 b0 ce 3d da 9f a8 be 27 38 03 be 75 97 d2 be
       0.100922994 -0.32934457 -0.12814389 -0.41131178
000160 0d 26 55 be 2e 02 72 3e 92 fc 83 be 6b 9a 84 be
       -0.20815296 0.23633644 -0.25778633 -0.25899062
000170 88 35 9b be 98 37 62 be 4e 86 19 be 04 4b 83 be
       -0.3031428 -0.2209152 -0.1499264 -0.2564317
000180 c8 6c 31 bd 85 91 57 be 6c 53 46 3e d3 39 9a be
       -0.043316633 -0.21051605 0.1936776 -0.3012224
000190 0d 14 22 be 7c cd 4f be ee 31 d5 bd 01 6b 14 be
       -0.15827961 -0.2029323 -0.10409914 -0.14493944
0001a0 b1 ff 14 be e9 0f 27 be 5a 31 4e bd 92 8a 45 be
       -0.14550664 -0.16314663 -0.050340034 -0.19291142
0001b0 fc fd 49 be 22 76 cd bd 6d c1 35 be 2d 5d 81 be
       -0.19725794 -0.10032298 -0.17749567 -0.252664
0001c0 23 40 f5 bc e8 68 2a be 98 26 11 be bf b2 88 be
       -0.02993781 -0.16641581 -0.14174879 -0.26698872
0001d0 bb 25 69 be 2b 93 01 be 53 4b 2d be b2 e9 4c be
       -0.227683 -0.12653796 -0.16923265 -0.20011023
0001e0 ae 45 39 be 43 c9 ab be f5 12 3e be 9f ee 21 be
       -0.18092987 -0.33551988 -0.18561919 -0.15813683
0001f0 cd 27 85 be 73 8d e6 bd ad e2 a5 bd 19 28 58 be
       -0.26006928 -0.11257448 -0.080998756 -0.21109046
000200 7f ea 6d be 12 5c 3e 3e 67 3a 7a be 69 50 47 be
       -0.23233984 0.1858981 -0.24436341 -0.19464268
000210 e7 3a 9a be 7d 1e 95 be c6 95 62 be 8a 29 0a be
       -0.30123064 -0.29124823 -0.22127447 -0.13492408
000220 e6 c4 1c 3e 25 0e a5 be d1 46 39 be 4c 5f 6f be
       0.15309486 -0.32237354 -0.1809342 -0.23376197
000230 b3 dc 9b be cf 89 45 bc d6 55 e1 bc 2e 1f 27 be
       -0.30441818 -0.012056782 -0.02750675 -0.16320488
000240 e0 af 10 be f6 8d 2e be 29 9a 6e be cc 9e 35 be
       -0.14129591 -0.17046341 -0.23300995 -0.17736357
000250 93 be 8b 3d 65 a3 c6 bd c0 87 2f be 7e fd 6b be
       0.068234585 -0.09699134 -0.17141628 -0.23045918
000260 1a 19 5b be eb 95 1b be 09 be 53 be 24 44 a4 be
       -0.21396294 -0.15193908 -0.20677961 -0.32083237
000270 58 73 66 be 0f 45 23 bc 20 be f7 bd 21 01 52 be
       -0.22504938 -0.009965195 -0.1209681 -0.20508243
000280 1a 19 fa bd 0d 11 0d 3e 5b 81 82 be 33 2f 80 bc
       -0.12211819 0.13776036 -0.25489315 -0.015647506
000290 f2 6d 44 be b5 20 51 be f4 86 8e be 6d 2d 2b be
       -0.19182566 -0.20422633 -0.27837336 -0.16716547
0002a0 17 6f 56 be 39 23 86 be 4d 32 c5 be ce 7b 0c be
       -0.20940815 -0.26198748 -0.3851494 -0.13719103
0002b0 c8 c7 90 bd 1e 40 c6 bd 7f fa 8d bd 77 ae a0 bd
       -0.07069355 -0.09680198 -0.06932544 -0.078457765
0002c0 12 c3 13 be ff 38 ce bd e6 55 ed be 5e 0d 96 be
       -0.14429882 -0.10069465 -0.46354598 -0.29307073
0002d0 f8 95 60 be 8f 42 05 be d1 7a 9b bc 01 c0 14 be
       -0.21932209 -0.13013671 -0.018979462 -0.14526369
0002e0 15 5e 41 be eb cd 7e 3e 3e 80 79 be 15 b0 b1 3c
       -0.18883546 0.24883239 -0.24365327 0.021690408
0002f0 1e 65 12 be cf 32 00 be 1d d3 78 3e 41 21 2e bd
       -0.14296386 -0.12519382 0.24299283 -0.042512182
000300 e7 c3 50 be 1e e7 10 be cf 0e 53 bd ba d8 e1 bc
       -0.20387231 -0.14150664 -0.051527794 -0.027569164
000310 ea 4d 6b be a3 eb 09 bd bc 29 b5 be d1 18 58 be
       -0.2297894 -0.033671986 -0.35383403 -0.21103217
000320 79 dd 66 be 1e f2 22 3e b7 56 b5 be 48 5b 9c be
       -0.22545423 0.15912673 -0.3541772 -0.30538392
000330 0e ae 24 bd dc 82 43 be 91 c6 5b be e1 f3 9b be
       -0.040205054 -0.19092888 -0.21462466 -0.30459502
000340 5b 69 06 be 51 40 88 be a6 0c 82 be 50 ae 5c 3e
       -0.13126127 -0.2661157 -0.25400275 0.2155087
000350 e3 da 8b be e9 2b 89 be 70 0f 66 be 14 d9 87 be
       -0.27315435 -0.26791313 -0.22466826 -0.26532805
000360 32 35 05 be 9f 37 94 be 65 a8 49 be 65 88 aa be
       -0.13008574 -0.28948686 -0.19693144 -0.33307186
000370 ed 21 97 be e5 53 c7 be ce f5 45 be e1 b3 52 3e
       -0.2951807 -0.38931194 -0.19332048 0.20576431
000380 8d 80 4c 3e 8f 23 55 be 2f b3 56 be b8 aa a1 be
       0.19970913 -0.20814346 -0.2096679 -0.3157556
000390 22 fb c3 be 92 bb 87 3e 7d 49 32 3e ff f4 77 be
       -0.38277537 0.26510292 0.17410846 -0.24214552
0003a0 79 4f 07 3e 16 03 a7 be b1 4b 81 be d2 8e b5 be
       0.1321391 -0.32619542 -0.2525306 -0.35460526
0003b0 9f 05 c6 3d 27 42 a2 3d 3b 72 54 be 13 22 ed bc
       0.09669041 0.07922774 -0.207467 -0.028946912
0003c0 90 a7 32 be 32 02 17 bd 26 c8 f1 bd 57 7c e5 3d
       -0.17446733 -0.036867328 -0.118057534 0.112053566
0003d0 2e 3a 15 be d0 b2 b0 be 86 0a 01 be 56 bb 6d be
       -0.14572975 -0.34511423 -0.1260167 -0.23215994
0003e0 32 5f 3a bd cb 63 8e 3e 8d b5 09 3c 84 ca ee 3d
       -0.04550094 0.2781051 0.0084051015 0.116597205
0003f0 78 71 8a be 2e fe 60 bc 25 b6 86 bd f0 a8 9c 3e
       -0.27039695 -0.013732476 -0.0657771 0.3059764

fc2.bias f4 [84]
000000 bd 5b a8 be 3f 46 dd be c6 cf 06 3f 9b b6 99 3e
       -0.3288249 -0.43217656 0.5266079 0.3002213
000010 e7 fa f2 be 16 73 86 3d d1 58 d0 bd f6 11 b0 be
       -0.47457048 0.0656492 -0.101731904 -0.34388703
000020 29 a7 a7 be 83 c0 b1 be 62 9e 60 be df 71 ad be
       -0.3274472 -0.34717187 -0.21935418 -0.3387594
000030 1e 8a b7 be 38 b0 74 3e c6 0f ee 3e ce c2 01 3f
       -0.35847563 0.23895347 0.4649641 0.50687873
000040 cf cb 4b be f1 55 f3 be 5a bd a1 be 51 2e 32 be
       -0.19901966 -0.47526506 -0.31589776 -0.17400481
000050 1f ee af be 8f 2b b7 ba 64 44 a7 3e 6d 88 e3 be
       -0.3436136 -0.0013974773 0.32669365 -0.44440022
000060 07 09 c0 3e 47 70 8e 3e 56 13 d2 3e 59 21 a5 be
       0.37506887 0.27820036 0.41030377 -0.32252005
000070 da 77 90 3d 63 99 b3 bd 51 e6 bd be 0b f4 f0 3e
       0.0705411 -0.087694906 -0.3708978 0.4706119
000080 f7 2f e5 bd 80 15 c1 be 83 b9 e8 3e c0 4a bd be
       -0.11190789 -0.37711716 0.45454034 -0.36971092
000090 10 29 b9 be f8 5b ae be 00 41 f3 3e 8e a5 8d be
       -0.3616414 -0.34054542 0.4751053 -0.2766537
0000a0 a6 33 c3 be 38 e3 a7 be b2 ab c2 3e 61 83 0d 3f
       -0.38125342 -0.32790542 0.38021618 0.55278593
0000b0 28 93 d8 3e 75 07 05 3e 7a df 4f be 98 6e 81 be
       0.4229977 0.12991126 -0.20300093 -0.2527969
0000c0 0a 1e c4 bd ca 92 8f be 12 b1 95 be f8 1c d2 3e
       -0.09576042 -0.2804168 -0.29236656 0.41037726
0000d0 b8 8a a4 be 04 dc 8c 3e fe 25 8b be 06 17 9c be
       -0.32137084 0.2751161 -0.27177423 -0.30486315
0000e0 a0 55 d1 be 69 28 5d be 6a ad bb be 64 1e bc be
       -0.4088564 -0.21597447 -0.36655742 -0.36741936
0000f0 b9 67 92 3d 82 96 c9 3d fc fc aa be 5e 24 74 bd
       0.0714869 0.0984316 -0.33396137 -0.059604995
000100 e8 d9 b3 be f6 91 af be b9 e1 9c be 27 cb ca 3e
       -0.35127187 -0.34291047 -0.30640963 0.39608118
000110 56 6c 6f bd c9 f8 03 3f dc c3 c7 be a7 8b da 3d
       -0.058452927 0.5155149 -0.39016616 0.10671168
000120 69 00 98 be 0b 38 ca be ab 73 e2 be 31 3a f0 bd
       -0.29687813 -0.39495882 -0.44228873 -0.11729849
000130 f1 2d c9 3e 7d cb 8d be cc d1 d4 be 8a 56 de be
       0.39292863 -0.27694312 -0.41566312 -0.434254
000140 c2 db e4 be d7 33 ee be 8f 08 b7 be 47 70 f6 3e
       -0.44698912 -0.46523926 -0.35748717 0.48132536

fc3.weight f4 [10, 84]
000000 71 21 63 be af 4c 8e be 2c 93 37 3e 5e c9 9e bd
       -0.22180726 -0.2779288 0.17927235 -0.077532515
000010 3b 2f 3e bd b3 cd 4e bd 02 14 19 be 58 9d db 3b
       -0.04643176 -0.05048914 -0.14949039 0.0067021064
000020 4c 85 72 bd 7f a6 89 be f1 85 a5 be 1f 0a 83 be
       -0.059209153 -0.2688484 -0.32328752 -0.2559366
000030 59 f2 b9 be 90 da 2e 3d 7a 63 69 bc 65 46 6d bd
       -0.3631771 0.042688906 -0.0142449085 -0.05792846
000040 c8 a0 bb be d5 6a a4 be 30 4c 53 be 49 c9 b5 be
       -0.36646104 -0.32112756 -0.20634532 -0.3550513
000050 1a de 17 be f5 28 3d be 5b 30 a5 be a1 65 b7 bb
       -0.14830819 -0.18472655 -0.32263455 -0.005596832
000060 93 94 ae bd e3 4f 9c be ab b5 c2 be d5 5b 84 be
       -0.08524432 -0.305297 -0.38029227 -0.25851312
000070 1a 98 dd bd ff b2 cb be 57 05 99 3d 59 59 b1 bd
       -0.10820027 -0.39785 0.074717216 -0.0865962
000080 8f 41 c6 be 04 56 83 be 4c 15 59 be 3b f5 a4 be
       -0.38721892 -0.25651562 -0.2119953 -0.32218346
000090 54 72 b0 be c5 f6 77 be c6 e1 47 be b3 41 2f be
       -0.34462225 -0.24215229 -0.1951972 -0.17114906
0000a0 3a 5d 86 be a2 12 a5 be b3 d2 02 be d6 5f c4 be
       -0.26243 -0.32240778 -0.12775688 -0.38354367
0000b0 db bb f7 bd d6 c3 a6 bd 6a c4 00 be 50 f5 1f 3b
       -0.120963775 -0.081428215 -0.12574926 0.0024407692
0000c0 6d a6 94 3e 7b 39 7d be 45 0c 75 be 6c 9b 6f be
       0.29033223 -0.24728958 -0.23930462 -0.23399132
0000d0 19 ce 0c be 8f 0a e6 bc 04 6e a6 be fe ad 07 be
       -0.13750495 -0.028081207 -0.3250581 -0.13249967
0000e0 e7 90 4c be 11 72 b6 bb 8b 94 d1 be d3 56 04 3e
       -0.19977151 -0.005567797 -0.40933642 0.12923746
0000f0 c0 67 83 3d 27 da ce be 10 42 d0 be f5 ca 21 be
       0.06416273 -0.40400812 -0.40675402 -0.15800078
000100 86 3b a9 be fe c1 ad 3d 94 a8 03 be 18 76 55 3d
       -0.33053225 0.08484267 -0.12857276 0.052114576
000110 0b d1 69 be b2 dc c9 3e 4d 4c bb be 45 15 02 bd
       -0.2283365 0.3942619 -0.3658165 -0.031758565
000120 14 4e 96 be 92 d6 28 be b4 17 8b be f0 74 11 be
       -0.29356444 -0.16488102 -0.27166522 -0.14204764
000130 90 26 af be 53 ef f8 bd b3 58 9b be 2f 21 bd be
       -0.34209108 -0.121550225 -0.3034111 -0.3693938
000140 4c 55 9d 3c 5f 9b 6d be 0e d8 72 be 5b 36 e3 3d
       0.019205712 -0.232038 -0.23715231 0.11094352
000150 94 35 fd bc d6 79 48 be 67 7c c2 be 49 75 c9 be
       -0.030909337 -0.19577727 -0.37985536 -0.39347294
000160 2e 5c a3 be a9 0b 84 be 05 e3 84 bd 1f f5 d1 3e
       -0.31906265 -0.25790146 -0.06488613 0.41007325
000170 7b 3a a7 be 3b 10 76 be 08 d3 9c be e3 48 89 be
       -0.32661805 -0.24029629 -0.30629754 -0.2681342
000180 49 5e 9c be 3d c6 08 3e 74 a0 8a be 05 e1 fc be
       -0.30540684 0.13356872 -0.2707554 -0.49390426
000190 fa 7c 48 be e0 b1 26 be a5 25 83 be c9 71 22 be
       -0.19578925 -0.16278791 -0.25614658 -0.15863718
0001a0 39 a2 84 be e3 94 01 be 7d c1 28 3d dc 4d 25 be
       -0.25905016 -0.12654452 0.04120015 -0.16142982
0001b0 62 9b 7b 3e ee 48 98 be e3 26 d3 be 4c 56 d1 be
       0.24570993 -0.2974314 -0.41240606 -0.40886152
0001c0 a9 b5 0f be fd 4b bd be 7d 4d 13 be df fa be bd
       -0.14034142 -0.36972037 -0.14385028 -0.093251936
0001d0 f9 ec d7 bd 66 9a 9f be f1 1b 2b be 31 5c 39 be
       -0.10543246 -0.31172484 -0.16709878 -0.18101574
0001e0 f4 db 8c be f3 99 8b bd 1b b8 4a 3d 91 63 83 3d
       -0.2751156 -0.06816473 0.049491983 0.06415475
0001f0 d5 7e be be 50 fd 69 be 43 2a 9f be bf df 56 be
       -0.3720614 -0.22850537 -0.3108693 -0.2098379
000200 69 06 d1 be c6 d4 d3 be b0 e8 83 bd 00 28 8e be
       -0.40825203 -0.4137327 -0.06440866 -0.27764893
000210 6f a7 30 3e f6 5b bc be 8b 34 ae be 82 f9 fa be
       0.17251371 -0.3678891 -0.34024462 -0.49018484
000220 a1 97 55 bc 2b 00 4a bb 30 a9 be be 1c 0e 33 3e
       -0.013036639 -0.0030822854 -0.37238455 0.17485851
000230 56 ce 17 be 06 cb 9e 3d e1 b1 b9 be e2 ce 47 be
       -0.14824805 0.077535674 -0.36268523 -0.19512513
000240 31 ea 5c be 91 ff fd be a2 60 79 be b8 36 56 be
       -0.21573712 -0.49609044 -0.24353269 -0.20919311
000250 b3 29 83 be b3 5a 8d 3c 45 af 2d be 73 22 a9 be
       -0.2561775 0.017255163 -0.16961391 -0.33034095
000260 56 52 4d 3e f7 af 07 bb 39 78 95 be 34 29 fe be
       0.2005094 -0.0020704248 -0.29193285 -0.4964081
000270 3d 19 a0 be e9 2c a9 be fc 9a 17 be 10 d2 7b be
       -0.31269255 -0.33042076 -0.14805216 -0.24591851
000280 0e 21 0b be 53 4b d7 3d 16 36 94 be 04 49 26 be
       -0.13586828 0.10512414 -0.28947514 -0.16238791
000290 e4 d2 ab 3d 52 fb 75 be a4 6b 54 be d9 5c 80 be
       0.083898336 -0.24021652 -0.20744187 -0.25070837
0002a0 fc 2c a0 be 70 d3 ab be 2b e8 91 3e 35 bc a5 be
       -0.3128432 -0.33559752 0.28497443 -0.32370153
0002b0 d5 2f a6 be f0 47 4d bd ff 34 32 be 6c db a2 be
       -0.32458368 -0.050117433 -0.17403029 -0.3180803
0002c0 8f a3 30 be cf 66 3a be 74 c7 ec bd a9 84 2d be
       -0.17249893 -0.18203281 -0.1156148 -0.16945137
0002d0 ad 90 ce be 54 56 21 be 4f e7 d3 3d d7 3f ca 3e
       -0.40344754 -0.15755588 0.10346853 0.3950183
0002e0 d3 1a 9e be 2d 2c 8d be a8 a9 ac be 1a 68 a7 be
       -0.3087984 -0.27572766 -0.33723187 -0.3269661
0002f0 08 e0 3e be 43 c7 09 be d2 80 0a bd 02 77 d9 be
       -0.18640149 -0.13454919 -0.03381426 -0.42473608
000300 d4 bc 1f be e9 91 c9 bc 82 64 19 3e b7 60 87 bd
       -0.15599376 -0.024605708 0.14979747 -0.06610244
000310 aa c0 07 be 3e d0 8e bd 65 fe 4c be c6 a9 1e 3e
       -0.1325709 -0.06973313 -0.20018919 0.15494451
000320 bb 78 a8 be c5 ce a0 be f4 7b 6c bd 35 d9 82 be
       -0.3290461 -0.31407753 -0.0577354 -0.2555634
000330 62 60 42 be 13 ac f2 3d a9 bb 6c be dd 9a 6c be
       -0.1898208 0.11849227 -0.23118462 -0.2310595
000340 07 86 88 be ad b8 dc be f5 9c 66 3e f3 d9 42 3e
       -0.26664755 -0.43109646 0.22520812 0.19028454
000350 b5 98 0f 3c 3d c1 7e bd 8c 17 7f be be 20 ca bd
       0.008764436 -0.062196005 -0.24911326 -0.09869526
000360 cf 0c b4 3d 09 3f 81 be 71 7f ce be d5 60 9b 3e
       0.087915055 -0.25243405 -0.40331605 0.30347314
000370 8a 4d 3e bd 8c 6e 3c be fb 3b 4a be 68 3b 65 be
       -0.046460666 -0.18401545 -0.19749443 -0.22385943
000380 2a 1d a8 be 90 cd 2a bd b0 53 2c be 36 a8 46 be
       -0.3283475 -0.041699946 -0.16828799 -0.19400105
000390 73 bf ac 3d 9c eb 39 be eb 61 a3 be c1 62 79 be
       0.084349535 -0.18156284 -0.31910643 -0.24354078
0003a0 f3 cc 63 be 05 eb 33 be c7 e0 6f bd 24 0e 4c be
       -0.2224615 -0.17570122 -0.058563974 -0.19927269
0003b0 b9 63 a2 be 59 b4 d4 3c 51 ca 61 be 58 7c 96 be
       -0.31716707 0.025964903 -0.22049834 -0.29391742
0003c0 cd 8e 66 be d0 d2 5c bd ab 81 d1 bd f3 d9 a0 be
       -0.22515412 -0.053911984 -0.1022981 -0.31416282
0003d0 78 5c d0 3c 83 1d 39 be 9f 9c 6b be ee d9 aa be
       0.025434718 -0.18077664 -0.23008965 -0.33369392
0003e0 ae 8b 81 be 87 28 2d be 07 69 9e bd b0 bd ce bd
       -0.2530188 -0.16909991 -0.07734876 -0.10094774
0003f0 b5 44 8b be df cf 9b be 03 63 18 bd 9c 4a 3b be
       -0.27200857 -0.3043203 -0.0372038 -0.1829018

fc3.bias f4 [10]
000000 ce 5f 52 be f8 e6 f9 be 06 44 b6 3e 1a 96 e9 3e
       -0.20544359 -0.48809028 0.35598773 0.4562233
000010 b8 5f e9 3e c5 fc 53 3e 68 d9 b6 3e a9 2a 10 bf
       0.4558084 0.20701893 0.35712743 -0.56315094
000020 c1 87 08 3f 99 b7 f5 be
       0.53332144 -0.47991636
