output/global_model.pth (torch, 251646 bytes, 10 tensors)

conv1.weight f4 [6, 3, 5, 5]
000000 e8 ce 15 3e ac 3b 77 be 14 32 28 bd 72 fd d5 bd
       0.1462971 -0.24143857 -0.041063383 -0.104487315
000010 c2 bb 02 3e 70 b3 fa bd cb 46 c8 be ae 13 86 be
       0.12766936 -0.12241256 -0.3911651 -0.2618689
000020 f2 96 a4 be 67 7c 14 3d 36 97 cd be 30 e4 c9 be
       -0.32146412 0.03625145 -0.40154427 -0.39431906
000030 7a fe d2 be 4c 79 94 be aa d2 9e bc c2 65 b3 bd
       -0.41209775 -0.28998792 -0.019387562 -0.08759643
000040 42 12 0a be 08 25 3b bd 9e d9 db bd 10 c2 44 3e
       -0.13483527 -0.045689613 -0.107348666 0.19214654
000050 1d ee 1c be ec 2d fa bd 85 cd 6b be 5c 23 a7 bd
       -0.15325208 -0.1221579 -0.23027618 -0.08161041
000060 92 f4 87 3e 14 fe 88 bd f0 c0 c5 3c e1 c4 e0 3c
       0.2655378 -0.066890866 0.024139851 0.02743763
000070 11 cd 6a bc 8a fa 1f 3c 17 b4 99 bd 9f a0 72 bd
       -0.014331118 0.009764323 -0.075050525 -0.05923521
000080 3d e6 44 3e c0 b6 b0 3d 4f 73 48 3d 70 39 8a 3d
       0.19228454 0.08628607 0.04893809 0.067492366
000090 a0 d5 08 3c dd 13 7a 3e 67 ab f0 3d f8 24 1f 3e
       0.008351713 0.2442164 0.117514424 0.15541446
0000a0 58 0f 51 bc d7 5a 44 3e fa c7 63 3e 94 77 ef 3d
       -0.012760006 0.19175278 0.22244254 0.116927296
0000b0 66 5c a0 3d aa 37 12 be 24 d9 69 be 38 ff 61 be
       0.078301236 -0.14279047 -0.22836739 -0.22070014
0000c0 99 90 99 bd 58 b4 e8 bd b0 db 27 3e 2e dc 65 3e
       -0.07498283 -0.11362523 0.16392398 0.22447273
0000d0 96 5e 4b 3e 86 2c 72 3d b2 39 09 be ea 5a 97 3e
       0.198603 0.059124492 -0.13400915 0.2956155
0000e0 3e d7 8f 3e 4c 83 d9 3e a0 2a 6e 3d 13 83 b4 3c
       0.28093904 0.42482984 0.05814612 0.022035157
0000f0 52 1a 80 3e 6a 47 f6 3e 37 43 29 3e a2 f7 87 3e
       0.2502008 0.4810136 0.16529547 0.26556116
000100 d8 1d 50 bd 20 11 00 3d 26 cb a0 3e b8 2f c1 3e
       -0.05080971 0.03126633 0.3140499 0.3773172
000110 ea 82 82 3e 74 0b 4c bd 08 ad af bd ec 1c a3 3d
       0.25490505 -0.04981561 -0.08577925 0.07964501
000120 76 90 80 bd a5 ae 5e be 7a 6e 0f be f6 96 b3 3e
       -0.06277554 -0.21746309 -0.14006987 0.35076112
000130 9f 4c 65 3e d5 2c 7c 3d 7e 0c 74 be 90 3c 7f be
       0.2239251 0.061566193 -0.2383289 -0.24925447
000140 8e e5 1e bd d7 7e 2a be 46 b9 af be f1 86 ca be
       -0.03879314 -0.16649948 -0.3432104 -0.39556077
000150 de 96 e3 bd a3 3b 87 bd 5b c5 b9 be 10 ae 86 be
       -0.1111276 -0.06603172 -0.36283383 -0.26304674
000160 fe 5f 34 be 56 4f 7f be 92 a4 35 be 4c 51 1c 3e
       -0.17614743 -0.24932608 -0.1773856 0.15265387
000170 82 74 18 3e 8d 1d 4c 3e 6e 9d 22 3e 5c b2 e3 3d
       0.14888194 0.19933148 0.15880367 0.11118004
000180 b4 9e 24 3e 0e 53 46 3e 1e c7 b7 3e 48 c7 ba 3e
       0.16076165 0.1936762 0.35894102 0.36480165
000190 c2 ca 53 3d 76 c8 5f be 13 88 7a bc 5d b9 dc bd
       0.051707037 -0.21853814 -0.015291232 -0.10777543
0001a0 91 93 d5 bd d0 d7 c8 bc 29 64 8f be c0 d4 b2 be
       -0.10428537 -0.02451697 -0.28006104 -0.3492794
0001b0 f2 47 49 be 9b 31 15 be 5a 51 ea bd c9 66 06 be
       -0.19656351 -0.14569704 -0.11441298 -0.13125147
0001c0 b0 e4 51 be 20 bd 41 bd 0a d9 3b 3d 35 86 0f be
       -0.20497394 -0.047299504 0.04586128 -0.1401604
0001d0 da fb 06 3e b2 8a a6 3d 7a a7 cf 3d a9 63 23 bd
       0.13182011 0.08131923 0.101393655 -0.039889965
0001e0 56 88 60 be 17 8a 8a bc c6 66 0c 3e ed 63 8f bd
       -0.21927008 -0.01691155 0.1371108 -0.07001481
0001f0 9c 8e fe bd a4 f6 01 bd ec 56 aa bd 62 c2 7e be
       -0.12429544 -0.031729355 -0.0831736 -0.24878839
000200 95 4b e2 bd e2 6c c9 bd f6 34 39 bd b8 85 e6 bd
       -0.110495724 -0.09835221 -0.045216523 -0.112559736
000210 64 ca 1b be b7 39 6e be 72 ef 1a 3e 22 3b c8 3d
       -0.15213925 -0.23264204 0.15130404 0.09776904
000220 9e c9 21 be 7c 02 21 3c 28 4c 13 3e ca 4a 8b 3e
       -0.15799567 0.0098272525 0.1438452 0.27205497
000230 57 7b 3e bc b8 ed 7b 3e fd 8a b0 3e a8 5e 93 3e
       -0.011626086 0.24602401 0.3448104 0.28783154
000240 a0 67 8a 3d 0a 64 32 3e 74 9b ae 3e 22 69 8f 3e
       0.06758046 0.17420974 0.34102976 0.28009897
000250 ae 67 89 3d 98 77 e3 bd 0e 5b bf be af 44 02 bf
       0.067092285 -0.11106795 -0.37374157 -0.5088605
000260 df 67 97 bb 3d a3 61 3e a4 b4 83 be 7d a6 ef be
       -0.0046205367 0.22034927 -0.25723755 -0.46806708
000270 29 e4 c3 3e 5c f2 87 3e a9 ca 5d 3d 3a ce 17 be
       0.3826001 0.26552093 0.05414835 -0.14824763
000280 00 6a 02 3e c4 b9 63 3f 80 dd ac bc 1c 68 ae be
       0.12735748 0.8895533 -0.021101713 -0.34063804
000290 d8 56 72 3e 16 99 20 3e 7a a6 be be 3f 40 f5 be
       0.23665941 0.15683398 -0.37236387 -0.47900578
0002a0 37 5e 3a be 41 af 89 3e 74 5d 0e 3e 65 79 3b be
       -0.18200003 0.2689152 0.13902837 -0.18308027
0002b0 9e 35 e5 3d 73 04 0a 3e 64 99 2b bd 1a 4f e7 bd
       0.11191867 0.1347826 -0.04189433 -0.11294384
0002c0 9a c6 db be 4a 4c 3e 3d 44 75 bf 3e 65 2b 4c be
       -0.42924958 0.046459474 0.37394154 -0.19938429
0002d0 24 5d 09 be d7 20 0e 3f 7e 94 f9 3e f4 fa 09 3e
       -0.13414437 0.5551886 0.48746103 0.13474637
0002e0 ff c7 80 be bb ac de 3e 43 73 7d 3f 15 62 e1 3c
       -0.25152585 0.43491158 0.99004 0.02751259
0002f0 ef f5 85 be 07 1d 8f bd 9b 2c ff 3d c6 20 8a be
       -0.26164195 -0.069879584 0.1245968 -0.2697813
000300 71 e5 db be 52 67 09 be 34 a6 7c 3c e3 35 1a 3c
       -0.42948487 -0.1341832 0.015420485 0.009412262
000310 78 a2 ac be 6b a3 b0 3d 30 63 f9 bd 45 f2 28 bc
       -0.33717704 0.086249195 -0.12177122 -0.010311668
000320 74 99 a1 bd 4d 97 04 bf e0 04 bc 3d 19 6f 82 3e
       -0.07890597 -0.51793367 0.09180617 0.25475386
000330 c8 37 d6 bd e3 0f c6 be b4 99 21 3e ea 1b 2a 3e
       -0.10459858 -0.38683996 0.1578129 0.16612211
000340 ba 3e 3a 3c 94 c1 d9 bc 50 29 99 3e 1a c5 1d 3f
       0.011367494 -0.026581563 0.2991433 0.6162888
000350 92 de d3 bd 16 7b ea bd ba 60 fe 3d f6 53 57 bc
       -0.10345186 -0.11449258 0.12420793 -0.013142576
000360 5f e3 03 be be b2 cd be bd 3c 97 3d 31 e8 62 3e
       -0.12879704 -0.40175432 0.07384632 0.22158886
000370 a2 c9 fe 3d ca 0c 9d be 78 da 51 3c 84 99 de bc
       0.12440802 -0.3067382 0.012808435 -0.027172811
000380 a5 f8 42 3c 3b 83 3f 3c 75 eb ba 3e e8 af 86 3e
       0.011900102 0.011689003 0.36507764 0.2630608
000390 ae 69 87 3e f8 81 20 be 9b 4d 4c 3e 28 d1 f9 3e
       0.26447815 -0.15674579 0.19951479 0.48792386
0003a0 e1 c7 0c 3f 37 5b 08 3f ed 07 ae 3e 64 7e 8f bd
       0.5499249 0.5326418 0.33990422 -0.07006529
0003b0 9c 00 08 3e e6 c1 92 3e 20 b8 e4 3e ea bb a2 3e
       0.13281482 0.28663558 0.44671726 0.31783992
0003c0 40 60 9f be dc 6d fb be d4 a1 f8 be f6 00 27 bf
       -0.3112812 -0.49107254 -0.48560965 -0.6523584
0003d0 93 9e 88 be 2f 44 9a 3b 1c 2d c9 bd 48 95 a7 be
       -0.26683483 0.004707835 -0.09823057 -0.3273108
0003e0 54 e4 d0 be ce e0 c8 bd e9 bd 92 bd 22 3f 49 3d
       -0.407992 -0.09808503 -0.07165129 0.049132474
0003f0 ad 3a 5b be 36 e8 ac be a6 1d d3 be 2a 52 7a be
       -0.21409102 -0.33770913 -0.41233557 -0.24445406

conv1.bias f4 [6]
000000 36 f5 ee 3e 74 4a df bd 3f ce ee bd 9c a9 b1 be
       0.46671456 -0.10902873 -0.11660432 -0.34699714
000010 10 27 05 be 11 82 72 3d
       -0.13003182 0.059206072

conv2.weight f4 [16, 6, 5, 5]
000000 bc 62 b4 be 6a 35 60 bf 74 18 d2 be 06 e8 89 bd
       -0.35231578 -0.87581503 -0.4103428 -0.06733708
000010 94 a4 ad 3b f2 40 10 bf c2 21 d3 be 8d bf eb 3c
       0.0052991603 -0.563491 -0.41236693 0.028777862
000020 44 4d 09 3f 8e 63 f5 3e b9 9a ee bd a3 4e 15 3d
       0.53633523 0.47927517 -0.11650605 0.036451947
000030 35 6b 29 3d a0 c9 fb 3e 61 5f e1 3e 29 34 49 be
       0.041362006 0.49177265 0.4401808 -0.19648804
000040 a8 3f 04 3e 6a 23 78 3d 2c 43 bd 3d f1 21 88 3e
       0.12914908 0.06058065 0.09241328 0.26588395
000050 1a 7d 72 be fe 9a 88 3e 49 b1 a2 3c 3e db cd 3d
       -0.23680535 0.2668075 0.019859927 0.10051583
000060 ac 82 72 3e c8 fa 6c be 47 4c b5 3d 94 5d ba 3e
       0.2368266 -0.2314254 0.088524394 0.3639952
000070 84 87 47 3e 7b 43 23 be b2 ac 00 3e 29 2b 30 3e
       0.19485289 -0.1594371 0.12565878 0.17203964
000080 4e c9 c6 be b7 f2 95 be 54 59 3d be 4f 56 5c 3e
       -0.38825458 -0.2928674 -0.18491107 0.21517299
000090 c5 fb 68 bc 7e cc 3d be 5f e1 9a bd ee 8d 5f be
       -0.014220183 -0.18535039 -0.075625174 -0.21831486
0000a0 cc f4 61 3d 9a 4d 2d 3d a8 8e d5 3c 0d be 0d 3c
       0.055165097 0.042310335 0.026069 0.008651269
0000b0 9c 6c 47 bc 46 bf c0 3d d6 85 7c bd 97 df 12 bd
       -0.012171891 0.094114825 -0.061651073 -0.035857763
0000c0 12 e7 33 3e 9c 5f 8b 3b e0 55 29 bd 90 1d 0c 3d
       0.17568615 0.004253341 -0.041341662 0.03420788
0000d0 64 61 01 3e 46 50 ac 3e f1 c4 0e 3f 4b ba 29 bf
       0.12634808 0.33654994 0.5576926 -0.66299886
0000e0 89 fb d8 3e f0 8c 35 3e a9 60 af 3e 87 e4 fb bd
       0.42379406 0.17729545 0.34253433 -0.122994475
0000f0 a4 31 43 3e 7c 5f d6 3e 54 e8 65 3e 3c 51 8f bc
       0.19061905 0.41869724 0.22451907 -0.01749479
000100 8e 37 21 3e 6c 4b 86 3d 7e 59 5a 3e 4b e0 27 bd
       0.15743849 0.06557354 0.21323201 -0.040985387
000110 37 1f a5 bb 4e d5 d1 3d 0c c5 9a 3e 2b e9 4f bd
       -0.0050391215 0.10245763 0.3022846 -0.050759476
000120 cf 82 ef bc aa c5 4d 3d 92 e0 71 3e 56 ca ab be
       -0.02923718 0.050237335 0.23620823 -0.33552808
000130 98 0a ed be 68 4f e7 3c ae 72 e1 3d 8c 9a e3 3c
       -0.46297145 0.028236106 0.110082015 0.027783655
000140 ea cf a1 be 9d 54 29 bf b0 a9 33 3e 09 b8 b7 3e
       -0.31603938 -0.66144735 0.175452 0.35882595
000150 ad 7d 01 be d2 cb 65 be 82 8d 0f 3d f8 b6 91 3d
       -0.12645598 -0.22441033 0.03504706 0.07114977
000160 22 39 d5 3c 99 df 39 bc 1f 03 ba be 34 2e 50 bc
       0.02602822 -0.011344814 -0.36330506 -0.012706328
000170 d6 15 28 bb c0 56 91 3e e4 ef 3a bd 7f cb 06 be
       -0.002564778 0.28386497 -0.045638934 -0.13163565
000180 d2 77 6d bd a6 c4 f7 3d 14 75 15 3d e3 69 6a 3e
       -0.057975598 0.120980546 0.036488608 0.22891955
000190 42 6c ac 3e 26 a6 4e 3d e6 b6 dc bd 29 21 c1 be
       0.33676344 0.05045142 -0.107770726 -0.37720612
0001a0 d0 5c be be 08 0f cb 3e 98 10 1e 3e c0 b5 0a be
       -0.37180185 0.39659905 0.15436018 -0.13545895
0001b0 7c 41 c3 bc ae 7c 78 be 41 00 63 3e ba 98 41 bd
       -0.023834936 -0.24266312 0.22168066 -0.047264792
0001c0 82 8a 1f 3e f4 aa 14 bc f3 6d 3a bc 43 3c d9 bd
       0.1558018 -0.0090739615 -0.011378753 -0.10607197
0001d0 4c ed 99 3d e6 9e 98 be a4 54 50 be 4d 23 16 be
       0.07515964 -0.2980873 -0.20344788 -0.14661904
0001e0 10 22 1c 3e e9 99 95 3c 52 65 18 be e2 49 2e be
       0.15247369 0.018261867 -0.148824 -0.17020372
0001f0 59 1d bc be a4 df e1 be 9c 81 60 bf ea 42 aa be
       -0.3674114 -0.44115937 -0.8769777 -0.33254176
000200 aa c9 2f bd 6c 19 09 be dc 17 f5 be 58 b5 51 be
       -0.04291693 -0.13388604 -0.47869766 -0.20479333
000210 bd 19 86 be 8d 6e 2d 3e 62 c6 19 bc 50 fb 8c be
       -0.26191512 0.16936703 -0.009385677 -0.27535486
000220 ae ea 19 3e 74 72 00 3e 06 2e 2d 3e fd 1d d3 3c
       0.1503093 0.1254366 0.16912088 0.025771135
000230 4c df a0 be d9 7c fc bc 82 d9 3c 3d 5e ea 55 be
       -0.31420362 -0.03082125 0.04610587 -0.20890185
000240 6e 56 44 3d 75 f8 3a 3d 68 bf e7 bd 5c 36 63 bb
       0.04793399 0.045647103 -0.11315805 -0.0034669852
000250 78 1b 95 bd f5 ba 60 3c 5e f3 6c bf 54 41 89 be
       -0.0728063 0.013716449 -0.9255885 -0.26807654
000260 c2 3e 56 bd 90 27 a1 bc 8f f1 80 3e 0c 80 05 bf
       -0.052305944 -0.019672185 0.25184295 -0.5214851
000270 87 51 3b bf 9e 13 84 be 21 f1 21 3e 08 17 19 3f
       -0.73171276 -0.25796217 0.1581464 0.5980077
000280 9a 35 0f bf d0 1e 15 bf f6 c6 ab be 6a 0b 95 be
       -0.55941164 -0.5825014 -0.33550233 -0.2911027
000290 68 10 b0 3e 49 cb bc be 4c 3d 1e be 19 d2 91 be
       0.34387517 -0.36873844 -0.1545307 -0.28480604
0002a0 24 21 64 be 0c 4e c0 3e 42 c6 f3 be b4 a7 9c be
       -0.22278267 0.37559545 -0.47612196 -0.30596697
0002b0 85 2e 3b bf 14 da 93 be cc 26 93 3e 68 66 18 be
       -0.7311786 -0.28877318 0.28740537 -0.14882815
0002c0 54 34 a7 3e 40 ad 4e 3e 48 5c ad 3d 50 da 4f 3e
       0.3265711 0.20183277 0.08464867 0.20298123
0002d0 f0 86 e3 bc 70 38 c0 be 98 0e eb be e5 dd 2c 3e
       -0.027774304 -0.37543058 -0.45909572 0.16881521
0002e0 24 f6 13 3f e6 fe 37 bf bf a0 13 bf e0 04 9b 3e
       0.57797456 -0.7187332 -0.57667154 0.30277157
0002f0 ac d1 9c 3e 32 69 a4 3e 0e 62 1c bf 10 75 06 be
       0.30628717 0.32111508 -0.6108712 -0.13130593
000300 0c e0 79 bc 16 94 83 3e a4 58 75 bd ce 75 58 be
       -0.015251171 0.25698918 -0.059898987 -0.21138689
000310 ce 49 25 bd 6a 98 59 3c e8 61 32 3e 69 04 08 3f
       -0.04035359 0.013280967 0.17420161 0.5313173
000320 51 8a 59 be 4a 26 a2 be 86 55 2d be 1e ae d8 3d
       -0.2124417 -0.31669837 -0.16927156 0.10580085
000330 e2 f5 9f bc 7e 4d be be 72 54 a8 bd 6e f2 63 3e
       -0.019526426 -0.37168497 -0.08219232 0.22260448
000340 a8 a3 a4 3d 40 11 37 bf 10 0a 6b 3e d7 0a da 3e
       0.080390275 -0.71510696 0.22953057 0.42586395
000350 8b e3 0f 3d d8 08 04 bf 00 7d d6 bd ce a0 2c 3e
       0.03512911 -0.51575994 -0.104730606 0.16858217
000360 52 47 36 be e4 48 c4 be 7e 45 20 3e 8a f0 21 3e
       -0.17800644 -0.3833686 0.15651509 0.15814415
000370 24 35 86 3e ad 57 30 3e 8c 29 f0 3e ee 0b 9c 3e
       0.26212418 0.17220946 0.46906698 0.30477852
000380 66 a3 5f be 76 41 10 be b0 60 a6 be 49 24 0d 3e
       -0.21839675 -0.14087471 -0.32495642 0.13783373
000390 00 4a b2 3e 6c 67 6d 3e 42 17 1f bf 70 02 77 be
       0.34822083 0.23183984 -0.62144864 -0.24122024
0003a0 d0 7a 8d 3e 26 1d 41 3e 12 8e ee bc 0e 42 94 3e
       0.2763276 0.18858775 -0.029120479 0.28956646
0003b0 b2 ab 65 3e 2a 89 f0 bc 70 52 a0 be 12 08 45 be
       0.22428778 -0.02936228 -0.31312895 -0.1924136
0003c0 b2 69 32 be be 91 13 bd 9a 61 66 be 00 4f 82 bd
       -0.17423132 -0.036027662 -0.2249817 -0.06362724
0003d0 7e bb a0 be af a4 e9 be 72 7b 00 be b9 eb 36 be
       -0.31393045 -0.45633456 -0.1254709 -0.17863359
0003e0 ba f9 9c 3c be be 49 3d b2 4f e3 bd 13 97 5b be
       0.019162048 0.04925417 -0.11099185 -0.21444349
0003f0 d7 46 a9 be 32 8c ff bd 44 d1 0b 3e fe f7 1e be
       -0.3306186 -0.12477912 0.13654047 -0.15524289

conv2.bias f4 [16]
000000 08 7a 39 bd f4 57 1a 3f 7e 13 ed 3e 09 a9 84 3e
       -0.045282394 0.60290456 0.46303934 0.25910214
000010 82 67 9c bf d9 15 4d bf e4 c8 1e bf 5e 0c 28 3d
       -1.2219088 -0.8011146 -0.62025285 0.04102742
000020 44 61 8e bf fe ce f6 be 5b 93 1f bf 78 ab 5d be
       -1.1123433 -0.48204798 -0.6233422 -0.21647441
000030 e9 1b a6 bb 6a 8f 22 3f e6 a1 58 3f 0a 16 aa 3e
       -0.005069245 0.6350008 0.8462204 0.3321994

fc1.weight f4 [120, 400]
000000 92 d0 7b bf a5 f9 58 be dc 74 5f bf 12 0b 71 bf
       -0.9836513 -0.21188982 -0.8728769 -0.94157517
000010 54 a4 c8 be 3f 71 c0 be 48 1e c7 3d 7c ad 70 be
       -0.39187872 -0.375864 0.097225726 -0.23503679
000020 1b 4a c1 be 0e 24 02 3e 2c ea 08 3e ab 3d 7a 3e
       -0.3775185 0.12709066 0.1337058 0.24437587
000030 54 7d 77 3e e1 98 c9 bd 20 8e 85 bd c6 c6 6b 3e
       0.24168903 -0.098436125 -0.06521249 0.23025045
000040 84 2e 66 be 18 b6 2e be b6 a6 a9 bd 7a 8c ac bd
       -0.22478682 -0.17061651 -0.08283751 -0.08425231
000050 53 ae 89 bd 36 b1 cc be 62 92 a0 3e f5 a9 0d be
       -0.06722703 -0.3997895 0.3136168 -0.13834365
000060 b6 b8 3a bc 2c 3d b1 3e a8 4d 75 be cb 01 1f 3e
       -0.011396578 0.34616983 -0.23955405 0.15528028
000070 e8 b1 c9 bd 8d 24 a7 3e 2c c1 a5 3d bd 33 2c 3e
       -0.09848386 0.32645074 0.08093485 0.16816612
000080 72 8a 31 3e 5b 1b 01 3e de 23 c5 3e 58 86 31 be
       0.17337969 0.12608092 0.38503927 -0.17336404
000090 f7 02 13 be e4 c4 c5 be bc df 17 3e 0e 91 14 be
       -0.143566 -0.38626778 0.14831442 -0.14508459
0000a0 34 f3 ae bd 30 c3 33 be 17 79 36 3e f3 eb 99 3b
       -0.08542481 -0.17554927 0.1781963 0.004697317
0000b0 58 e8 d7 bb 74 df 15 3f bc 7f 21 3d 5c b5 22 3e
       -0.006588977 0.5854409 0.039428458 0.15889496
0000c0 21 bf 91 3d 84 90 65 3e fa cb 51 3d 9e 09 03 bd
       0.07116533 0.2241841 0.051219918 -0.031991594
0000d0 a3 b4 1d 3e 76 2c 6e 3e 16 14 39 3e 87 1e d1 bd
       0.15400939 0.23259148 0.18074068 -0.10210901
0000e0 2d 5d 70 bd be 83 88 3e 55 fb a7 3e 95 d7 a8 bb
       -0.05868261 0.2666301 0.3280894 -0.0051526525
0000f0 d2 82 72 bd fc 03 6e be 84 1c 99 3e dc 69 d2 3e
       -0.05920679 -0.23243707 0.29904568 0.4109639
000100 4c 03 84 3d 5b fb a8 be b1 40 ef 3d 14 e1 c5 3c
       0.06445941 -0.3300427 0.11682261 0.024155177
000110 4c ff 84 bd 92 d3 c6 3d 3c 1a 00 bf 72 09 68 bd
       -0.064940065 0.097083226 -0.5004003 -0.056649633
000120 e4 7e 06 be f2 3d 97 be 18 74 0a bf a0 a0 9e 3e
       -0.13134342 -0.29539448 -0.54083395 0.30981922
000130 2c 89 32 be aa 86 88 3e 65 11 7d be 6a 66 83 be
       -0.1743514 0.2666524 -0.24713667 -0.25664073
000140 78 51 3a be cc 31 02 be fd f0 21 3e 36 6e 0e be
       -0.1819514 -0.12714309 0.15814586 -0.1390923
000150 68 23 99 3e 06 8f ab be 05 93 82 3e 1b fd 2d be
       0.29909825 -0.33507556 0.25502792 -0.16991083
000160 ab 83 d7 3d d6 0b c6 bd 1f be 64 be 88 f6 49 3d
       0.105231605 -0.09670226 -0.2233815 0.049307376
000170 9b 9f 5a bc fa cb a6 be e8 af 1a bf f1 c4 33 bf
       -0.013343717 -0.32577497 -0.6042466 -0.70222384
000180 ed 53 d2 be bf 57 e1 be 72 a8 c5 be a3 66 eb be
       -0.41079655 -0.44012257 -0.38605076 -0.45976743
000190 11 1b 2e be d3 60 bd be 43 41 7c be 79 b0 63 bd
       -0.17002513 -0.36987934 -0.2463427 -0.05558822
0001a0 c2 16 e8 3e 39 54 e0 3e dc b7 58 be c4 be 88 be
       0.45329863 0.43814257 -0.21163887 -0.26708043
0001b0 2a 44 9c 3d 94 27 58 3e 3a 54 c5 3e 9c 80 d5 bd
       0.07630189 0.21108848 0.38540822 -0.10424921
0001c0 70 5e d8 be 41 73 0d 3d f5 87 a1 3a ab b2 f0 3e
       -0.4225955 0.034533743 0.0012323844 0.47011313
0001d0 24 cb a9 bd 5f b9 ab bd 88 ea 91 bd 4a 9a 42 3e
       -0.08290699 -0.08384966 -0.071248114 0.19004169
0001e0 1e d3 7f be 28 d4 44 bd de 52 59 3e d1 1c b7 3d
       -0.24982879 -0.04805389 0.21223018 0.08941043
0001f0 02 10 11 be 18 a7 9b 3d f6 23 5d bf 54 f8 53 be
       -0.14166263 0.0760023 -0.86383 -0.20700198
000200 9d 52 97 3c c8 f2 02 be d9 84 2e 3e a0 bb b0 be
       0.01847201 -0.12787926 0.17042865 -0.34518147
000210 63 1b 0d 3d 18 a9 01 3e 22 34 9c bd a7 27 e8 3d
       0.034449946 0.1266216 -0.07627131 0.11335688
000220 79 9d cf bd 17 5e 66 bd 02 cf 71 be 7e 0d 9c be
       -0.101374574 -0.056242075 -0.23614123 -0.30479044
000230 46 2b b4 3d bd a7 20 3e 29 c3 3f be 8d ad 7b be
       0.08797316 0.15688987 -0.18726791 -0.24577923
000240 50 b2 15 bd 5a 9f 4c 3e 6d 75 a1 3e a6 70 77 3e
       -0.036547005 0.19982663 0.315349 0.24164066
000250 44 33 9a 3e ac 36 8a bd c1 26 4a 3e 28 86 ae bd
       0.30117238 -0.06748709 0.19741346 -0.08521682
000260 26 59 18 bf ff 58 63 3e da 5d ca be 05 7e 41 bd
       -0.5951103 0.22201918 -0.39524728 -0.047239322
000270 f2 33 29 bd 6c 43 b8 bc 78 0d d8 3d a2 a2 2a 3e
       -0.041309305 -0.022493087 0.10549444 0.16663602
000280 aa c6 be bd ad a5 9b be 35 6f 8a 3d 65 dd 54 be
       -0.09315236 -0.30399838 0.06759492 -0.2078758
000290 79 f2 8c be 7d 70 ba 3e 96 e3 26 3d e6 12 de 3d
       -0.27528742 0.36413947 0.040744387 0.10843448
0002a0 a8 81 5a be 8c 32 80 3d 3e b0 91 bd c6 a3 a4 3d
       -0.21338522 0.06259641 -0.07113694 0.0803905
0002b0 f8 70 d1 bd 38 78 0f bd 3c 30 11 be d2 86 9a be
       -0.10226625 -0.03502676 -0.14178556 -0.30180985
0002c0 48 1e f9 bd ac dd 12 be 2a 2a e1 bd 41 c3 b9 3e
       -0.12163979 -0.14342374 -0.1099437 0.3628178
0002d0 60 31 f2 3c bf de 11 bf f5 ef 7b be 76 85 04 be
       0.02956456 -0.5698051 -0.24603255 -0.12941536
0002e0 e7 d8 dd 3d 33 45 57 3e 38 31 64 be fe 72 24 3e
       0.108323865 0.21022491 -0.222844 0.16059491
0002f0 f0 ec aa 3d 68 2c 77 3c 6a 73 93 bc de d7 f5 bd
       0.083459735 0.015086271 -0.01799937 -0.12004064
000300 b6 0e 59 3c c2 9e 97 be 2f a0 29 bf ae d2 11 bf
       0.013248136 -0.2961331 -0.66260046 -0.56962097
000310 4e a3 0b bf d8 6b fc bc 89 2b fa be 89 c4 56 bf
       -0.5454606 -0.030813143 -0.4886134 -0.8389364
000320 98 83 24 3e 54 92 c3 3e f8 39 58 3e b6 31 32 3d
       0.16065824 0.38197577 0.21115863 0.04350444
000330 00 eb 37 be a2 d6 5a 3d b8 b2 16 3e c8 e9 39 3d
       -0.17960739 0.053427346 0.14716613 0.045388967
000340 06 b9 04 3e c0 a7 63 3e c0 b2 ec 3d c3 ce f7 bd
       0.12961206 0.2223196 0.11557531 -0.120999835
000350 c2 e8 2f 3d b8 31 74 3d e4 21 59 bd 42 08 21 be
       0.042946585 0.059617728 -0.053010836 -0.15725806
000360 ae db ab 3e 94 34 55 be 34 a4 04 3d 75 98 25 3e
       0.3356604 -0.20820838 0.03238316 0.16171439
000370 c8 3a a0 be 3a c3 fc 3b 2b 55 12 3e 42 1a 63 be
       -0.31294847 0.0077137025 0.14290302 -0.22177985
000380 ac 9c 20 3e aa 97 93 3c 78 f4 58 bf 56 38 3a bf
       0.15684766 0.018016655 -0.8474803 -0.7274221
000390 c4 54 1f be 46 fc a9 bd 4a c7 a4 bd 05 a5 c0 bd
       -0.1555968 -0.083000705 -0.08045824 -0.09406475
0003a0 7a 76 bd be 6c 91 79 3d 1a 0a 6c 3e aa 87 a2 be
       -0.37004453 0.0609297 0.23050728 -0.31744128
0003b0 ca 1a c8 3e 14 81 55 3d 6c cd 72 3d 33 ab 2c bd
       0.39082938 0.05212505 0.059277937 -0.042155456
0003c0 23 81 46 bd 9c c9 ab 3d 34 85 e9 bd 05 ef 8c bc
       -0.048462998 0.08388063 -0.114023596 -0.017203817
0003d0 66 ea d9 3d 79 24 15 be 46 f2 de 3c 54 cd 36 3f
       0.10640411 -0.14564694 0.027215134 0.71407056
0003e0 92 0f 9e 3e b5 66 6b 3e 54 dc dc be b4 e5 98 bd
       0.30871254 0.22988398 -0.43136847 -0.074656874
0003f0 b8 7a df be c2 0b 96 bc da 1c 7a 3e f2 1a 42 be
       -0.43648314 -0.018316153 0.24425068 -0.18955591

fc1.bias f4 [120]
000000 18 a3 f9 be 0c 93 8e 3f ec ab 0c 3f 4a 07 ad be
       -0.48757243 1.1138625 0.5494983 -0.33794624
000010 56 89 ee 3d ca 7f 02 bf fa 0f eb be 6c c0 f7 3d
       0.116472885 -0.5097624 -0.45910627 0.120972484
000020 d3 89 2c bf 11 ed f0 3d 74 51 42 3f 6a e8 18 3d
       -0.67397803 0.11763967 0.7590554 0.037331022
000030 9e 32 31 bf 51 4d 8d 3c 42 13 3c 3f 9c bb 80 bf
       -0.6921786 0.017248781 0.73466885 -1.0057254
000040 11 b2 7d bf 0a b5 28 bf 6b 41 43 bd b3 8c b3 be
       -0.9909983 -0.65901244 -0.04766981 -0.35068282
000050 29 b8 81 be 50 a9 d4 bc 48 c1 47 3f a5 73 9d be
       -0.25335816 -0.02595964 0.780293 -0.30752292
000060 3e fc 4b 3f 34 3b 64 3f 75 0a 6c bd 40 6f 1c 39
       0.79681766 0.89152837 -0.05762716 0.00014918763
000070 7c 3a a0 3e c8 3b 90 be c2 31 45 3f f8 91 89 3f
       0.3129462 -0.2817061 0.7702905 1.0747671
000080 fc 73 6b 3e 56 56 8c be 32 6e 02 3e b8 96 91 be
       0.22993463 -0.2740962 0.12737349 -0.28435302
000090 3a a9 91 3d fe 70 93 3f ff 5f 39 3e 16 c9 3d be
       0.071123555 1.1518857 0.18103026 -0.1853374
0000a0 b0 2d 8c bd 93 13 60 be fa 68 28 bf 8a e6 b4 bf
       -0.06844652 -0.21882467 -0.6578518 -1.4132855
0000b0 7e 1b 26 bd 0e 53 8e bd ba d5 84 3e 8c de c4 3e
       -0.040553562 -0.06949435 0.2594431 0.3845104
0000c0 d8 28 cf 3d 6a f6 d5 be e8 ea 89 be e2 8d 45 bd
       0.10115212 -0.41789562 -0.26937032 -0.048231013
0000d0 38 2b 9a 3e c2 e9 43 be 48 1b f5 3d 4a 0f 1b 3f
       0.30111098 -0.1913214 0.11968094 0.60570204
0000e0 24 2d 71 3f 3a 50 57 3e b9 bf 50 be 72 4c 7a bf
       0.94209504 0.21026698 -0.20385636 -0.97772896
0000f0 f9 7d 51 3e a0 71 88 3e ea fa ba be 3c b9 b3 3e
       0.20458211 0.2664919 -0.36519557 0.3510226
000100 38 eb da 3d 40 7d 6f 3c dc 33 80 bd 56 3a 4a 3f
       0.10689396 0.014617264 -0.062598914 0.78995264
000110 c4 ad 75 3f e4 d6 86 3f a6 7d 55 be b0 96 89 3f
       0.9596827 1.053433 -0.20848712 1.0749111
000120 b0 1d ee 3b 10 80 94 3d dd f8 c0 3f be ef 37 3e
       0.0072667226 0.072509885 1.5075947 0.17962548
000130 f6 57 20 bd 16 97 7a bf 14 d5 8e bd a8 5d df bb
       -0.039146386 -0.9788679 -0.06974235 -0.0068165846
000140 ab dd 64 bd 53 75 c7 3e 10 af 6a ba cd 78 7e be
       -0.05587546 0.389567 -0.0008952478 -0.2485077
000150 60 b7 5b 3e 0a 13 cb bf 3c c0 16 bf 8b 85 26 bf
       0.21456671 -1.5865185 -0.58887076 -0.6504752
000160 36 17 ab 3d 04 41 82 3e 44 74 22 bf 8c 4f f2 3e
       0.083540365 0.25440228 -0.6345866 0.47326314
000170 2c ed fd be 40 8b d5 be 14 97 17 3f 8b c8 ae bb
       -0.4959501 -0.41707802 0.592149 -0.005333965
000180 26 28 a5 be 90 c3 01 bd f4 ed 04 be 5c 1f 4c 3f
       -0.32257193 -0.031680644 -0.12981397 0.7973535
000190 01 60 8a bf 56 6b d0 3e c2 ca 66 bc 2f 60 70 3f
       -1.0810548 0.4070689 -0.014086427 0.93896765
0001a0 b8 4d 90 3a 06 48 47 3f b9 32 0a bf d4 f5 2e bd
       0.001100949 0.77844274 -0.53983647 -0.04271491
0001b0 8c 2e 80 be e2 5f 56 bf e8 43 8b bd 56 e5 79 bd
       -0.25035512 -0.83740056 -0.068000615 -0.061009727
0001c0 ac 66 15 be 2a 65 aa bd 82 8a 18 be 17 7b f2 3d
       -0.14589947 -0.08320077 -0.14896587 0.11839884
0001d0 a9 aa 2b 3e 6c 28 a6 3e 1d e7 79 3e b2 5d 6b bd
       0.1676432 0.32452714 0.24404569 -0.0574624

fc2.weight f4 [84, 120]
000000 8c 24 08 3d ec 50 13 3d 52 5d 9f 3e 60 64 c7 bd
       0.03323798 0.035965845 0.31125885 -0.09735942
000010 60 db ab 3d 62 e6 cc 3d cc 3d 14 bd 4c a5 6f 3d
       0.08391452 0.100048795 -0.036191747 0.05850725
000020 82 bd 8e 3e a4 f1 0b 3d 31 55 6b 3e c6 d5 af 3e
       0.27878958 0.034165993 0.22981717 0.34342784
000030 7c 8e 11 bd 40 d9 d9 3e d1 61 85 bd 2a db 65 3e
       -0.035536274 0.4254856 -0.065127976 0.22446886
000040 20 6d 99 3e 5e ad b2 3d ea 63 94 bd 28 22 03 3e
       0.29966068 0.087244734 -0.072456196 0.12805998
000050 c2 ef 62 3e 8a 09 a6 bd 8c 8b 94 be 65 b7 47 3e
       0.22161773 -0.08107288 -0.29012716 0.19503553
000060 8a 1f 5e bd 93 00 0f 3d 54 6f a7 bd 78 89 b3 3c
       -0.054229297 0.034912657 -0.08175531 0.021916136
000070 c4 2b c3 3e dd 74 f2 be 04 3c b3 3d 12 20 fa be
       0.38119328 -0.47354785 0.087516814 -0.48852593
000080 6c 94 00 be 80 27 db be 1e a5 43 be be 51 af 3e
       -0.12556618 -0.42803574 -0.19105956 0.34242052
000090 71 5a 6d 3e 9d 77 92 3e b3 f1 ed 3d b2 ee 92 bd
       0.23179032 0.28606883 0.11618366 -0.07174434
0000a0 46 bd 8a bd c4 0b a8 bd a0 db be bd b8 2a 16 3d
       -0.06774382 -0.08205369 -0.09319234 0.036661834
0000b0 50 47 11 3d 4e f2 9e bd 6e 5d ef 3e bc 8b b6 be
       0.0354684 -0.0776106 0.4675097 -0.35653484
0000c0 b6 de fb be 1f f6 2f be e4 5a d1 3e bb a9 b7 3d
       -0.49193352 -0.17183731 0.40889657 0.089679204
0000d0 48 ac 43 3c 98 3d c2 bd 38 97 d3 3c e0 03 80 3d
       0.0119429305 -0.09484404 0.025828943 0.06250739
0000e0 c1 b9 74 be 6e 4b 60 be 54 51 01 bc 73 4b 92 3c
       -0.23898984 -0.21903774 -0.007892925 0.017858243
0000f0 40 2d e0 be ad db 05 3e 6b 2a 82 3e be 5b 97 bc
       -0.43784523 0.13072081 0.25422987 -0.018476363
000100 0a 85 3e be 58 65 95 3d e4 1b 80 3d 90 1a 93 be
       -0.18605438 0.072947204 0.0625532 -0.28731203
000110 fc ca 42 bf d6 96 75 be c0 18 fc 3d d6 ae 47 bd
       -0.7609098 -0.2398332 0.12309408 -0.04875072
000120 20 b2 a6 be e2 58 00 bf 32 8b 09 bf 9a a8 8b be
       -0.32557774 -0.50135624 -0.5372802 -0.2727707
000130 b4 f7 30 bd a2 91 48 3e 4a 49 aa bd e0 b4 aa bd
       -0.043204978 0.19586805 -0.0831476 -0.083352804
000140 bc 5a 34 3d de dc a7 3e 0c 79 06 bd 86 57 8b 3e
       0.044031844 0.32785696 -0.032830283 0.27215213
000150 c0 0a 05 3d 90 0c 9f 3d 01 8d 86 3e a5 6e 0a 3e
       0.032480955 0.07766068 0.26279452 0.1351877
000160 78 55 1a 3e 67 df f7 3b e6 ed d8 3d 67 92 86 3c
       0.15071666 0.0075644734 0.105922505 0.016427232
000170 2b a3 0c 3c f3 42 d9 be a0 75 93 be a3 5f 1b be
       0.008583824 -0.4243389 -0.28800678 -0.15173201
000180 8a 16 b1 be 20 72 5f bc 3a 4e cf 3c 88 6a 40 be
       -0.34587508 -0.013638049 0.025305856 -0.18790638
000190 ee a7 22 3d 8e 5e 21 be cc 26 b3 be 6e 32 0e 3d
       0.03971093 -0.15758726 -0.34990537 0.034716062
0001a0 e7 3d 3d bd b0 4d eb 3d 3a b1 4b 3e d1 a7 93 bc
       -0.046201613 0.11489427 0.19891825 -0.018024357
0001b0 7c a8 94 bf 76 a8 37 3e e0 b2 27 3b 4e 89 cd 3d
       -1.1613917 0.17935356 0.0025588796 0.100359544
0001c0 d3 23 0d bd 9f 5d c2 3d 54 9a c8 bd c8 85 d6 bc
       -0.034457993 0.09490513 -0.09795061 -0.026186839
0001d0 2d 5b fc 3d d8 7e 58 3e 0a 3d 8c 3e 37 5f 97 bc
       0.12322078 0.21142137 0.2739032 -0.01847802
0001e0 58 7b d0 bd a0 dd 9d 3c 76 65 77 3d fb 3e 86 bd
       -0.10179776 0.019270718 0.060399495 -0.06554981
0001f0 f8 4b fb ba 5e 3c 16 3e b4 f9 21 bf c2 d4 05 3e
       -0.0019172421 0.14671466 -0.6327164 0.13069442
000200 3a 86 af bc 94 8b 64 3d 70 b3 d8 3d b2 5b d0 be
       -0.021426309 0.055797175 0.105811 -0.40694958
000210 b8 dc 73 3e 4f 0e 98 3e 2f 99 b1 3e b0 e5 8e bd
       0.23814666 0.29698417 0.34687182 -0.06977403
000220 8d 63 82 3d 50 cf 97 be 0d be ba bd ac b7 89 be
       0.06366644 -0.29650354 -0.091182806 -0.26897943
000230 bd e3 b4 3d 00 56 59 3d c9 a8 aa be 34 57 15 3f
       0.088325 0.05306053 -0.33331898 0.58336186
000240 95 bf e4 bd 95 5d 06 3e ac ec 7f bd 1b 4d 8d 3c
       -0.11169354 0.13121636 -0.062481567 0.01724868
000250 02 42 85 be 8e 13 52 be 09 99 be 3d 56 c3 a5 be
       -0.26026922 -0.20515272 0.09306533 -0.32375592
000260 d2 00 1c 3f dc 3f 35 3e 29 56 92 3e d3 f7 1c 3e
       0.6093875 0.17700142 0.2858136 0.15328912
000270 e5 d1 e0 3d 18 b4 c0 3d f7 bb ec be 0a 16 12 3e
       0.10977534 0.0940935 -0.46237156 0.1426622
000280 74 fd 04 bd 58 73 89 3e b0 e0 8b bc 96 ee 05 3e
       -0.032468274 0.26845813 -0.017074913 0.13079295
000290 c1 d4 18 3d 1c fa f4 be 36 2b a5 3e 0e f6 ac be
       0.037312273 -0.47847068 0.3225953 -0.33781475
0002a0 3e 34 0d bf ec 6e 9c bd 82 3d 30 be 6d 7e 9f bd
       -0.5515784 -0.07638344 -0.17210963 -0.07787786
0002b0 c3 e7 d8 bc e6 25 fc bd 8c b7 05 3e 64 7a 8a be
       -0.0264777 -0.12311916 0.13058299 -0.27046502
0002c0 4f 4a 91 be 04 7e f0 bd b1 77 e0 3d 24 93 0d bf
       -0.28377005 -0.117427856 0.10960329 -0.55302644
0002d0 ab 40 82 bd b8 af 94 3d 80 10 59 3e 9a e7 bc bd
       -0.06359991 0.07260078 0.211977 -0.09223862
0002e0 29 64 b3 be 0c 56 94 3d 9b 69 cf bc 37 e3 ef 3e
       -0.35037354 0.07242975 -0.025318911 0.4685304
0002f0 ec 8a ce 3e ea a4 10 3f af ab d5 3d 21 e3 f4 3d
       0.40340364 0.5650164 0.10433137 0.11957384
000300 27 1b 70 be 52 27 b3 be e0 3e 88 be 6d 08 80 be
       -0.23447858 -0.34990937 -0.2661047 -0.25006428
000310 30 d8 8c bd 8c c6 8f 3e fc 46 90 be 38 b0 5e 3d
       -0.06877172 0.28081167 -0.28179157 0.054367274
000320 8b ba d9 3b 4d bc d9 3e 65 c7 29 bd c8 ff 32 bf
       0.006644552 0.42526475 -0.041449923 -0.6992154
000330 f6 ba 5e 3e 12 b3 95 be 58 59 96 be 22 a2 4e bc
       0.21751007 -0.29238182 -0.2936504 -0.012611898
000340 73 5a b8 3e 72 c1 c8 be 3e 42 2d 3f f7 5d a1 3e
       0.36006507 -0.39210087 0.676792 0.31517002
000350 bf 5f 83 3d 50 9c c3 bd 1a e5 80 3d 00 6b 19 bf
       0.064147465 -0.095512986 0.06293698 -0.59928894
000360 40 ae c6 3e 48 e3 fe 3b 68 be d7 be 6e 87 a6 3e
       0.38804817 0.007778559 -0.42137456 0.325252
000370 b4 57 9c 3d bf ee 9c 3d b4 d8 a4 be ae 6b 97 be
       0.076339155 0.07662725 -0.3219658 -0.2957434
000380 74 9f 41 3d 4a 86 1c 3f e0 ee fb 3a 2a 75 90 bd
       0.047271207 0.6114241 0.001922097 -0.07053597
000390 30 a0 3e 3e 06 6d 47 3e 2c c0 42 3d 94 0c e4 be
       0.18615794 0.19475183 0.04754655 -0.44540846
0003a0 c8 65 3f be 90 7b b3 bd cb 17 46 bc 32 3c fb be
       -0.1869117 -0.08763802 -0.012090634 -0.49069363
0003b0 be 4e e0 3d 59 02 76 3e 1a cf f7 bd 90 0b 2e 3d
       0.10952519 0.24024333 -0.12100048 0.042491496
0003c0 08 8c 61 be 75 60 0e be 17 f6 8d be f3 61 05 3f
       -0.22026074 -0.13903983 -0.27726814 0.52102584
0003d0 2a 3d 39 3e 30 b9 2e 3e 80 31 11 3e 20 74 e4 be
       0.18089738 0.17062831 0.14179039 -0.44619846
0003e0 10 69 8d be 66 17 5a bd 3c 31 8d be de 6d 4c bf
       -0.2761922 -0.05324497 -0.27576625 -0.79855144
0003f0 ac ee a8 be ce d8 af 3e 2c 43 fe 3d ea 64 f9 bd
       -0.32994592 0.34345096 0.12415156 -0.12177451

fc2.bias f4 [84]
000000 46 70 32 be c0 3f 06 3f b8 25 90 3e a5 a1 83 bd
       -0.17425641 0.52441025 0.28153777 -0.064273156
000010 94 39 a3 bc 76 23 32 be ee fa 59 3e 8a c1 b4 be
       -0.019924916 -0.1739634 0.21287128 -0.3530391
000020 38 45 18 3c ef 2b 85 be 2e fb 6b be b4 67 e8 3e
       0.009293847 -0.2601008 -0.23045036 0.4539162
000030 00 60 92 be 1f 0d 54 bd ac cf 38 3f 5c b5 1a be
       -0.28588867 -0.051770326 0.7219188 -0.15108246
000040 a3 79 c8 be 0a 79 85 3f 1e c3 04 3f 6a 99 1a be
       -0.391553 1.0427563 0.51860225 -0.15097585
000050 b7 0a 54 bd 43 68 ae be a6 fc a7 be d4 d0 a6 be
       -0.05176803 -0.3406392 -0.32809943 -0.32581198
000060 3d b4 33 be d0 24 07 3f 67 05 2b be aa 83 cf be
       -0.17549224 0.52790546 -0.1670128 -0.4053014
000070 ba 37 77 bd b4 ac 9e 3c 62 41 0c 3d ae 7b 36 3e
       -0.06035588 0.01936946 0.03424204 0.17820618
000080 f4 41 ff be 84 1e 73 bf f4 97 1f bf 5c 75 09 bf
       -0.49855006 -0.9496844 -0.6234124 -0.536947
000090 60 eb 71 3f 74 f6 f3 be cb 16 36 bd 02 da 50 3f
       0.9449978 -0.47648966 -0.04445533 0.81582654
0000a0 72 ef 91 3e 42 cc 95 3f 29 b4 66 be 69 ec a2 be
       0.28502995 1.170296 -0.22529663 -0.31820992
0000b0 a0 30 29 3f f4 81 27 bf aa b4 45 3e c9 6b 44 3f
       0.6608982 -0.6543267 0.19307199 0.7672697
0000c0 56 70 02 3f c7 2b ef be c3 3b 76 3f 48 b7 29 be
       0.5095266 -0.46713087 0.9618494 -0.16573822
0000d0 0f 00 5f 3f 6e 58 70 be 56 38 21 3f 36 fd 58 be
       0.87109464 -0.23471233 0.62976587 -0.21190342
0000e0 0c e0 57 be 92 11 14 bf 13 90 02 3d c2 95 58 3f
       -0.21081561 -0.5783931 0.03187568 0.8460351
0000f0 ca b7 99 3e 48 a1 0d 3f b4 ac 8c 3f 00 fd 01 3e
       0.30023032 0.5532422 1.0990205 0.12694168
000100 12 84 c7 be 81 39 85 bd d2 d2 53 3f e1 59 86 bb
       -0.3896795 -0.065051086 0.8274356 -0.00410007
000110 43 35 24 bf bc 7e 5a bd 04 1e 3f bf da 72 8b 3e
       -0.6414377 -0.05334352 -0.74655175 0.27236062
000120 8a 91 03 3f 46 8a 5a bd 77 77 22 3f 60 1d 3d 3f
       0.5139395 -0.053354524 0.6346354 0.7387295
000130 c2 57 b6 bc d4 17 46 be 31 04 50 3f bf fe 3a 3f
       -0.022258643 -0.19345027 0.81256396 0.7304496
000140 02 40 76 3e 0b b8 0f bf 37 45 75 3e f6 49 48 3f
       0.24047855 -0.561402 0.23952185 0.78237855

fc3.weight f4 [10, 84]
000000 a0 68 30 3e 4c 1e 64 be e4 0f f4 3a 8a 00 92 be
       0.17227411 -0.22277182 0.0018620458 -0.28516036
000010 e4 d1 c2 3d 24 01 5e 3d 21 2d 45 3d b4 d1 22 3e
       0.0951269 0.054200307 0.04813874 0.15900308
000020 2e 0f a8 be f3 77 75 bf 56 6f 19 3e 66 f2 de 3d
       -0.3282408 -0.95886153 0.14983878 0.108860776
000030 4b 22 9f bd b6 74 9f 3c 6c 2c e3 3c 37 db f6 bd
       -0.07770213 0.019464832 0.027731143 -0.12053531
000040 96 23 5c bd 24 1c 3f bf f8 72 12 bf 50 89 44 bf
       -0.053744875 -0.74652314 -0.5720668 -0.7677202
000050 8f 1e de 3d fa 4a 7e 3e 34 16 cb 3d 12 ec 82 be
       0.10845672 0.24833289 0.09916344 -0.25570732
000060 ca 15 a1 3e 1c 22 70 bf 34 ea 0e 3e 6d e1 8d be
       0.31461936 -0.93802047 0.13956529 -0.2771105
000070 98 36 3a 3e 2d b2 d8 3d ac cc 3d 3d 22 aa 6e bd
       0.18184888 0.10580859 0.04633777 -0.05826772
000080 ec d5 9a bd f2 2c a7 3d d8 e5 ef be 06 65 6a 3e
       -0.075603336 0.081628695 -0.46855044 0.228901
000090 88 06 00 bf 5a 88 bc 3d 70 98 e2 3e 66 4a 0d bf
       -0.50009966 0.092056945 0.44256926 -0.5519165
0000a0 8e 0b bb be 10 b0 c0 be f8 b8 d5 3b b6 55 66 3e
       -0.36532253 -0.37634325 0.006522294 0.22493634
0000b0 70 91 e6 be ec 50 bb be 4b de b6 bc 92 88 4b 3d
       -0.45032835 -0.36585176 -0.022322794 0.04969079
0000c0 f0 6e 59 bf 05 46 03 bf 6d 30 8b be b5 05 6b bd
       -0.849349 -0.51278716 -0.27185383 -0.05737849
0000d0 d4 e8 4e be c2 e2 95 3d 92 0e a4 bd 02 50 12 be
       -0.20206004 0.07318641 -0.080105916 -0.14288333
0000e0 52 8d ae bd 80 b1 d3 bd 6d b1 f3 3d 64 d3 99 3d
       -0.085230485 -0.1033659 0.11899076 0.07511023
0000f0 9a b8 ad bd 6f 56 4a 3e 08 13 85 be 48 f4 3b bf
       -0.084824756 0.19759534 -0.25991082 -0.7341962
000100 69 55 9b 3e e0 ac 96 3e de 42 20 be b2 d1 5c be
       0.303386 0.29428768 -0.15650508 -0.21564367
000110 38 bc 42 bc f4 4b 56 be 7c 50 06 bf 07 da 5b be
       -0.011885695 -0.20927411 -0.5246656 -0.2146989
000120 58 db b3 ba a4 b2 0a bf 3c ea 11 bf 2d c4 1e bf
       -0.0013721986 -0.54178834 -0.5699804 -0.6201809
000130 1c 00 eb be fd 9c 00 bf 56 93 5f be ae 76 80 3d
       -0.4589852 -0.50239545 -0.21833548 0.06272636
000140 70 2e 7c bc 70 4b ff be 06 6a ef 3d 58 5c c6 3d
       -0.015391931 -0.49862242 0.11690144 0.09685582
000150 ce 77 7c 3d c2 73 8e be b0 1a b5 3c 1c 76 16 bf
       0.061637692 -0.2782269 0.022107452 -0.5877397
000160 5c 54 10 bf 02 a4 0c 3e 98 cf ee bc 58 3f 64 bd
       -0.5637872 0.13734439 -0.029151723 -0.05572447
000170 8b 19 ee be 33 9c 72 bd 41 21 e5 3d 0c 6d 88 3d
       -0.46503863 -0.059230994 0.11187983 0.06661424
000180 e2 1d 21 bd f2 9c d8 3c 84 d9 3a bb 99 b1 83 3e
       -0.03933514 0.026442025 -0.0028510997 0.25721434
000190 74 94 13 3e c6 a6 ac be 92 52 c0 bd 75 fe 17 be
       0.14412099 -0.33720988 -0.09390749 -0.14843161
0001a0 7a e7 8a bf e8 3f 58 bf 1f e9 00 bf 7a 04 16 3e
       -1.0851891 -0.84472513 -0.50355715 0.14650145
0001b0 08 a0 b4 be bc 7e 04 3e cb 59 2b be aa 14 ac 3d
       -0.35278344 0.1293897 -0.16733472 0.08402379
0001c0 06 3f 35 bf 1a d7 d6 be 40 1a 49 bd 89 68 c4 3d
       -0.7079929 -0.41960984 -0.0490973 0.09590251
0001d0 41 45 28 3e 6c ad c7 3d 2a c1 1d 3e e4 b2 28 3d
       0.16432668 0.097498745 0.15405717 0.04118623
0001e0 12 2c e7 be 66 ae 02 3e d8 46 0c bd 6e de c7 be
       -0.4515081 0.1276184 -0.03424725 -0.39036888
0001f0 30 9e 1a 3e 00 79 46 bf 6a 12 21 be 44 3a 20 3e
       0.15099406 -0.7752838 -0.1572968 0.15647227
000200 35 fc a9 3c 00 8e 9b 3e d2 03 71 bd b8 f3 e8 be
       0.020750144 0.30381775 -0.058841534 -0.45498443
000210 2e 01 f2 be 9f 68 af bf d6 36 53 bf 56 a4 32 bd
       -0.47266525 -1.3703803 -0.8250555 -0.043613754
000220 91 19 3e bf 82 ca 0f be f8 88 73 bf 14 0b c8 be
       -0.7425776 -0.14042094 -0.9513087 -0.39070952
000230 b8 d1 d5 be f4 4a 6d 3d 1c 59 c8 bc 13 84 b7 be
       -0.41761565 0.05793281 -0.024456553 -0.35842952
000240 f0 05 0b be 32 94 c7 be de cf 44 be 5c b8 50 be
       -0.13576484 -0.38980252 -0.1921992 -0.20382828
000250 94 c8 83 3e e8 cd 7c 3c f4 b2 83 bf a7 53 b3 be
       0.25738966 0.015429951 -1.0288987 -0.3502476
000260 16 37 85 3d 56 b4 21 be e2 12 c9 3e ae 49 a6 be
       0.065046474 -0.15791449 0.3927222 -0.32478088
000270 5e 59 d4 be f9 16 e8 3e 7b 19 ae bf b0 ce 1b bf
       -0.41474432 0.45330027 -1.3601526 -0.60862255
000280 56 f4 7f be bc 58 b7 be b6 b6 2b 3e 16 f3 83 bf
       -0.2499555 -0.35809886 0.16768917 -1.0308559
000290 ee 1f b3 bc e6 64 7a bf d2 64 dc be 66 3b 71 be
       -0.021865811 -0.9781021 -0.4304567 -0.23557815
0002a0 96 85 a1 be b0 b1 91 3e ff a5 02 be 20 83 68 be
       -0.3154723 0.28455877 -0.12758635 -0.2270627
0002b0 c9 23 6c 3d 6f 2e 19 bf d4 b0 22 bf 66 04 12 bf
       0.057651315 -0.5983648 -0.6355107 -0.5703796
0002c0 f0 a7 35 be 70 8e a8 3e 46 bc c0 3d 37 4e 04 3e
       -0.17739844 0.3292117 0.0941091 0.12920462
0002d0 20 a6 e3 bd 98 02 07 be f6 d0 f7 3d 3a 77 58 3e
       -0.1111567 -0.13184583 0.12100403 0.21139231
0002e0 9e a5 3c bf 20 db 9c bd 46 99 8c be a7 bc 57 be
       -0.7369021 -0.07658982 -0.27460688 -0.21068059
0002f0 84 30 31 3e a8 15 8a 3e d4 36 f7 3d 33 01 11 bf
       0.17303663 0.26969647 0.120710045 -0.56642455
000300 f8 49 2a 3e 5e 8f f6 3d a4 f7 8a bf 34 5e 28 bf
       0.1662978 0.12039064 -1.0856824 -0.6576874
000310 ac 6b 66 3e d4 b0 5a 3e 11 5a 41 3e f1 9f 49 bd
       0.22502011 0.21356517 0.18882014 -0.049224798
000320 06 ef 82 3e 10 63 90 3d 8c d4 8c 3e 17 4f 9a 3d
       0.25572985 0.07050145 0.2750591 0.075346164
000330 b0 8b 0c 3d 71 f6 56 bd 74 cc f5 bc c8 7a b0 be
       0.034312904 -0.05248112 -0.030004717 -0.34468675
000340 88 94 08 bf c8 c9 a2 bd 44 25 8e be dc d2 de be
       -0.5335164 -0.07948643 -0.27762806 -0.43520248
000350 c5 99 d1 bd 12 36 45 be 1e 6e f1 3d 2a ac fa be
       -0.10234407 -0.19258907 0.11788581 -0.48959476
000360 03 ed ff bd 6a d3 3d 3f 6b c9 9e be 6f c0 44 bd
       -0.12496378 0.7415072 -0.31013045 -0.04803508
000370 9c b8 b5 3b 03 c2 85 3e d5 ca 5e bd 47 a8 be bd
       0.005545689 0.26124582 -0.054392654 -0.0930944
000380 e1 c7 41 3e 14 d3 15 3e 5e b2 a0 3e 85 b5 66 bf
       0.18923904 0.14631301 0.31386083 -0.90120727
000390 ae 8c 4d 3e 38 b9 ad bd 2f 5d ce be c2 f2 05 3b
       0.20073196 -0.08482593 -0.40305468 0.0020438884
0003a0 9c 99 d7 be cc 87 ab bc 7e 15 20 3e 63 c0 60 bf
       -0.42109382 -0.020938776 0.15633199 -0.8779356
0003b0 02 e2 4c bf d6 ef 9e 3e 5e a2 a3 bd 3a 3d 92 bf
       -0.8003236 0.31042355 -0.079899535 -1.1424935
0003c0 f6 65 b4 be b9 dd 5f bf 88 8b 9f bf 94 04 73 3e
       -0.3523404 -0.87447697 -1.2464457 0.23732215
0003d0 d7 ce 0f bd e7 ac ad 3d d0 b4 1e bf db 3e 34 bf
       -0.035109367 0.08480244 -0.6199465 -0.7040841
0003e0 02 61 4f bd 4c a5 3d bf 7a 7f 2e 3d 16 d2 5e bf
       -0.050629623 -0.7408035 0.04260204 -0.87039316
0003f0 1a 6b 6e 3e 14 24 0a 3e 40 f0 17 bf 36 b5 2c 3e
       0.23283044 0.13490325 -0.5935097 0.16866001

fc3.bias f4 [10]
000000 61 86 06 be 1c ae 82 bf cc 16 18 bf 66 01 82 3e
       -0.13137199 -1.0209384 -0.59409785 0.25391692
000010 3a 8b 6b 3f 03 41 54 3d 64 19 30 3e d4 21 22 be
       0.9200932 0.051819813 0.17197186 -0.15833217
000020 da 1f 21 3f fe c2 a5 be
       0.62939227 -0.3237533
