output/global_model_round1.pt (torch, 127584 bytes, 10 tensors)

conv1.weight f4 [6, 3, 5, 5]
000000 38 4e 3f 3d 10 5d ca bc 7a bc 41 bc 94 63 c4 3d
       0.046705455 -0.024702579 -0.0118247215 0.095893055
000010 bb fe c8 bc f0 f3 cd bc ae 74 9d bd 96 38 41 3d
       -0.024535527 -0.025140733 -0.076882705 0.047173105
000020 77 a7 cf bc 1e 23 6a 3d 36 f9 df 3d b0 d8 38 bd
       -0.025348408 0.057162397 0.10936205 -0.045128524
000030 37 44 b9 bd b2 0c 75 bd d2 ce b7 3c 47 62 e5 3c
       -0.09046214 -0.05982656 0.022437487 0.028000964
000040 16 2c b9 bc 2e 9b c9 3d f0 6d cd bd 32 bf 95 3d
       -0.02260403 0.09844051 -0.100307345 0.07311858
000050 40 b0 74 bd 86 18 c8 3c 0c fb d0 bb 8f 8d 08 bd
       -0.059738398 0.024425756 -0.0063775834 -0.033338126
000060 74 cd c0 3b e0 24 dc bd 89 5d 5f 3d 14 66 e9 3d
       0.005883867 -0.10749221 0.05453256 0.11396423
000070 c3 ab 72 bd 09 a5 c0 bd f5 6c ce bd dc 0d 28 3c
       -0.059245836 -0.09406478 -0.10079376 0.010257211
000080 f4 07 d2 3c 48 55 8e bd 1f 53 fc 3b 88 b4 a1 bd
       0.025638558 -0.0694986 0.0077003385 -0.07895762
000090 61 88 50 bd 18 13 c0 3c 8d e2 5a bd d8 ab 90 bd
       -0.05091131 0.023446605 -0.053438712 -0.070640266
0000a0 6f f4 92 3d c0 a6 d6 3d 3b 03 d7 bb cb 70 c8 3d
       0.07175528 0.10481024 -0.0065616644 0.097871386
0000b0 8c fa a7 bc 0c 07 e6 3d 57 19 e7 3d 5c b0 5e bd
       -0.020505212 0.11231813 0.1128413 -0.05436741
0000c0 f6 71 33 3c 60 68 c1 bd cd e8 d7 3d bc 51 c9 3c
       0.010952463 -0.09443736 0.1054245 0.024575107
0000d0 50 6b 4e 3d 90 b4 33 3c de 08 21 bd 30 f9 a6 bc
       0.05039531 0.010968342 -0.039315097 -0.020382494
0000e0 a8 8a b6 3c c2 09 fc bc 51 89 d9 3d 09 a7 88 bd
       0.022282913 -0.030766372 0.10621894 -0.066724844
0000f0 16 20 ee bc 56 93 3c 3d 43 7a b8 3c 1a 33 53 3d
       -0.029068034 0.046038948 0.022519236 0.051562406
000100 3c ea d6 bd f8 83 10 bd 92 79 35 3c 96 6e 95 bd
       -0.104938954 -0.035282105 0.011076348 -0.07296483
000110 50 33 e0 bd aa 93 53 bc 78 d4 eb 3d 13 71 ef bb
       -0.10947287 -0.012913624 0.115151346 -0.0073071807
000120 cd 37 09 bd b6 c7 30 3d e6 6b 9b 3d 3b e3 5e 3d
       -0.03350048 0.04315921 0.07588939 0.054415923
000130 d0 c6 b1 3d 87 8f 82 3d e2 43 1c bd 96 be e4 3c
       0.086804986 0.06375032 -0.038150676 0.02792291
000140 e4 19 51 3d 56 e8 c5 bd 74 4c 52 bd b4 65 dc bd
       0.05105008 -0.09663455 -0.051342443 -0.10761586
000150 e1 15 00 bd e0 1b be 3d 96 fe 63 bd f6 d5 3c 3a
       -0.031270865 0.092826605 -0.055662714 0.00072035135
000160 0f 0d 16 3d 08 83 c6 bc e4 69 2a bd ca a0 03 3c
       0.036633547 -0.024232402 -0.04160489 0.008033941
000170 f7 1a ce bd 74 cf d5 bd 96 de bc 3d a4 e7 c1 bd
       -0.10063737 -0.10439959 0.092221424 -0.0946801
000180 97 31 c8 3d f8 c0 3d bd cc da 90 bd 85 8d a6 3d
       0.097750835 -0.046326607 -0.07072982 0.081324615
000190 f5 dc 03 3d 1e 7f 74 3d c8 a9 ad bd ce 6e 37 3d
       0.032193143 0.05969154 -0.08479649 0.044783406
0001a0 ca fa b8 bd 15 fb 15 bc 8f fc 8c 3d 44 16 cb 3d
       -0.09032209 -0.009154101 0.06884109 0.09916356
0001b0 f0 69 45 bd f1 8b 59 bd 34 ab 8f bd 94 98 cc 3d
       -0.048196733 -0.053111974 -0.07015076 0.099900395
0001c0 80 ea d3 bd e5 aa 85 3d 3a 1e 72 bd 49 4e 9e 3d
       -0.10347462 0.06526736 -0.059110858 0.077297755
0001d0 f2 ec 8f 3d 6f 18 ad bd 15 f2 cc 3d 54 44 9c bd
       0.070276156 -0.08451926 0.10007111 -0.0763022
0001e0 04 b4 b7 bd d0 a9 85 3b e0 1b e2 3d 1b 03 8f bd
       -0.08969882 0.004079081 0.11040473 -0.06983014
0001f0 d6 f8 e2 3c 3b 6f b1 3d 96 fa c9 bd f6 bc b5 3d
       0.027706545 0.08663794 -0.098622486 0.08873932
000200 af 53 5f 3d 43 72 8b bd 40 ad 14 bd b3 5c f0 3d
       0.054523166 -0.06808903 -0.036298037 0.11736431
000210 e2 8f e3 bd d4 75 ba 3d 09 8c f7 bb 63 c5 af bd
       -0.11111428 0.09104505 -0.0075545353 -0.085825704
000220 3e d9 d8 3d b0 35 c4 3d 4a bf 8c 3b a0 17 af 3d
       0.10588311 0.095805526 0.0042952644 0.08549428
000230 52 2d ad bd bf bf d4 bd 2a df 52 3d d1 82 aa 3d
       -0.0845591 -0.10388135 0.051482357 0.083257325
000240 f0 f0 62 bc 12 b4 c4 3d 26 60 e9 3c d8 c0 d6 3d
       -0.013851389 0.09604658 0.02848823 0.10486001
000250 f0 3d ae bd dc ea cf bd 60 14 59 ba b6 1b dd bd
       -0.085079074 -0.10152218 -0.0008280929 -0.10796301
000260 93 ab a7 3d f0 ee ed 3d d2 cb 96 3d 58 d2 cd bd
       0.08187022 0.11617839 0.073630944 -0.100498855
000270 4e d2 8b 3d f9 49 4f bd 0a 30 25 3d a5 2c df bd
       0.06827222 -0.050607655 0.040329017 -0.10897187
000280 88 16 af bd f0 70 d3 3d d7 f1 b3 3d 30 b7 12 bd
       -0.08549219 0.103242755 0.08786362 -0.035819232
000290 93 2d ac bc 72 9a 5e 3d 11 94 b7 3d f4 e0 8b bd
       -0.021017825 0.05434651 0.08963788 -0.06830016
0002a0 db a5 8a bd 4b 95 c6 bc 1d fd bb bd 04 2a ea bd
       -0.06769916 -0.02424111 -0.09179137 -0.11433795
0002b0 d2 8f ae 3d c4 c2 28 bd 01 f6 e4 bc d8 5c c7 3d
       0.08523525 -0.041201368 -0.027949335 0.097345054
0002c0 a4 92 1a 3c 17 f7 a8 bc 0b 5d 7d bc 18 89 c8 bd
       0.009434376 -0.020625634 -0.015464078 -0.097917736
0002d0 2c 62 ac bc d2 34 a4 bd db 72 b6 3d 85 79 09 bc
       -0.021042906 -0.08017887 0.08908626 -0.008390789
0002e0 12 88 8c 3d 8d dd 7f 3d 7b e6 1d bd a6 d6 9f bd
       0.06861891 0.062467147 -0.03854988 -0.07804613
0002f0 df d3 f7 3b a5 d6 94 bd fc 55 08 3d 22 08 e7 bb
       0.007563099 -0.07267503 0.033285126 -0.00705053
000300 aa 94 c4 3c 0d 81 88 3c 96 83 5d 3d bc 9a cd bd
       0.02399667 0.016663099 0.05408057 -0.10039279
000310 34 e0 ea 3d 15 16 38 bd ce 9b f1 3d 04 0d a9 3c
       0.114685446 -0.044942934 0.117972955 0.02063609
000320 f2 19 27 3d 5a 86 64 3d 4e c1 d9 bd 10 a3 5a ba
       0.040796228 0.05579219 -0.10632573 -0.0008340338
000330 c4 c1 41 3c 4a 90 6c bd 2a d9 e9 bd d7 9f 85 bd
       0.0118259825 -0.057754792 -0.11418374 -0.06524628
000340 35 8f db 3d e3 35 02 bc 23 f0 a0 bc 06 23 77 3d
       0.10720674 -0.007947418 -0.019645756 0.060336135
000350 6d 0d 33 3d 04 05 38 3d 38 93 b2 bd 12 58 3f bd
       0.043713976 0.04492666 -0.08719486 -0.04671485
000360 d9 91 e4 bb 68 2d 96 3d 5a 8f e6 3d c0 01 c1 bc
       -0.006975394 0.07332879 0.11257811 -0.023560405
000370 82 76 66 bd 81 b4 98 3d 18 7e 06 b9 90 e4 c4 bd
       -0.05626536 0.074563034 -0.0001282621 -0.09613907
000380 8e ed 7a bd 47 1d 89 bd 1b c4 a8 3d 43 d1 92 bd
       -0.061261706 -0.06695037 0.08240529 -0.0716882
000390 cd 7a a6 bd 7c c1 4b 3d 36 ef 0b 3d 1d c3 97 bd
       -0.08128891 0.049745068 0.034163676 -0.07410262
0003a0 43 8c 40 3d 1e b2 ae 3d b0 18 02 3c 67 40 a2 bc
       0.047008764 0.08530067 0.007940456 -0.0198061
0003b0 86 f2 82 3d d6 d5 5f bd b6 0b 7b bd 0e d6 3c bc
       0.06393914 -0.05464729 -0.061290465 -0.011525644
0003c0 f0 20 c5 3d 92 1f b1 3d 90 70 6b 3d 4a ce 01 bd
       0.09625423 0.086486 0.057480395 -0.031690873
0003d0 07 19 cc 3d 34 20 a8 bd 4a 5e c7 3d be 83 d7 3d
       0.09965711 -0.08209267 0.09734781 0.10523175
0003e0 78 5e b4 3c a8 88 6b bd 7a f3 84 3b 4e 01 80 bd
       0.022017702 -0.057503372 0.004057345 -0.06250249
0003f0 04 9b 1b 3d ca ae ea 3c 12 b7 9d 3d 99 ec e8 3d
       0.03798963 0.028647799 0.077009335 0.113732524

conv1.bias f4 [6]
000000 ac aa d9 3d ce da 9a 3d 70 ab 53 3b 17 98 af bd
       0.10628256 0.07561265 0.003229823 -0.08573931
000010 b7 a3 65 3d ed f0 5e bd
       0.056064334 -0.054428983

conv2.weight f4 [16, 6, 5, 5]
000000 3c 2f 1c bd 26 d1 98 3b 0a cb b9 bc e4 b8 93 bd
       -0.038130984 0.0046636043 -0.022679824 -0.072129995
000010 38 8b 24 bd c0 d8 9a bd ed 3e 57 bd 34 bd 40 3d
       -0.04017183 -0.07560873 -0.052550245 0.04705544
000020 c8 0e 81 bd 29 6f ae 3c 7c f1 71 bd 16 cb f1 3c
       -0.063016474 0.02129324 -0.059068188 0.029515784
000030 52 95 02 3d 5b 64 97 bd 1d c9 62 bc 7c 89 36 bd
       0.031880684 -0.07392188 -0.013841894 -0.04456471
000040 c4 04 ed bc 22 d0 48 3c 1a 1e 3b bd 02 c6 0e bd
       -0.028932936 0.012256654 -0.045683004 -0.034856804
000050 d8 64 58 bb c6 07 a0 bc 85 af 9f 3d 14 e8 00 bd
       -0.0033019092 -0.019534957 0.077971496 -0.031471327
000060 2d 11 64 3d 0a 63 ac bd fe 77 d1 3c 44 5e d2 ba
       0.055680443 -0.08417328 0.025569912 -0.0016049822
000070 88 0c 16 bc 09 9c 0c 3d 8e b7 41 bd f6 ee c8 bc
       -0.009158261 0.034328494 -0.047294192 -0.024528008
000080 bc 84 62 3a b2 29 84 bd 34 99 61 3d 7d 4d 79 bd
       0.0008640995 -0.06453265 0.055077747 -0.060864914
000090 ae c4 62 3d 06 10 41 3d 6f 79 a3 bd e4 fb 97 bd
       0.05536335 0.04713442 -0.07982146 -0.07421091
0000a0 1c 87 27 3d e0 8c 82 3d ac e6 49 3d 94 2e 97 bd
       0.040900335 0.06374526 0.04929225 -0.07381931
0000b0 f6 ce 0a 3d 9a 58 5f bc 59 08 59 bd 61 6c 30 bd
       0.03388878 -0.013631964 -0.052986477 -0.04307211
0000c0 06 c1 fd bc e2 c9 88 bd e0 41 3f 3d d6 49 a1 bd
       -0.03097583 -0.06679131 0.046693683 -0.07875411
0000d0 09 2d f2 3a bc 3b 87 bd 2e a4 dd bc 0c 14 4c bd
       0.0018476556 -0.0660319 -0.027055826 -0.049823806
0000e0 e4 cc 6d bd 3a c4 aa bd 8d 85 8e 3d 86 cf 0a 3b
       -0.058056727 -0.083382085 0.069590665 0.0021180823
0000f0 70 30 77 bd a5 91 8b bc f6 3e a0 bd b6 d8 5c bc
       -0.060348928 -0.017037222 -0.07824509 -0.013479402
000100 2a 17 c0 3c 21 5b 18 bc 0c 20 9e bd 96 d8 a4 bd
       0.023448545 -0.009299071 -0.07720956 -0.08049123
000110 8e 3a 7e 3d 1c 51 63 3d 14 ea 45 3d 77 f9 f1 bc
       0.06206756 0.055497274 0.048318937 -0.0295379
000120 53 77 5c 3d fe 36 83 bd 20 ae 97 bd 80 47 01 bc
       0.053824734 -0.06406973 -0.074062586 -0.007890582
000130 d8 4f 7a bd 1c 08 78 bd 47 18 ba 3c 9c c0 5b bd
       -0.0611113 -0.06055461 0.022716654 -0.053650483
000140 63 4f 94 3b 7b b5 4e 3d a6 7b 57 3d e8 65 cc bc
       0.004526065 0.050466042 0.052608155 -0.024950936
000150 77 c4 d6 bc 00 9c 73 3d 16 13 5e 3d 44 60 55 bd
       -0.026216729 0.059474945 0.05421742 -0.05209376
000160 70 30 39 3d 75 76 cb bc 57 16 67 bc 8d af 5f bd
       0.04521221 -0.024836758 -0.014104447 -0.054610778
000170 ea fe 6e bd 5e 7b fb 3c fa 50 b7 ba 58 a0 37 3b
       -0.058348574 0.030698474 -0.0013985925 0.0028019156
000180 9d 8d 9e 3d 50 30 80 bd 40 53 0a bd 2e b1 93 bd
       0.07741854 -0.06259215 -0.0337708 -0.07211529
000190 8a 9d 67 3d 90 fe a9 bd ae bb ce bc e0 20 11 3d
       0.056546725 -0.08300507 -0.025235977 0.035431743
0001a0 a8 5f 61 3d ec 75 3a 3c 88 5d 3f 3d 4b 21 1c 3c
       0.055022866 0.011380654 0.046720058 0.009529422
0001b0 96 0a 73 3d 4b 5d 1d 3c ee c4 87 3d 88 e2 80 3d
       0.059336267 0.009604762 0.06629358 0.062932074
0001c0 cc 90 42 bd f0 1b 06 3c 42 50 4a bd 9f 15 34 3c
       -0.04750137 0.008185372 -0.049392946 0.010991483
0001d0 a0 66 58 3d f8 85 9e bd 28 8f 22 3d 2c 8e 99 bb
       0.052832246 -0.07740396 0.039687306 -0.0046861377
0001e0 61 40 68 bd e2 e2 ca bc 1e f0 83 bb 2a c9 c5 bc
       -0.05670202 -0.02476639 -0.004026427 -0.024143774
0001f0 73 dc 45 3b f2 fc 2b 3d e5 3b ea bc 52 1d 73 bb
       0.0030191212 0.041989274 -0.028593013 -0.0037096334
000200 ef 85 bb 3c ea 51 25 bd 70 26 a4 bd 3d 9c 93 bd
       0.022891013 -0.040361322 -0.08015144 -0.072075345
000210 e2 5c 2a 3b de 4e 10 3d 2f d7 71 3d 0a 83 4f 3c
       0.0025995304 0.035231464 0.059043106 0.0126655195
000220 ee 6d 5b 3d 92 01 a5 bd 36 c8 a6 3c 88 36 b8 3b
       0.053571634 -0.0805694 0.02035914 0.005621735
000230 58 00 d4 bc a0 b1 24 3c 3a 2a 90 bd 91 67 7c bd
       -0.02587907 0.010052115 -0.07039304 -0.061622206
000240 ca df a7 bd 24 98 37 bd f0 85 01 3d 08 88 77 3d
       -0.08196981 -0.044822827 0.031621873 0.060432464
000250 f0 50 62 3c b4 3e 67 3c e4 f4 61 bd 92 ba 71 3d
       0.013813242 0.014114071 -0.055165187 0.059015818
000260 db b2 98 bb a4 9c 88 bd e4 f7 46 bd 96 6d 0a 3d
       -0.004659993 -0.06670502 -0.04857625 0.033795916
000270 cc ec 49 3d ec 9e 59 3a 3c 93 96 3d 5c 14 17 3d
       0.049298093 0.0008301574 0.073523015 0.03688465
000280 ee 78 dc bc e5 c3 81 3d 76 34 af bc 2c 14 09 bd
       -0.026913133 0.06336192 -0.02138732 -0.033466503
000290 b6 b4 de ba 1f 62 09 3d 66 0c 44 bd 95 08 91 3c
       -0.0016991112 0.03354084 -0.047863387 0.017704288
0002a0 99 7e 8e 3c fe 4e 5d bb 3c e4 c9 b9 08 25 ec bc
       0.01739435 -0.0033769007 -0.00038507755 -0.028826252
0002b0 96 d0 f2 bc dc 05 52 3d cb ee 06 3d 9f 4c 81 bd
       -0.029640477 0.05127512 0.032942574 -0.063134424
0002c0 f4 5e 86 ba e2 e6 92 3d 08 3f b4 3c 9e 59 4b bd
       -0.0010251687 0.07172944 0.022002712 -0.049646012
0002d0 74 23 7d bd 88 af 19 3d 62 18 8a bd 16 0d 6c bd
       -0.06180139 0.037520915 -0.06742932 -0.057629667
0002e0 74 30 90 bd 2e e6 ab 3c 34 1c 09 3d 09 85 7c 3c
       -0.07040492 0.020983782 0.033474162 0.015412577
0002f0 cc 49 d5 bc fc f6 6d 3d 79 69 98 bd 58 15 2b 3d
       -0.026036166 0.05809687 -0.07441992 0.0417684
000300 fd 15 a4 bd a8 17 75 3d 34 2a 21 3d ab 76 8c bb
       -0.080120064 0.059837013 0.03934689 -0.0042866073
000310 91 6a 47 bd de d8 3d 3d 81 3c 71 bd 52 36 4e 3d
       -0.048685614 0.0463494 -0.05889559 0.050344773
000320 5a 03 a6 bd 24 2b eb bc 1e 38 ac ba 8c 1a 95 bd
       -0.08106108 -0.028707094 -0.0013139283 -0.07280454
000330 8a 4b df bc 1e 39 75 bd d8 c3 09 3d dd 27 89 3d
       -0.0272577 -0.059868924 0.033634037 0.066970564
000340 08 22 fd 3c f2 64 da 3c 0f 34 ed bb f4 4e 4a bd
       0.030900016 0.026659463 -0.007238872 -0.0493917
000350 64 11 3a bd 22 5a e0 bc 38 a6 a4 bc d6 64 8c 3d
       -0.04542674 -0.027386729 -0.02009879 0.068551704
000360 14 83 97 3d 07 f9 7c bd 21 97 79 3d 78 cb 2d bc
       0.07398048 -0.06176093 0.060935143 -0.010607593
000370 c0 a5 81 3d 26 2f 77 3c 6e 6a be 3a 28 08 18 bd
       0.063304424 0.015086925 0.0014527568 -0.037117153
000380 94 12 28 3d e2 a4 30 bc 32 b2 b1 bd 99 df c7 3b
       0.041033342 -0.010781499 -0.08676566 0.006099653
000390 a5 30 04 3c ee 0b 82 3d 06 7e 21 3c 9b 05 88 3d
       0.008068238 0.06349932 0.0098567065 0.06641694
0003a0 e7 8d 27 3d 46 09 00 3d bc f2 0c 3d b4 40 15 bd
       0.040906813 0.031258844 0.034411177 -0.03643866
0003b0 f0 03 9d bd f1 79 8a 3d bc 70 8c 3d 4b e8 27 bc
       -0.07666767 0.0676154 0.0685744 -0.010248254
0003c0 c1 7c 1b bd fa 8a 3d 3d 11 35 53 bc d8 c5 54 3d
       -0.03796077 0.046275117 -0.01289107 0.05194649
0003d0 e7 9f 56 3c fa 10 84 bd 7f a5 36 3c ec 52 0e bc
       0.013099647 -0.064485505 0.011147856 -0.008686762
0003e0 69 af 62 bd 82 48 7c bd e4 83 82 3d ac b2 99 3c
       -0.055343065 -0.061592586 0.063728124 0.018761955
0003f0 b5 15 f5 bc 5f 6f 60 bd d6 3a 33 bb 86 57 ae 3c
       -0.029917577 -0.05479371 -0.0027348301 0.021281969

conv2.bias f4 [16]
000000 4c d7 22 bd 92 be 05 3d 0c 19 a3 bd 08 3b 89 3d
       -0.039756104 0.032652445 -0.07963762 0.067007124
000010 d1 9a a2 bd ee 2d 93 bc 10 97 82 3d a3 28 af bd
       -0.07939685 -0.017966237 0.06376469 -0.08552673
000020 3d 55 a3 3c 27 ef a6 bb a0 ea 3b 3d bc 85 7d 3d
       0.019938106 -0.005094427 0.045878053 0.061895117
000030 16 c3 9e 3d a1 15 30 3d de f9 5c bd d1 1b 60 bd
       0.077520534 0.042989377 -0.05394923 -0.054714028

fc1.weight f4 [64, 400]
000000 ac 9a 18 3d c4 dd 36 3d 74 c0 58 3d 0c 4c 88 bc
       0.03725688 0.044645086 0.052917913 -0.016637824
000010 34 c0 f3 bc ac 38 78 bc 42 a8 da bb fc 96 6a 3c
       -0.029754736 -0.01515023 -0.00667289 0.014318224
000020 9c e2 0a bc 4a 0e 18 3d 40 17 11 bd e6 60 b2 bc
       -0.008476879 0.037123002 -0.035422564 -0.02177472
000030 28 82 97 bc b4 12 87 bc 20 b7 b9 bc 0c de 0d bd
       -0.01849468 -0.01648841 -0.022670329 -0.03463559
000040 78 02 20 3d 1a eb db bc f4 5f e9 3b ea c3 01 3d
       0.039064854 -0.026845504 0.007122034 0.03168098
000050 00 48 b3 bc 1d 4a 2e 3d 08 9e 17 bd ba 63 b7 bc
       -0.021884918 0.04255115 -0.037015945 -0.02238642
000060 09 2a 2e bd 0a 14 29 3c 84 b5 e9 3b 0f 21 81 bc
       -0.042520557 0.010319719 0.007132234 -0.015762834
000070 ff 6e d0 3c fa 5b 3e 3c c8 a5 e5 b9 56 e2 1c bd
       0.025443552 0.011618609 -0.000438018 -0.03830179
000080 26 01 30 bd df 01 94 3c 19 26 e8 bc 8b d1 15 bc
       -0.042969845 0.018067298 -0.028338479 -0.009144197
000090 ec 22 9e bc 44 b2 bd bc 67 8d 5e bb 0e 00 fc 3b
       -0.019303761 -0.023156293 -0.0033958794 0.007690436
0000a0 2a 1a e5 3c 7f 01 13 3c f4 2b 1c 3d a5 11 c3 bc
       0.027966578 0.008972525 0.038127854 -0.023812125
0000b0 1c 96 50 3c 5c 4b 42 bd 40 b1 1d 3c 21 ad 11 3d
       0.012731101 -0.04743515 0.009624779 0.0355655
0000c0 19 48 0d 3d 74 46 eb bb 22 cb 2a 3d 07 df 41 3d
       0.034492586 -0.0071800295 0.04169763 0.047331836
0000d0 b8 0e 45 3d 60 59 26 3d 40 92 22 bd 28 4e f1 3c
       0.04810974 0.04061258 -0.039690256 0.029456213
0000e0 ab db 3a 3d c2 9f 30 bc 5e c3 b9 bc d8 6c 4b 3d
       0.045619648 -0.010780277 -0.022676166 0.04966435
0000f0 cd ed c9 bc 46 bc 1a 3d c6 46 0c 3d cf 92 77 3c
       -0.024649525 0.037777208 0.034247182 0.0151106855
000100 c6 85 e0 3c 26 de d4 bc 7c ea 81 bc fe 34 9f bc
       0.027407538 -0.025984835 -0.015858881 -0.019434448
000110 c3 2b 07 bc b5 93 4f bc 5c 7c a0 bc 76 93 09 3c
       -0.00825018 -0.012669493 -0.01959055 0.008396974
000120 74 25 d9 3c a2 24 f1 3c aa 52 af 3c 62 b5 af bc
       0.026507117 0.029436413 0.021401722 -0.021448795
000130 ca 51 01 bd 74 fe 9b bc d4 a6 c6 bb ce 90 e7 3c
       -0.03157214 -0.019042231 -0.006062368 0.02826729
000140 6d e1 9f bb c1 a6 0f bd 02 98 f9 3c d6 c9 2d bd
       -0.004879168 -0.03507114 0.03046799 -0.042428814
000150 a1 fb ee bc c3 8b d8 bc 0f 8f 90 3b 35 6e 14 3d
       -0.02917272 -0.026433831 0.004411585 0.036237914
000160 be cb 38 3d 56 14 af bc 18 1c 31 bd f7 dc fa 3c
       0.04511618 -0.021372002 -0.043239683 0.030622942
000170 44 3c d2 bc ee 4f 07 bd 96 ff 8e bc 73 9d 36 bc
       -0.025663503 -0.03303521 -0.017455857 -0.011145937
000180 10 70 18 3c 70 1c b3 bc ad fd 22 bd 7e 1d 47 3d
       0.0093040615 -0.021864146 -0.039792705 0.04861211
000190 65 8f c4 bc 27 ce e4 3b b1 7f 93 3c 10 7e 0e bd
       -0.023994157 0.006982583 0.018005224 -0.03478819
0001a0 40 d1 05 3d 9a ed c6 ba 1a a6 3c 3d 2d 88 e8 bc
       0.03267026 -0.0015177012 0.046056844 -0.028385246
0001b0 40 a0 18 3d e4 54 d0 3a 5a e1 92 bb 33 13 a2 ba
       0.0372622 0.001589444 -0.0044824304 -0.0012365341
0001c0 60 a4 56 3c b0 60 0c 3d f8 0b 39 bd ef fb 05 3d
       0.0131007135 0.034271896 -0.04517743 0.032710966
0001d0 7a b4 65 3c 4d b3 bd 3c ab c8 18 3b ee d6 a1 bc
       0.01402008 0.023156786 0.0023312967 -0.019755807
0001e0 77 6f bf bc 85 62 1b bd f0 5f 09 3d 70 08 13 3d
       -0.02336858 -0.037935752 0.03353876 0.03589672
0001f0 d8 44 1e 3d 84 78 db 3c 2a 41 a3 bc f2 a5 f2 bc
       0.038639873 0.026790865 -0.019928534 -0.029620145
000200 70 38 50 3d 5e 8a 19 3d b0 0e c2 bc 9b 0d 18 3c
       0.050835073 0.037485473 -0.023688644 0.009280588
000210 64 0f 17 3d 08 a2 bd 3c 7c be b6 bc 4c 4c 02 bd
       0.036879912 0.023148552 -0.022307627 -0.031811044
000220 b1 a9 c5 3c 92 8c 8f bc ae 8a 26 3d 9e 85 dc bc
       0.024128767 -0.017523084 0.0406596 -0.026919182
000230 da 93 e1 bc 80 f5 76 bc 64 01 60 3d 6f ff 9d 3c
       -0.027536321 -0.01507318 0.054688826 0.01928684
000240 c0 3d bc 3c 4c 81 dd bc 1b d5 4e 3c 20 96 fc 3b
       0.022978663 -0.027039193 0.0126240505 0.007708326
000250 9e fd ee 3c 3c e1 fd bc 36 b5 fd bc 2c 3e 00 bd
       0.029173668 -0.03099119 -0.030970197 -0.03130929
000260 86 1c 32 3d 0b 06 c3 bc 78 0b 33 bd ef 0d a1 3b
       0.043484233 -0.023806592 -0.04371211 0.004914991
000270 da 5a c4 bb d4 2d 11 bd 3c c3 e2 ba 9a f9 93 bc
       -0.0059922757 -0.035444096 -0.0017300616 -0.018063355
000280 6d fa fc 3c 7c 90 5b 3b 9e 4b 0c 3d 7c 2b 2e bd
       0.030881131 0.0033502867 0.0342518 -0.04252194
000290 e6 5a 3c bd b2 95 5a 3c 42 63 26 3d 9d 02 16 bd
       -0.045985125 0.013341354 0.040622003 -0.036623586
0002a0 54 f1 6f bc e0 f0 03 bd 77 1c 45 3d d1 c6 fb 3c
       -0.014644939 -0.03221214 0.04812285 0.030734451
0002b0 0c fc 2a bd 84 b9 17 bd ac e5 e3 3b e7 2e 02 bb
       -0.041744277 -0.037042156 0.0069548693 -0.0019864382
0002c0 4d 27 b4 bc ca a6 39 3c d7 84 84 3c 30 90 94 3c
       -0.021991396 0.0113312695 0.016176624 0.01813516
0002d0 62 45 7a 3c cd 76 af 3c b3 ee c9 3b 88 bb 39 bd
       0.015275331 0.021418953 0.0061624884 -0.04534486
0002e0 a7 8e 13 3c 5b f4 2e bd ba a9 0d 3d 97 4d 3c bd
       0.009006179 -0.042713504 0.034585692 -0.045972433
0002f0 c3 67 f2 3c ed 29 a8 3c 4a c6 de 3c 37 87 d8 bc
       0.029590493 0.020527804 0.027194161 -0.026431663
000300 80 c9 32 bb f7 1f e2 3c 13 12 b8 3c 20 2d 2a 3d
       -0.0027280748 0.027603133 0.022469556 0.04154694
000310 45 10 2f 3d a7 46 72 bc 9a 9d d1 b9 d2 d7 20 bc
       0.042740125 -0.014787353 -0.0003998101 -0.009817081
000320 46 7b 55 3d cc e8 d0 3c f6 5b 1e bd 00 99 15 ba
       0.052119516 0.025501631 -0.03866192 -0.00057066977
000330 86 98 bf 3c d8 ef 70 3b 5c f5 3b 3d 7c 21 2a bd
       0.023388159 0.0036764052 0.04588829 -0.04153584
000340 e7 cf a6 3c d2 1d 45 bc f2 7d 94 3c 5d f1 d5 bc
       0.020362807 -0.0120310355 0.018126462 -0.026116068
000350 3c 78 4c bd 2d aa 4b 3c 0c cb e1 3c 84 25 42 3d
       -0.049919352 0.01243071 0.02756264 0.04739906
000360 01 cc a2 bb 62 e6 f5 bc 6e 64 d2 bc 1d ec 26 3d
       -0.004968167 -0.030017082 -0.025682654 0.04075252
000370 ec 6f 00 3d ae 4c a3 bb 60 02 82 3c f8 03 e9 3c
       0.031356737 -0.004983506 0.015870273 0.028444275
000380 c6 36 5d bc 20 2d e9 3b a0 ea 0b 3d 72 74 5e 3d
       -0.013501829 0.007115975 0.034159303 0.05431027
000390 03 f2 c4 bc 35 27 42 3d 81 f3 0e 3c 54 ba 08 3d
       -0.024041181 0.047400672 0.008725048 0.03338082
0003a0 bb 84 2a 3d 58 fd ef 3c 3c 7c 13 bd 82 39 0d bc
       0.041630488 0.029295608 -0.03600715 -0.008619668
0003b0 00 10 c4 bc 1f 89 eb 3c 49 18 ae bc 94 70 4b 3d
       -0.02393341 0.028751908 -0.021251814 0.04966791
0003c0 88 14 83 bb 4a bd 71 3d da ba e9 bc 2a 8a 1a 3d
       -0.0040002503 0.05901841 -0.02853148 0.03772942
0003d0 1a 29 98 3c 92 b6 44 3d 83 d4 67 3d 30 b7 a8 39
       0.018574286 0.048025675 0.05659915 0.00032179942
0003e0 34 b9 a6 3c ad 2a ad bc 0f 92 76 3c 1c c6 30 3d
       0.020351984 -0.021138513 0.0150494715 0.04315768
0003f0 5e 51 17 bc 2e cc 00 bd 1c 9f 48 3d f5 2f 32 bd
       -0.009235708 -0.03144472 0.048979864 -0.043502767

fc1.bias f4 [64]
000000 62 25 d3 bc 4d 91 b2 bb 70 67 48 3c 8c bc 6d bc
       -0.025774661 -0.00544945 0.012231693 -0.014510285
000010 46 cf 3d bc 30 1d 16 3d 3e 6f bd bc e4 80 25 bd
       -0.011585062 0.03664893 -0.023124333 -0.040406123
000020 ef fd 11 3d 79 4b 59 bd b2 ea 13 bd 78 50 27 3c
       0.03564256 -0.053050492 -0.036112495 0.010212056
000030 dc 5f f1 3c 43 8f 2f 3d 08 21 39 bc 15 52 0b bd
       0.029464655 0.042861234 -0.011299379 -0.034013826
000040 40 d4 ac bc b0 29 89 3c 8a 28 20 3d f5 b0 b7 3c
       -0.021097302 0.016743511 0.03910116 0.022423247
000050 ff 55 ff bc d4 10 c9 3b 9c 04 29 bd 1e da 0f 3d
       -0.031168936 0.0061360393 -0.04126416 0.035120122
000060 68 b9 68 3b b2 cb f3 3c 94 e9 a4 bc 44 8b 3a bc
       0.0035510901 0.029760215 -0.02013091 -0.011385743
000070 b6 6e 97 3c c6 c4 2a bd ca cd 9f 3c 7f 88 41 3d
       0.018485408 -0.041691564 0.019507308 0.047249313
000080 25 c3 3d bd db f0 a0 bc 10 06 4d bc dc aa 20 bc
       -0.046328682 -0.019646099 -0.012513652 -0.009806361
000090 7a e7 e2 bc 2a a1 ec bc 5b 0f 23 bd a4 22 0b 3d
       -0.027698267 -0.028885443 -0.039809566 0.033968583
0000a0 6a 7e 9c bc 26 4d 44 3c 9e e5 8d 3c a4 c9 29 3c
       -0.019103248 0.011981284 0.017321404 0.010363016
0000b0 fa 17 ca 3c d7 96 04 bc 6c c6 56 bd 56 9f 9b 3c
       0.024669636 -0.008092604 -0.052435324 0.018996876
0000c0 8a ba fd 3a ee 6a 0a 3d 89 09 ff bc fd e7 38 bc
       0.0019357961 0.033793382 -0.031132476 -0.011285779
0000d0 4c 05 05 3d 7a cc f2 3c f4 31 f9 3c 7a 24 0b bc
       0.032475755 0.029638518 0.030419327 -0.008492583
0000e0 c5 fa be 3c 3a 8a 9f bc 49 d5 3d bd 43 f1 ea bc
       0.023312936 -0.019475091 -0.046345983 -0.028679496
0000f0 9d a1 52 bd d6 06 93 3c f6 3f 6f bc 04 1a 4a 3c
       -0.051423658 0.017947596 -0.014602652 0.012335304

fc2.weight f4 [32, 64]
000000 3b 2b 8f bd 50 8f bf 3d 78 13 d8 bd 57 69 37 3d
       -0.069906674 0.093535066 -0.10550588 0.044778194
000010 56 d5 ff bc b8 59 8a 3d 12 9e e9 3d e6 53 ce 3d
       -0.031229656 0.06755394 0.11407103 0.10074596
000020 d0 75 ec ba 44 4f 45 3d 06 69 57 bd 90 5b ea 3c
       -0.0018040482 0.048171297 -0.052590393 0.028608114
000030 ce 66 8e bd 84 a8 c0 bd 26 28 56 3d 1c 1f 7f bc
       -0.06953202 -0.09407142 0.052284382 -0.015571382
000040 e0 14 a8 3d 13 5b 12 bd 0e 19 6b 3c be 33 44 3d
       0.082071066 -0.035731386 0.014349235 0.047900908
000050 e2 e5 a0 3d c6 4b d4 3d 16 57 9c bc 54 3c ee bd
       0.07856347 0.10366015 -0.019084495 -0.116326004
000060 fc 46 be 3d df 21 fd 3d fd 6a 71 bd 0a 09 ce bd
       0.09290883 0.12359976 -0.058939923 -0.10060318
000070 c6 28 33 bd f4 8d 82 bc 4a c6 0d 3d 14 aa e0 bd
       -0.043740056 -0.01593683 0.03461293 -0.1096994
000080 8c b8 51 bd ce 2a a8 bd 9a 50 b8 3d dc 37 a7 3d
       -0.05120139 -0.08211289 0.089997485 0.08164951
000090 f4 4a b1 bd 74 1b 98 3d 58 05 d5 3c 15 53 73 bd
       -0.08656874 0.07427111 0.026003525 -0.059405405
0000a0 b4 78 58 bd a2 00 e2 bd b3 2e 87 3d b0 b0 84 bd
       -0.052849486 -0.11035277 0.06600704 -0.06479013
0000b0 f6 95 b7 3d 7c dd f3 bd 96 4f 9c 3b e2 9e ba bd
       0.0896415 -0.11907479 0.0047702296 -0.09112336
0000c0 e3 2c 1f bd 7c 08 6d 3c 7e c5 25 3c 20 0d 4f bd
       -0.038861167 0.014467355 0.010117887 -0.050549626
0000d0 60 4b b0 3d f9 8a 21 bc 98 0c d2 3d 6e a3 d4 bd
       0.08608127 -0.009859794 0.10256308 -0.10382734
0000e0 06 d0 2b bd 92 33 8c 3d e6 b3 cd 3c 98 7a bf 3d
       -0.041946433 0.06845774 0.025110196 0.09349555
0000f0 37 8f a6 3c c3 02 61 3c 08 2f a9 3c 74 9a a2 bc
       0.020331962 0.013733569 0.020652309 -0.01984904
000100 d4 f6 93 bd f4 18 49 bd 04 84 35 3d 06 f3 9e bd
       -0.07224813 -0.049096063 0.044315353 -0.07761197
000110 ee fe c3 3d 88 3e 86 bc 47 2e d4 3c a9 40 74 bd
       0.09570108 -0.01638724 0.025900973 -0.059631977
000120 40 78 1a bd 18 fa bc 3c 96 55 b7 3d 48 eb ce 3d
       -0.037712336 0.023068473 0.08951871 0.1010347
000130 0a d9 e8 3d a4 d2 26 bd e4 af 58 bd fa 28 a0 3d
       0.11369522 -0.040728226 -0.052902117 0.07820316
000140 72 e0 ee bd d4 8c fe 3d a4 1d b7 bd 01 2b 3f 3d
       -0.11663903 0.124292046 -0.089412004 0.04667187
000150 f8 30 a3 3d dc 65 de bd 21 ac 1c 3d 01 5d 93 3d
       0.079683244 -0.10859272 0.038250092 0.071954735
000160 06 56 f0 3d d4 84 1f 3d a5 47 80 bd 92 45 a3 bd
       0.11735158 0.038945034 -0.06263665 -0.07972254
000170 b1 c0 43 bd a4 53 03 3e 1e 50 8c bd 7a ad d2 3d
       -0.047791187 0.12824875 -0.06851219 0.10286994
000180 d4 0f 8f bd ca 4b 9e 3d ea 21 44 bd c2 af 36 3d
       -0.06985441 0.07729299 -0.047883905 0.04460121
000190 d0 fc 59 3d 8e 22 5b 3d 08 96 8b bd ea f3 c5 3d
       0.053219616 0.05349975 -0.068157256 0.096656635
0001a0 96 e6 ec bc be b5 76 3d 14 f2 4a 3d c4 98 5c 3b
       -0.028918546 0.060231917 0.04954727 0.0033660391
0001b0 9a 0e 47 bd fb fd ea 3c a9 f6 b6 3d d1 a1 42 3d
       -0.04859791 0.02868556 0.089337654 0.0475176
0001c0 2a 50 6a 3d 82 dd ce bd f2 2a b8 3c c4 0c a9 bd
       0.057205357 -0.10100843 0.022481415 -0.08254388
0001d0 01 d9 08 3d 94 87 2c bd 12 10 dc bd 24 57 3b bd
       0.033410076 -0.042121485 -0.10745253 -0.0457374
0001e0 80 fe d3 bd bc b8 9b bd f5 4f 97 3d 7c 8a be 3d
       -0.103512764 -0.07603595 0.073882975 0.093037575
0001f0 44 84 c1 bd 3a 8a 51 bd 98 f5 cd 3b d0 4a f7 3d
       -0.09449056 -0.051157214 0.0062853806 0.12074816
000200 1c cd b2 3d 0e 0c 43 3c fe f0 db 3d 4b 66 bb bc
       0.08730528 0.0119047295 0.10739325 -0.022875926
000210 35 d4 c8 3c 56 9c 9a bd dc 5d 8d 3d 64 0a 13 bd
       0.02451525 -0.0754935 0.06902668 -0.03589858
000220 24 b9 18 3c 3c cd 4b 3d 66 15 07 3d fb 1f 0b bd
       0.009321485 0.049756274 0.03297939 -0.033966046
000230 34 f6 d5 3d 10 c9 4b 3d 47 15 2a 3d e4 0e 3d bb
       0.1044735 0.049752295 0.041524198 -0.0028847987
000240 91 43 e4 bc 00 2c c2 bd e3 a9 9c bc d4 13 e6 bc
       -0.02786425 -0.094810486 -0.019123977 -0.028085627
000250 20 38 7d bc 45 f8 2a bc 70 52 f7 bd 22 f9 d5 3d
       -0.015455276 -0.010435169 -0.120762706 0.10447909
000260 36 54 6d 3d 5e 53 6b 3d 7c 07 8e bd ea 1c 31 3d
       0.057941638 0.057452552 -0.06935021 0.043240465
000270 5c ed e0 bd c4 a4 65 3d 58 5b 7c bc 39 97 85 3d
       -0.10982773 0.056065336 -0.015402637 0.06522984
000280 3a ce 9d 3d a7 76 6d bc 68 90 05 3d cf 0a 53 3d
       0.0770535 -0.014493621 0.03260842 0.05152398
000290 eb 54 9c bd ac a5 41 bd a2 ec ac 3d 2c f0 e7 bd
       -0.07633384 -0.047277138 0.084435716 -0.11325106
0002a0 eb 92 8e 3c 00 2c ea b9 90 63 8d bc 92 45 5f 3b
       0.01740404 -0.0004466474 -0.01725939 0.0034068567
0002b0 72 b3 f9 3d 6c 28 d3 3c 8c b9 8e bd 09 26 7d bd
       0.121924296 0.02577611 -0.06968984 -0.06180385
0002c0 b2 28 bd bd d2 4c 50 3d 8a 11 ee 3d 9c 4b d3 bd
       -0.09236278 0.05085451 0.11624439 -0.10317156
0002d0 fc 2a 00 3e 5c 42 f3 3d f2 b2 9d bd 40 5b 77 3c
       0.12516397 0.118778914 -0.07700147 0.015097439
0002e0 68 da dc bd e3 4d 8b bd 30 b6 75 3d f0 9e 12 3c
       -0.10783845 -0.06801965 0.0599882 0.008949026
0002f0 ee 73 9a ba fa e0 21 bb 29 fe ae bd a7 fe c5 3d
       -0.0011783817 -0.0024700747 -0.08544571 0.09667712
000300 de a8 b4 bd 1e 4f c9 bd 7c ed 2d 3d a0 35 c3 3c
       -0.08821271 -0.098295435 0.04246281 0.023829281
000310 60 a0 7c bc c8 73 ab 3d 62 79 eb bd 54 39 bd 3b
       -0.015419096 0.08371693 -0.11497761 0.0057746563
000320 c0 f2 3b 3d c0 6c 1a 3d cc 9c 81 bd 40 cd 22 3b
       0.0458858 0.03770137 -0.06328735 0.0024841577
000330 aa fd 93 bd cf c3 e1 bd a6 bf fb bc 50 ef 37 3d
       -0.07226117 -0.11023676 -0.030731034 0.04490596
000340 52 e6 c2 3d 34 72 86 bb c3 d7 9d bd e0 05 db bb
       0.09516586 -0.0041029695 -0.07707169 -0.00668405
000350 86 02 dc bd a4 29 ad bd b6 30 f1 bd c2 71 c1 bc
       -0.10742669 -0.08455208 -0.11776869 -0.023613814
000360 2c 60 a1 bc ae a2 81 bc b0 7a 26 b9 c4 97 b2 3b
       -0.019699179 -0.015824642 -0.00015876698 0.005450221
000370 3e be 4c bd e7 87 9c 3d 81 dd 41 3d 1c bc a8 3d
       -0.049986117 0.07643109 0.047330383 0.08239004
000380 4a 60 e4 bd d8 4a db bc 38 fd d4 3d 14 37 9a 3d
       -0.11151178 -0.026769087 0.1039986 0.075300366
000390 06 5c b1 3d f8 17 98 3c 18 62 8b bc 50 b1 e2 3d
       0.0866013 0.018566117 -0.017014548 0.11068976
0003a0 e5 dc 00 be 5c 64 db 3d e8 a6 c9 bd 40 2c 88 3c
       -0.12584265 0.107125014 -0.09846288 0.016622663
0003b0 f4 a8 75 bd 72 6e a3 bc 06 98 73 3d a6 df 51 3d
       -0.05997558 -0.019950125 0.059471153 0.05123868
0003c0 9e fe 59 bd 80 40 43 3b ce 63 e2 3d 78 9e 8c bc
       -0.053221337 0.0029793084 0.110541925 -0.017165408
0003d0 00 14 f1 bc c4 0e cb 3d 7c 77 77 3c 66 38 ce 3d
       -0.029428482 0.09914926 0.015104171 0.10069351
0003e0 e0 51 31 bd 58 5f 63 3c 6e a8 bb bd bb 54 96 3d
       -0.043290973 0.013877712 -0.09162985 0.0734038
0003f0 34 df c5 3c 2c e3 ac bd 8c 73 9a 3d 2c 56 f6 bd
       0.024154283 -0.08441767 0.0754157 -0.12028155

fc2.bias f4 [32]
000000 76 fa f7 3d 5c a5 00 bd 98 24 d8 bd 26 99 36 bd
       0.121083185 -0.0314077 -0.10553855 -0.044579647
000010 a8 3d f3 3d 18 68 ae bd 04 df ca bd 30 a0 40 ba
       0.11876994 -0.08515948 -0.09905818 -0.00073480885
000020 22 43 38 3c 19 77 99 3c 66 15 6d 3d 59 5c 16 bd
       0.011246474 0.018733548 0.057881735 -0.036709163
000030 75 e7 2f 3d 21 b9 c4 3d 00 f3 8c 3d af 40 e7 bd
       0.042945344 0.09605623 0.06882286 -0.11291634
000040 dc f9 6a bd f0 88 c6 3d 28 20 e9 bd e1 1f 0c 3d
       -0.05736719 0.096940875 -0.113830864 0.03421009
000050 0a 91 60 3d e4 7b 6c 3d b6 1d 11 bd fe c6 cc bc
       0.05482582 0.05773534 -0.035428725 -0.02499723
000060 84 e3 8e bd 22 bf 8b bd 12 29 5f bc c4 08 e9 bd
       -0.06976989 -0.06823565 -0.013620632 -0.11378625
000070 cc 86 58 bd 1a 6d 3b 3a 46 af ce 3c 0a aa 99 3d
       -0.052862927 0.0007149741 0.025230061 0.075031355

fc3.weight f4 [10, 32]
000000 df f6 fb 3d 26 75 18 3e a8 8c c4 bd b8 f7 1d 3e
       0.12302946 0.14888439 -0.095971406 0.15426528
000010 2c 3d f9 bd dd 0c 80 bc 87 f4 a1 bd b8 59 1f 3e
       -0.12169871 -0.015631134 -0.07907968 0.15561569
000020 0c ac 9a bc 00 42 b7 3a 06 84 37 3c c2 25 13 3c
       -0.018880866 0.0013981462 0.01120091 0.00898117
000030 fa be 67 3d 2a bf b8 bc 8c c9 06 be 9f c3 0e be
       0.056578614 -0.022552092 -0.13162822 -0.13941811
000040 4d bf f2 bd 46 6e 4d bd b9 fd 20 be c1 52 ed bc
       -0.11852894 -0.050153993 -0.15721788 -0.028970124
000050 5e 65 27 be d2 79 9c bd ba a7 16 3e 8e 96 27 be
       -0.16347262 -0.07640423 0.1471242 -0.16366026
000060 2f 9f af bd b6 54 2d be 64 00 9b 3d 54 0e 17 3e
       -0.08575284 -0.16926846 0.07568434 0.1475156
000070 c8 80 fe bd d3 63 de bc 7a 28 ab bd b6 4a 06 3e
       -0.12426907 -0.02714721 -0.0835733 0.13114437
000080 ad 81 b1 3d ea 7f ce bd 56 95 82 3d 18 99 14 3e
       0.08667312 -0.100829914 0.0637614 0.14511526
000090 6c 3b 2e be 7e fd dd 3c 52 f8 81 3d 09 0f 20 3c
       -0.17014855 0.027098414 0.063461915 0.00976921
0000a0 7c 03 a4 3d ee fe 4d bd 7b f9 9c 3d 2c 6f 19 3d
       0.08008477 -0.050291948 0.07664772 0.037459537
0000b0 d8 a4 f2 3c 96 b3 56 3d df ef 1b be c8 2d 23 be
       0.02961962 0.05241736 -0.15228222 -0.15935433
0000c0 36 7b 96 3d 62 5c 11 be 40 fd da bd 0b 0e 8b bd
       0.07347719 -0.14195397 -0.10692835 -0.06789788
0000d0 95 24 94 3d ca 46 22 3e fa 1e 6f 3d 05 07 51 bb
       0.0723354 0.15847316 0.05837915 -0.0031895053
0000e0 21 e4 59 bd 78 2b 78 bc a4 31 df bd ee c4 0a 3e
       -0.053196076 -0.0151470825 -0.1089814 0.13551685
0000f0 24 7c a1 3d aa c4 22 3e b7 18 fa bd c2 19 1b 3e
       0.07885006 0.15895334 -0.12211745 0.15146545
000100 f2 ca 03 3d b4 16 2d 3e 23 06 16 3e 2a eb f5 bd
       0.032175966 0.16903192 0.14650778 -0.120077446
000110 cb a6 2a 3d d4 54 23 3e 52 72 92 bd 06 7a 07 3d
       0.041662972 0.15950328 -0.07150711 0.033075355
000120 48 8a 59 bd 48 ac 1a be 42 5b 33 3d 1c ae 6a bd
       -0.05311039 -0.15104783 0.043788202 -0.05729495
000130 c6 b9 ab bc 65 10 06 3e 7a 06 f2 3c 0d a1 df bd
       -0.020962607 0.13092192 0.029544104 -0.1091939
000140 27 f9 e3 3c 02 b8 1d 3e 17 e5 ea 3c f9 f0 21 3e
       0.027828766 0.15402225 0.028673692 0.1581458
000150 90 ff ff bd 9f 7c 0c bd a2 03 e9 3c fa cf 47 bd
       -0.124999166 -0.034298535 0.028444115 -0.048782326
000160 7b 6e ee 3d e2 d1 9e bd fe ab da bc 4a c0 75 bd
       0.11642166 -0.07754876 -0.02669334 -0.059997834
000170 d2 19 b4 bd 0c c1 64 3c 86 8e 85 bd af 19 00 3e
       -0.08793987 0.013962042 -0.06521325 0.12509798
000180 d7 3a 8c 3d 01 57 27 bd 44 c2 c7 3d e8 57 24 3e
       0.0684716 -0.040854458 0.0975385 0.16049159
000190 ec a5 2f 3d 2c 79 b2 3c ce b2 47 bd 02 15 0b be
       0.042882845 0.021786295 -0.048754506 -0.13582233
0001a0 e6 fc f5 3d f1 2d 0b 3e 01 96 14 3e aa ee 14 be
       0.12011127 0.13591744 0.14510347 -0.14544168
0001b0 64 94 0e 3e 42 5e 99 3d e2 9e 35 3d 45 b5 13 be
       0.13923794 0.074886814 0.044340976 -0.14424618
0001c0 32 84 29 3c 2e f2 e4 bd 76 83 db bc 64 87 8c bd
       0.010346459 -0.111790046 -0.026796084 -0.06861761
0001d0 3d 1a e5 3d 1e f3 1a 3e bd 93 fa bd 80 45 e0 bd
       0.11186645 0.15131804 -0.1223521 -0.10950756
0001e0 de 31 12 3c ee 7a 0d 3e 00 12 e9 bd 26 87 eb 3d
       0.008923022 0.13816425 -0.11380386 0.11500387
0001f0 2e c3 b9 bd 74 2b b5 3d 5f c9 63 bd 71 27 8c bd
       -0.09070431 0.08846179 -0.055611964 -0.0684346
000200 f7 0d f0 bb 44 f9 39 be 3e cd db 3d 40 21 19 be
       -0.0073258835 -0.18161494 0.10732506 -0.1495409
000210 d4 91 57 3d 86 5e 32 be ea 48 1c 3e 6b 91 04 3e
       0.052629307 -0.1741887 0.1526219 0.12946098
000220 e0 66 26 3e 47 1e cf bb 81 5d 20 3e d2 da 30 bc
       0.16250181 -0.006320748 0.15660669 -0.010794358
000230 ce e4 8b bd c2 e8 dd 3d f5 b1 13 bd 8e 99 1b 3c
       -0.068307504 0.10835411 -0.036058385 0.0094970595
000240 45 03 ca bd 4b 98 f4 bd 4a ea 1d 3e a4 b1 a0 3d
       -0.09863905 -0.1194311 0.15421405 0.07846382
000250 36 69 a7 bd 94 63 75 3d 35 29 28 3e 0b 62 2c 3e
       -0.08174364 0.05990942 0.16421969 0.16834275
000260 44 4a e0 bd 21 54 18 3e ac 60 b8 3d 75 7d 03 be
       -0.10951665 0.14875843 0.09002814 -0.12840827
000270 2a c7 1f 3c b2 c3 17 be 48 8c 94 bd 76 2e 23 be
       0.009752074 -0.14820746 -0.07253319 -0.15935692
000280 bd 4a 71 3c 0a 2e 7c 3d 3e 18 19 bd e6 d2 d8 bd
       0.014727292 0.061567344 -0.037376635 -0.10587101
000290 f4 ad 15 be 38 43 04 3e 95 03 04 be 4e 78 8e bd
       -0.14617139 0.12916267 -0.12891991 -0.0695654
0002a0 7c f6 ae 3d ea 51 de bd a7 73 b5 bd 10 ba 2b bc
       0.08543107 -0.108554676 -0.088599496 -0.0104813725
0002b0 be bf e0 3d 04 d4 45 3d 37 a8 17 3b ca e3 a0 3b
       0.10974072 0.048297897 0.0023141035 0.004909967
0002c0 9f 46 86 3d 45 1d d5 3d 32 a5 10 3e 35 58 a9 3d
       0.06556439 0.10405973 0.14125517 0.08268777
0002d0 20 9f 06 3c b0 59 28 be cc eb 32 bd 06 99 f5 3b
       0.008216649 -0.16440463 -0.043681905 0.0074950485
0002e0 6e be 08 3d 48 59 8c 3d 1c 2d 50 bd 74 16 af bd
       0.033384733 0.068529665 -0.05082427 -0.085492045
0002f0 3a fc 0a be 3c 76 b7 bd 6c 44 8d 3d 84 49 17 be
       -0.1357278 -0.08958098 0.06897816 -0.14774138
000300 b4 62 bd 3d 38 31 29 3d 28 68 c4 bd 0b 09 09 3d
       0.09247342 0.041306704 -0.09590179 0.03345589
000310 77 3c d8 3d db 0e 11 3e c6 70 4d bd 4c b8 08 bc
       0.10558408 0.14165823 -0.050156377 -0.008344721
000320 1c 1d 0d be 23 59 12 3e d4 0f 4b bd ff 3d e7 3c
       -0.13780636 0.14291815 -0.04957564 0.028227804
000330 e7 f3 35 3e b8 cb f4 3a 4d 9c 3f 3b 66 2d 24 bd
       0.17768823 0.0018676436 0.002923745 -0.040082358
000340 39 51 35 be 71 c8 9b 3d 8a 62 f8 bc e8 b6 38 3d
       -0.17706765 0.076065905 -0.030320425 0.045096308
000350 99 ee ae bd b4 a7 a4 bc 10 c6 47 3d 30 51 8a bd
       -0.08541603 -0.020099498 0.04877287 -0.067537665
000360 f2 a1 00 be 34 89 2b be 01 55 0d be 1a ae 85 3d
       -0.12561777 -0.16751558 -0.13801958 0.06527348
000370 d6 1c f7 bd af 9a 35 bc 59 8f 6c bd 5c e9 c5 bd
       -0.12066047 -0.011084243 -0.057753894 -0.096636504
000380 7d 46 2d 3e 0c 90 a2 bb ee 28 33 3e d1 7f 04 be
       0.1692142 -0.0049610194 0.17496082 -0.12939383
000390 fa 65 47 bd 5f 20 49 3d ca 4e 07 be 5d 90 1a 3d
       -0.048681237 0.049103137 -0.1321365 0.03773533
0003a0 32 72 21 3e 18 74 17 be ff 04 27 bd 1c 7a c3 3d
       0.15766218 -0.1479038 -0.04077625 0.09544775
0003b0 11 42 c1 bb 40 0d 35 3c 07 03 f4 3d 96 91 52 bd
       -0.0058977683 0.011050522 0.1191464 -0.051408373
0003c0 17 4b 41 bd 86 19 30 be fa 18 1d be 80 bd 62 bd
       -0.047190752 -0.17197236 -0.15341559 -0.055356503
0003d0 a8 4d 94 3d d5 4a 06 be 3e ee ae 3c f6 c7 0f bd
       0.07241374 -0.13114484 0.021353837 -0.035102807
0003e0 90 f9 c5 bd 80 74 e2 3d 74 c8 ab bd 37 ff e5 bd
       -0.09666741 0.11057377 -0.08387843 -0.11230319
0003f0 7c 7c fa bd be eb 9a 3d 55 67 45 bc 30 44 0e 3d
       -0.12230775 0.075644955 -0.012048562 0.034732997

fc3.bias f4 [10]
000000 aa 9a 00 bd f2 53 0e 3e a0 2b 6a bd e8 13 21 be
       -0.0313975 0.1389921 -0.05717051 -0.1573025
000010 e4 83 07 3e 39 1b 86 3d 7b 59 32 bd 26 99 31 be
       0.13233906 0.06548161 -0.043542366 -0.17343578
000020 f8 a0 e5 3d 15 91 01 3e
       0.11212343 0.12653
