output/global_model_round2.pt (torch, 127584 bytes, 10 tensors)

conv1.weight f4 [6, 3, 5, 5]
000000 d2 f8 92 3d 9a ea 71 3d 6a 7c 0b 3d 15 0f 21 3d
       0.07176365 0.059061624 0.034054197 0.039321024
000010 14 cb a5 3d ee bd 3a bd b6 dc d1 bd 98 f9 ab bd
       0.08095375 -0.045591287 -0.102471754 -0.083972156
000020 e3 d5 9d bd 95 00 18 3e a6 b9 2f 3e f8 02 12 3e
       -0.07706811 0.14843972 0.17160663 0.14258945
000030 28 b4 14 be 5d 46 0d be ed 48 29 be 3c cb fd 3c
       -0.14521849 -0.13796373 -0.16531725 0.030980699
000040 1c 5e 01 be 8a 17 15 3e ff 5a 13 be 16 44 39 3e
       -0.12633556 0.1455976 -0.14390181 0.18092379
000050 fa ba e8 bd cb 95 a2 3c f6 51 c8 bc ea 7f 98 3d
       -0.11363788 0.019846817 -0.024453145 0.07446273
000060 45 65 0a 3e 3d 23 08 be d4 7f 90 bb 84 65 bd 3d
       0.13515194 -0.13294692 -0.0044097695 0.09247878
000070 c6 90 27 be ae 3b 7f 3d 2e a8 39 be 20 f0 f3 3d
       -0.1636382 0.062312774 -0.18130562 0.119110346
000080 7e ea b0 3d b4 85 20 3d 25 7e 1d bd ca 0e 1e 3c
       0.08638476 0.03919001 -0.03845038 0.009647081
000090 87 1e e9 bd 69 43 9a 3d ba e3 9b 3c 10 7e 14 be
       -0.11382776 0.07532389 0.019029487 -0.14501214
0000a0 a1 16 14 3e f2 a2 5e 3e 16 28 48 bd be 7d ca 3d
       0.14461757 0.21741846 -0.048866354 0.09887265
0000b0 3f 22 0e 3e c3 47 52 3e 3b aa 11 3e a8 a6 fd bd
       0.13880251 0.20535187 0.14225094 -0.12385303
0000c0 b1 e3 98 3d a1 c9 18 3b d2 23 0a 3c ad 20 7e bd
       0.07465304 0.002331354 0.008431392 -0.06204288
0000d0 24 b8 de bd ba 8f fd bd c3 13 8c bd 60 ec 01 be
       -0.10874966 -0.12380929 -0.06839707 -0.12687826
0000e0 fe 36 73 3c a8 1b e4 3d 3e d9 10 3e c2 bf e0 bd
       0.014844654 0.111380875 0.14145371 -0.10974075
0000f0 f7 f1 81 3d 20 e9 5f 3e 2a 85 d8 3d c0 40 56 3d
       0.06344979 0.21866274 0.10572274 0.052307844
000100 07 bc c5 bd 80 37 0a be 66 33 d2 bd 8c 32 28 be
       -0.09655004 -0.13497734 -0.1026371 -0.16425532
000110 90 8d 40 be ec 96 c5 3c 84 d2 97 bc b2 f4 81 bd
       -0.18804002 0.024119817 -0.018532999 -0.063455
000120 36 8f d2 3b 6b ef 3d bd 22 ba 57 3e f2 99 a7 bc
       0.0064257635 -0.046370905 0.21067098 -0.020459149
000130 2c cf cb 3c 72 fa 94 3d 04 0c 16 bd 51 b6 19 be
       0.02487906 0.07274331 -0.036632553 -0.15010954
000140 b8 dd 01 3e be 9a ac bb 58 53 bb bd e4 08 2f be
       0.12682235 -0.00526747 -0.09146756 -0.17093235
000150 14 dd 05 bc 5f 85 87 3d ed 57 8c 3d d6 b6 c5 bc
       -0.008170385 0.066172354 0.06852708 -0.024135035
000160 90 1b 83 3c fc f5 6d bd b6 55 fb bd 74 70 0d 3e
       0.016004354 -0.058095917 -0.122722074 0.13812429
000170 4c e7 24 bd 32 6e 28 be 0a 1f eb 3d 70 dd 24 3e
       -0.040259644 -0.16448286 0.114805296 0.16100097
000180 f4 c8 5d 3e ae 03 25 bd 8e 81 03 3e 2f 8e 50 bc
       0.21658689 -0.040286712 0.1284239 -0.012729212
000190 fa ae 2f 3d 0e 10 db 3d 46 ca ac 3c 5c fb b9 bd
       0.04289148 0.106964216 0.021092545 -0.09081146
0001a0 89 d0 f9 bd 71 2b 22 3d 6e 3c 18 3e f8 3b e5 bc
       -0.12197978 0.03959221 0.14866802 -0.027982697
0001b0 09 f0 cf bd 52 55 79 bd b5 f2 7d bc 5c bc 4b 3e
       -0.10153205 -0.060872383 -0.01549976 0.19896072
0001c0 04 9a 10 be a0 79 26 3d 26 b0 1a 3c 3c 50 95 3c
       -0.14121252 0.040643334 0.009441411 0.018226735
0001d0 ea 69 56 3e d4 55 48 be 90 71 61 3e cc b5 55 bd
       0.2093884 -0.19563991 0.22015977 -0.052175328
0001e0 bc 20 11 be 04 33 80 bc c1 b8 90 3e c4 43 8a bd
       -0.14172643 -0.015649326 0.28265956 -0.067512065
0001f0 fc 77 0d 3e 18 d6 b0 bd a6 0a 12 be 1a c6 9d 3d
       0.13815302 -0.08634585 -0.14261875 0.077038005
000200 ec 16 e1 bc c2 14 a6 3d 4d 29 99 3d 27 d2 5d 3d
       -0.02747675 0.08109428 0.074785806 0.054155495
000210 f2 88 39 3c 62 0f 95 3d 66 8f ee 3c 87 8e b0 bd
       0.011324154 0.07278325 0.029121112 -0.08620935
000220 a6 a6 82 3e 13 90 3b 3d a5 0c 02 be 58 94 d9 3d
       0.25517768 0.045791697 -0.12700136 0.106239974
000230 b6 f1 c8 be 30 17 ff bd 2a ce 40 bd db a4 3a 3e
       -0.3924691 -0.124555945 -0.047071613 0.1822695
000240 27 1a d8 3d 9a 72 47 3e 15 f8 82 3c 1e 12 33 3e
       0.10551863 0.19477311 0.015987435 0.1748738
000250 42 fe 0d be 1b d2 d7 bd 2a c5 83 bd 0a 9e 9b bd
       -0.13866523 -0.10538121 -0.064340904 -0.07598503
000260 ae c6 3a 3e c2 87 78 3e 37 b5 ca bd ba 18 30 bc
       0.18239853 0.24270537 -0.09897845 -0.010748083
000270 fa cf 65 bb bd 11 13 be d8 9a 10 be 61 59 d2 bd
       -0.003506659 -0.14362235 -0.14121568 -0.10270954
000280 4e 90 2b be 9c 33 58 3d 7c 2f 64 3e 56 43 46 3b
       -0.16754267 0.052783594 0.22283739 0.0030252538
000290 53 3d b6 3b 58 d3 fd 3d c6 88 92 3d 26 4b 97 bd
       0.0055615096 0.12393826 0.07154994 -0.0738738
0002a0 6c 29 83 3c 46 57 3d bd 52 bb 01 be 56 bb ad be
       0.016010962 -0.04622581 -0.12669113 -0.33931988
0002b0 de 85 55 3e 94 61 4d bd 24 4e 2a be a0 d3 83 3e
       0.20851848 -0.050141886 -0.16631371 0.25747395
0002c0 f0 cf 45 3c 3e 64 2c be b4 c6 69 3d f8 17 8b 3d
       0.012073502 -0.16835114 0.057074264 0.06791681
0002d0 98 a4 1a 3d 56 12 86 3c 07 e5 f6 3c 8d 4d 17 3e
       0.037754625 0.016366165 0.030138506 0.14775677
0002e0 01 15 53 3d bf c2 39 3e a8 91 8a be cc f8 25 be
       0.051533703 0.18140696 -0.27064252 -0.1620819
0002f0 0e 13 fd 3c ed c9 10 bd 88 fa d8 3d d2 f6 d9 3d
       0.030892875 -0.03534882 0.1059466 0.1064278
000300 de f2 30 3e 0a be 3c be b3 c0 d2 ba 98 bc 4a be
       0.17280146 -0.18431869 -0.0016079157 -0.19798505
000310 57 a8 02 3e 3f e5 c8 bd f4 22 77 3e 85 32 b3 3d
       0.12759529 -0.0980935 0.24134427 0.0874987
000320 1a 81 14 bd 44 c1 85 3e 9a 57 bb bd 02 9a 41 3e
       -0.036255933 0.26124012 -0.09147568 0.18906406
000330 6a 6e b8 bd 16 86 6c be 93 03 5b be 26 97 ed bd
       -0.09005435 -0.23098025 -0.21388082 -0.11601095
000340 57 fe 30 3e e6 a9 f1 3a 90 5c 03 3e 83 e6 d5 3b
       0.17284523 0.0018437475 0.12828279 0.0065277233
000350 dd a4 e7 3d 2b 86 a7 3d f8 ea ff 3d 46 f3 93 3c
       0.11310742 0.081798874 0.124959886 0.018060338
000360 ce 43 0b be d2 80 61 3e e9 b1 3d 3d 11 24 4b 3e
       -0.13600084 0.22021797 0.046312246 0.19837977
000370 ef ae d4 3a 9c 00 73 bd 4e 30 9d 3d 70 b5 19 bc
       0.0016226451 -0.059326753 0.07675229 -0.009381637
000380 30 39 87 be 6c 8f df bd 03 55 1c 3e 9c ef ac 3d
       -0.26410818 -0.109160274 0.15266804 0.08444139
000390 a6 d0 23 3d 76 34 c9 3d 58 77 d2 3d be 8e 43 bd
       0.039993905 0.09824459 0.10276669 -0.04774355
0003a0 4e 74 38 3c 6e 15 74 3d ee 7a 06 be ae e5 d1 bd
       0.011258198 0.05959075 -0.13132831 -0.10248886
0003b0 36 4f bd 3d eb 43 ec 3d ee 26 62 be dc 67 28 be
       0.09243624 0.11536392 -0.22085163 -0.16445869
0003c0 9e 92 86 3d 24 72 43 3e 6e c4 06 3e af fa 8c bd
       0.06570934 0.1908651 0.1316087 -0.068837516
0003d0 11 25 f1 3d 5e 80 fc 3d b8 1f 22 3e 15 23 cc 3d
       0.11774648 0.123291716 0.15832412 0.09967629
0003e0 ae 1c d3 3d 7d 1f 03 3d a7 47 ad bc 69 41 5f be
       0.103082046 0.03201245 -0.02115233 -0.21802296
0003f0 5c 63 d4 3d 38 7f 03 be 24 e2 8b bc 2a f3 64 3d
       0.10370514 -0.12841499 -0.017075606 0.05589596

conv1.bias f4 [6]
000000 13 05 c4 3d 0a 61 c0 bd b3 02 a6 3c c2 db 91 be
       0.0957128 -0.09393509 0.020264959 -0.28487974
000010 d1 21 08 3e 53 f1 95 3d
       0.1329415 0.073214196

conv2.weight f4 [16, 6, 5, 5]
000000 78 fb 0a bc e1 d1 35 3b 52 cd be bd 68 ff c7 3d
       -0.008482806 0.0027743506 -0.093165055 0.09765512
000010 e0 d2 59 3d 0b d5 18 be 7c ed c1 bd 7e 68 34 bd
       0.05317962 -0.1492502 -0.09469125 -0.044044964
000020 8d a3 b3 be 6d f5 b6 3d b2 ac 3c bc 8b 04 e2 3c
       -0.35085717 0.0893353 -0.011515783 0.027590057
000030 ee 98 94 3d a4 fb 46 be 9a 42 45 3a e3 44 6b 3c
       0.072557315 -0.19431931 0.0007524878 0.014359686
000040 61 19 23 3d c5 40 74 bd 7a 20 58 3d 12 13 93 3d
       0.039819125 -0.05963208 0.052765347 0.07181372
000050 2a 00 30 3c ce 5f 32 bd cd 82 96 3d 3e c5 c6 3a
       0.010742227 -0.043548398 0.07349167 0.0015164984
000060 38 13 92 3c ec 1a 73 3d e2 9f d3 3d be 9b ea bc
       0.01783143 0.059351847 0.103332296 -0.028638717
000070 54 39 b0 bc 01 18 84 3d b0 52 7d bd fb e8 30 be
       -0.021511711 0.06449891 -0.061846435 -0.17276375
000080 b0 37 29 be d2 42 5e be 06 a7 f2 bd b6 76 2d 3d
       -0.1652515 -0.21705177 -0.118482634 0.04234954
000090 30 3a 84 3d 3e ce 17 3e 34 94 de bd 22 6c 3f bd
       0.06456411 0.14824769 -0.10868111 -0.046733983
0000a0 4b 5f e2 3c 44 7e 9b bb ea 78 af bc 65 27 18 be
       0.02763333 -0.0047452766 -0.021419961 -0.14858778
0000b0 32 54 b7 bc aa ce 17 be 90 0c 05 bd 49 48 3d 3d
       -0.022379015 -0.1482493 -0.032482684 0.046211515
0000c0 8b aa 6c be be 1f df bd 7c 7b 2d 3e d0 23 69 be
       -0.23111932 -0.10894726 0.16941637 -0.22767568
0000d0 29 10 3a be 96 51 c5 bd b0 b8 2e bd 19 87 6c 3d
       -0.18170227 -0.09634702 -0.0426566 0.057746027
0000e0 3c be f6 bd 6f 52 0d 3d 12 ca 3f 3d 53 73 82 3c
       -0.12048003 0.034502443 0.04682357 0.015924131
0000f0 9e 5c 3d 3d c8 6f 9d bc cd 57 8a 3d 08 a9 86 be
       0.046230905 -0.01921834 0.06755028 -0.26300836
000100 76 83 17 3e 36 82 24 3e f3 09 a8 3c ce 6b 3d 3d
       0.14796242 0.16065297 0.020512557 0.04624539
000110 89 27 fa 3d 1a 7f 23 bd 14 7c ed 3d 82 7b 36 3b
       0.12214572 -0.039916135 0.11595932 0.0027844612
000120 73 f3 e6 bd c9 e9 03 bc 02 5c 01 be d2 8b b0 3d
       -0.11276903 -0.008051344 -0.12632754 0.086204186
000130 68 ac 45 be 77 4e b9 be 7a f4 ab 3d 90 9d 93 bd
       -0.19304049 -0.36192676 0.083962396 -0.07207787
000140 a6 ee 7e bc 14 04 bf bc 7c 2c be bd 2a 41 8b 3d
       -0.015559828 -0.023317374 -0.092858285 0.067995384
000150 48 40 28 be 84 0a be bd 4c d3 d5 bd f2 bf 77 3d
       -0.16430771 -0.092793494 -0.10440692 0.060485788
000160 2c da 4a 3d b6 1f 3d bd a8 03 8b bd 52 a4 42 bd
       0.04952447 -0.04617282 -0.06787807 -0.04751999
000170 f6 b7 b5 bd 8c 0a 94 3d 8a d4 ae bd 22 a7 5c 3e
       -0.088729784 0.07228574 -0.08536632 0.21548131
000180 f7 e8 e2 3d c4 1f 29 be 51 0f 8f bd b6 be 4f be
       0.11079591 -0.16516024 -0.06985343 -0.20287594
000190 0e 0b ed 3d a2 ab e5 bd e0 32 92 3d db e4 7b bd
       0.11574374 -0.11214377 0.0713861 -0.06149755
0001a0 2f d6 58 3d 14 fe cd bd bc da 46 3d 36 17 43 3b
       0.052938636 -0.10058227 0.048548445 0.0029768473
0001b0 00 e9 43 3e d5 c2 81 3b f8 29 04 3e 2f ac d7 3b
       0.19131851 0.0039599934 0.12906635 0.006581805
0001c0 3e e0 2b 3d 73 19 5f bd 82 ab 68 bd 87 65 a6 3e
       0.0419619 -0.05446763 -0.056804188 0.32499334
0001d0 6a 96 85 be 2a 22 7e be a3 83 31 3e 0c dc 88 3c
       -0.2609132 -0.2481772 0.17335372 0.016706489
0001e0 4e 00 c7 bd 48 d4 c4 3d b1 1a bb 3d fe d5 60 3c
       -0.09716855 0.09610802 0.0913595 0.013722895
0001f0 70 93 48 be fb 34 04 3e 34 75 06 3d 78 06 5f bc
       -0.19587493 0.12910835 0.032826617 -0.013612382
000200 95 bc 7b 3d 06 6e f7 bd 54 9f 97 3d 80 68 25 3a
       0.061459143 -0.12081532 0.07403436 0.0006309822
000210 4c 65 dc bd 42 02 2b bd 0a 32 36 bd 85 c5 df 3d
       -0.10761508 -0.0417502 -0.044481315 0.10926346
000220 e1 9b 20 3e f2 e8 40 be e6 25 c6 bc 9d 74 d5 bd
       0.15684463 -0.18838862 -0.024187993 -0.10422633
000230 ba 26 51 be aa 3b 61 3e 0c f1 d0 bd 59 ef 6f 3c
       -0.2042493 0.21995416 -0.10202226 0.014644467
000240 d1 cf 86 3d b8 4e 65 be 02 f9 d1 3d e6 f1 36 3d
       0.065826066 -0.2239331 0.102525726 0.044664286
000250 2a 78 f6 3c cc ac 93 3d 68 aa 00 3c 5c 98 47 3e
       0.030086596 0.07210693 0.007853128 0.19491714
000260 a8 26 a0 bd be 8d 15 be b9 03 e8 3b b4 3d 86 bd
       -0.07819873 -0.14604852 0.007080522 -0.06554738
000270 0a e4 b7 3c 9e 1c 49 3d a2 50 a5 3e b9 04 c8 3d
       0.022447605 0.049099557 0.3228808 0.09766526
000280 83 95 9e bd 74 20 4d 3e e2 29 41 be 79 04 5e bd
       -0.07743361 0.20031911 -0.18863633 -0.054203484
000290 7e bd 04 bd f2 db 94 3d 89 59 b9 bc 8e 9a 5b 3d
       -0.032407276 0.07268514 -0.022625702 0.05361419
0002a0 ef 7c 66 3d 95 7a 56 bd dc a7 20 be 16 20 0f be
       0.05627149 -0.052362997 -0.15689033 -0.13977084
0002b0 a9 41 ae bd ea 72 f5 3d d2 8b f1 3d 6a 83 06 be
       -0.085086174 0.11984809 0.11794247 -0.13136068
0002c0 e6 a1 cb bd 89 da 33 3c 22 0f 26 3e de df 99 bd
       -0.09942989 0.010977396 0.1621671 -0.075134024
0002d0 79 d1 e8 bd ee 01 20 3e d2 68 d8 3c f7 cb c7 bd
       -0.11368079 0.15625736 0.02641717 -0.097557
0002e0 fe 82 35 bb 30 b3 96 3d 4c 71 c9 3d 87 d1 4a 3d
       -0.0027696486 0.07358396 0.09836063 0.049516227
0002f0 d6 b4 04 3e 92 5c 93 3d 2a ef 87 3c 75 ee d5 3c
       0.12959608 0.07195391 0.016593534 0.026114682
000300 95 8a 64 be 7a 1f 3c 3e bc 4c 12 3e 08 0b 77 bd
       -0.2231849 0.18371382 0.14287084 -0.060313255
000310 74 fb f6 bd 93 20 08 be 74 84 a5 bd d2 8d 66 3e
       -0.120596796 -0.13293676 -0.08081904 0.22515038
000320 1c b8 62 3d 88 65 ea bb 96 0f 22 3c 23 c6 80 be
       0.05535136 -0.0071532167 0.009891411 -0.25151166
000330 1c 2f 15 be 26 75 cc bc 26 be 6d 3e 86 61 1e 3e
       -0.14568752 -0.024958204 0.23217067 0.1546689
000340 bc 89 73 3e e9 65 07 bd b6 be d8 3b fa b4 8e 3d
       0.2378301 -0.033056173 0.0066145314 0.06968112
000350 88 e1 dd 3c 38 2c 38 be 1e 99 2a 3e c2 0d a1 3d
       0.02708508 -0.17985618 0.16659972 0.07863952
000360 44 d9 a1 3d d0 5c 0c be a4 bf 0a 3e c2 be 68 3d
       0.07902768 -0.1370728 0.13549668 0.056822546
000370 e8 2b 19 3e ab 5a d4 bc 94 64 d5 3c a6 f4 73 bd
       0.14958155 -0.02592214 0.026048936 -0.059559487
000380 c3 74 16 be 3e cb fd 3c 37 47 a5 bc e4 49 8c 39
       -0.14692979 0.030980702 -0.02017556 0.00026757934
000390 ca fc 18 3e 72 32 23 3e e4 ad 56 3e d2 0a b9 3d
       0.14940181 0.15937212 0.20964772 0.09035267
0003a0 00 b0 6c 3d 0b f5 b6 3d 60 eb 80 3d 75 0d 89 bd
       0.057785034 0.08933457 0.06294894 -0.0669202
0003b0 29 53 8d 3d b5 79 bc bc 18 f3 bf bd 6c 0b df 3c
       0.06900627 -0.023007253 -0.09372538 0.027227126
0003c0 b0 3c 38 be fe 7e 98 3c e0 8b 99 3c 32 3c fd 3d
       -0.179919 0.018615242 0.018743455 0.12364997
0003d0 b2 81 09 bb 20 aa e2 bd c0 5e 11 be 34 1e 37 3e
       -0.0020981845 -0.11067605 -0.141963 0.17882615
0003e0 2c 32 d1 bd 2d 7a 09 bd d6 39 15 3d 1d f6 1e 3e
       -0.10214648 -0.03356378 0.03643211 0.15523572
0003f0 f7 d2 5d be ae c0 60 bd 74 50 34 ba 20 b9 2c 3d
       -0.21662508 -0.054871254 -0.00068784435 0.042168736

conv2.bias f4 [16]
000000 c2 8d 54 3d b6 62 82 3c ea 62 59 bd 78 8a 9a 3d
       0.051893003 0.01591621 -0.053072847 0.07545942
000010 9a 1b 35 be 42 39 da bd 1a 34 dc 3d ac f8 26 be
       -0.1768631 -0.10655452 0.10752125 -0.16305798
000020 ae 0f 34 bd d3 fb d5 bd 98 70 07 be 95 f9 6b 3d
       -0.043960266 -0.10448422 -0.13226545 0.057611067
000030 34 91 9b 3d a4 f6 58 be e5 bc 93 3b 3d 01 8a bd
       0.07596055 -0.21187836 0.004508602 -0.067385174

fc1.weight f4 [64, 400]
000000 b0 e8 d4 3d 79 e3 c2 3d 8e 90 97 bd 3c c4 54 3d
       0.10395944 0.09516043 -0.074006185 0.051944956
000010 ce 44 e0 bd 2e 23 7f bd 36 d0 2e 3d 66 e9 cc bd
       -0.109506235 -0.06228941 0.042679034 -0.10005455
000020 20 c0 cc bd bd a0 01 3e 16 89 37 3d a6 6d ad 3d
       -0.099975824 0.12658973 0.04480847 0.084681794
000030 92 fa 12 be 2d b2 6f 3d 9e 74 10 3c 2a 7f a1 bd
       -0.14353397 0.05851953 0.008816866 -0.07885583
000040 d4 e9 7b bb 76 77 a4 be 8e ca f3 3c 10 52 69 3c
       -0.0038438933 -0.3212239 0.029759672 0.014240757
000050 d4 66 80 bb 26 73 60 3e 88 c7 ce ba 17 a9 35 bd
       -0.003918508 0.21918926 -0.0015776018 -0.04435071
000060 0d d7 14 3e b3 9a 70 be c4 f9 20 3d bb 26 14 be
       0.1453516 -0.23496513 0.039300695 -0.144679
000070 87 8d 39 3e 06 af 6f 3d 53 a2 53 bd 9e e0 36 bd
       0.18120395 0.058516525 -0.051668476 -0.044647805
000080 bb 23 b6 bd a4 f2 e7 bc af c6 85 3b 48 66 86 3d
       -0.08893534 -0.028313942 0.004082523 0.06562477
000090 9d c5 58 3d 02 50 99 bc 44 9b d1 3d 8e be 8f 3a
       0.052922834 -0.018714909 0.10234693 0.0010966824
0000a0 74 ec ed 3b c0 7b 76 3d c5 de 00 3e 08 fe b0 3c
       0.0072608534 0.06017661 0.1258498 0.021605507
0000b0 34 c5 72 3d d4 04 4e be ee fa a1 3b 60 97 b2 bd
       0.0592701 -0.2011903 0.004943243 -0.08720279
0000c0 22 a3 a4 3d 5a 91 51 3d ee 96 16 3e 54 ae c1 3d
       0.080389276 0.05116401 0.14706013 0.094570786
0000d0 72 86 0c 3e 62 4c 72 be 82 b8 b1 3d f4 9d f5 3d
       0.13723162 -0.2366195 0.0867777 0.11993018
0000e0 4f 49 80 bb 47 3e 3a bd 60 74 85 3d 94 41 94 3e
       -0.003914989 -0.04546955 0.065163374 0.28956282
0000f0 0d 90 db bd 26 47 c7 bc 4c a2 a8 bd 96 49 df bc
       -0.10720835 -0.024325918 -0.08234081 -0.027256768
000100 f8 ec f5 ba ad 91 eb bd 81 a5 81 3c 8e 8f a5 bd
       -0.0018762639 -0.11502395 0.015825989 -0.080840215
000110 d0 24 25 3d a0 89 2a be 25 98 9a bd 1a 3d 6a bd
       0.04031831 -0.16654062 -0.075485505 -0.057187177
000120 5e 3f ff bd e5 0b 02 3e f0 d9 4e bd 36 b9 98 bd
       -0.12463258 0.1269985 -0.05050081 -0.07457201
000130 1b 98 85 bd ca 5c b9 bd 44 da ad bd be 56 8d 3e
       -0.065231524 -0.09050901 -0.084888965 0.27605242
000140 76 9b c3 3d 98 fe 3c 3d 4c 70 c9 bc 61 d4 b7 bd
       0.09551136 0.046141237 -0.02458968 -0.08976055
000150 d3 51 f1 bd 86 23 6f bd b8 86 e6 bc c6 33 4d bd
       -0.11783185 -0.058383487 -0.02814041 -0.050098203
000160 70 12 7c 3c 4d 1c d7 bd cc 2b 70 be 85 89 1c 3e
       0.015385255 -0.10503445 -0.23454207 0.15286835
000170 eb ac 2e be da 79 7d be e2 f3 79 3d 2a 8d 88 3d
       -0.1705815 -0.24753514 0.0610236 0.0666755
000180 58 ff bd 3d df 41 28 3c 1c 94 4d 3e 5a 41 99 bd
       0.092772186 0.010269611 0.2007603 -0.07483168
000190 dc 94 a1 3d 2a c7 03 3e 6e 92 11 3e 1f 8b 21 3b
       0.07889721 0.12868944 0.14216015 0.0024649573
0001a0 0d 1e 4e 3e c6 a3 50 3d f6 8e 9b bd fe 82 22 3c
       0.20128651 0.050937437 -0.07595627 0.009918926
0001b0 14 af 11 3e 02 46 9d 3c 7c 25 e5 3d 72 04 7c 3c
       0.14226943 0.019198421 0.1118879 0.015381919
0001c0 3a ae 7d bc bd 70 20 3e 61 66 f8 bd 58 b4 9a 3d
       -0.015483433 0.15668006 -0.12128902 0.07553929
0001d0 18 7a 25 bd 88 73 f6 bd 49 90 d1 bc 37 22 85 3d
       -0.04039964 -0.120337546 -0.025581496 0.065006666
0001e0 19 91 ce bd 68 b3 1a be 7c 66 1b 3d f2 cd b1 bb
       -0.10086269 -0.151075 0.037939534 -0.005426162
0001f0 7a a6 b1 3c 0f a8 85 3d 9c f0 1b bc 42 7a 62 3d
       0.021685828 0.06526195 -0.009517815 0.055292375
000200 70 81 5e 3d b7 02 ea 3d a8 b4 b9 bd 7c 5a 64 be
       0.05432266 0.11426299 -0.090676606 -0.22300142
000210 88 c2 a4 3a b6 c8 1c 3e 65 56 1d bd b0 dd 60 3b
       0.0012570182 0.1531094 -0.03841247 0.0034311824
000220 e6 bf c6 3d ae 5f 17 bd 25 86 92 3d f4 89 4f bb
       0.097045705 -0.03695648 0.07154492 -0.003166792
000230 97 7e 02 3d a4 d2 f0 bd d8 f6 c7 3d 0a 65 08 3e
       0.031859007 -0.117589265 0.097638786 0.13319793
000240 16 74 f9 3d 52 27 b3 bd 93 7a 11 3e ae d8 a8 3d
       0.12180345 -0.08747734 0.14206915 0.08244453
000250 9c b7 6b 3d 00 c2 85 3d 62 7d a3 bd bb 3d ba 3d
       0.05754815 0.06531143 -0.07982899 0.090938054
000260 7c a2 c1 3c 06 ba a0 3d 5a 5f 88 3c 5e 7a 16 bd
       0.023637049 0.07847981 0.01664703 -0.036737792
000270 09 58 b4 bd d4 da 89 bc 38 3e 16 3e 25 84 c7 3d
       -0.08805854 -0.016827978 0.14672172 0.097420014
000280 d4 d5 b0 bc b2 11 f1 3c 4e d6 eb 3d 1e 44 4f be
       -0.021586336 0.029427383 0.11515485 -0.20240828
000290 11 11 02 bd 43 34 44 3e dc 40 eb 3c 94 0a c8 bd
       -0.031754557 0.19160561 0.02871745 -0.097676426
0002a0 46 95 4a bb 38 82 95 be d8 fb 9d bd 0c 5e 4b bd
       -0.0030911728 -0.29200912 -0.07714051 -0.049650237
0002b0 ac 1a 9f be 50 5e 99 bc 61 94 df 3d d3 4f e5 3d
       -0.31075037 -0.01872173 0.10916973 0.11196866
0002c0 f4 6a 40 3e 64 d4 21 3e b1 f7 9a 3e 3e 86 9d 3d
       0.187908 0.15803677 0.302671 0.0769162
0002d0 8a 57 cb 3d 63 10 94 bc f0 cf dd 3b f8 c0 b0 bd
       0.09928806 -0.01807422 0.006769173 -0.08630556
0002e0 7c ef b3 bd 74 4f ea bd 22 37 bc 3d e2 44 0a 3e
       -0.087859124 -0.11440936 0.09190203 0.13502839
0002f0 4c 0a 54 bb 1c a7 9e 3d 9e ca d4 3d 6c b7 38 3d
       -0.003235477 0.07746717 0.10390209 0.0450968
000300 b6 08 1a 3e 41 3a 8e bd 96 c6 ea 3d 66 e0 1c bd
       0.15042385 -0.06944705 0.114636585 -0.03829994
000310 b2 da 68 3d e6 9b b1 bc 3c 55 c2 3d b8 bd 97 bd
       0.05684919 -0.021680783 0.094889134 -0.07409233
000320 e6 06 1e 3d 07 4f 4c 3c b8 bf 8c 3c d3 e3 da 3c
       0.038580798 0.012470013 0.017181262 0.026719963
000330 1f 96 06 be 00 7f 38 3e b6 83 71 3d d9 9e 16 3e
       -0.13143204 0.18017197 0.0589635 0.14709033
000340 c0 41 c4 bc 54 d0 15 bc 3a 68 5e bc 03 d2 ff bd
       -0.023957133 -0.009143908 -0.013574654 -0.124912284
000350 7e e0 1c be a3 a1 15 be 8a be 8a bd 2c ca de 3d
       -0.15320012 -0.14612441 -0.06774624 0.10878405
000360 d6 2a 82 bd 56 0d 7e 3d 0a 99 2d be 84 09 34 3e
       -0.063558266 0.062024437 -0.16952911 0.17581755
000370 70 7f 8b 3b b2 35 ef bc 49 6f e6 3d 25 6e 13 3e
       0.004257135 -0.029200409 0.11251695 0.14397486
000380 dc d6 ae 3d f6 d5 05 bc 05 95 27 3e 07 3d 2c 3e
       0.08537075 -0.008168688 0.1636544 0.16820155
000390 f2 54 7a bd 8a 9b ab 3d 80 66 0f 3e b0 3e 82 bd
       -0.061116166 0.08379276 0.14003944 -0.06359613
0003a0 fc de 2c bd a2 0b cc bd 8e c3 b9 3b d8 ec 2b be
       -0.042204842 -0.09963156 0.005669064 -0.16789567
0003b0 23 f8 fe bd db 15 1f 3c 78 82 03 3c 54 cf fe 3d
       -0.12449672 0.009709801 0.008026712 0.124418885
0003c0 0a 05 aa bd b4 09 9c 3d 84 d7 57 3d cd 14 e4 3d
       -0.083017424 0.07619038 0.052695766 0.1113678
0003d0 08 62 39 bd cb 28 98 3d 6a 05 cc 3c 0f 9c b0 3c
       -0.045259506 0.07429656 0.024904925 0.02155879
0003e0 74 ce 46 bc ae e5 26 3e 34 e2 9e 3d bc 69 fe 3d
       -0.012134183 0.16298553 0.077579886 0.12422511
0003f0 67 aa da bd 1c 2b 8d bd 97 59 01 3e 7e 11 7d 3d
       -0.10677033 -0.06892988 0.12631832 0.06178426

fc1.bias f4 [64]
000000 96 69 f7 3d d4 22 18 be 88 0a a4 bd a0 5a 99 bc
       0.12080686 -0.14857036 -0.08009821 -0.018719971
000010 52 cd 26 bc b2 59 38 3e 11 f2 87 bd d9 8b 9b 3d
       -0.010180788 0.18002966 -0.066379674 0.07595033
000020 a0 d0 dc 3d af ec 21 be 76 f7 1f bd ec 76 6c 3e
       0.107819796 -0.15812944 -0.039054357 0.2309224
000030 f2 37 5d 3e b2 6d 0c 3e fb 14 b5 bc de 63 52 3c
       0.21603373 0.1371372 -0.02210473 0.012841193
000040 07 53 1c bd f4 28 ad bd 94 18 7a 3e ec 1b 02 bd
       -0.03816512 -0.08455077 0.24423438 -0.03176491
000050 17 24 01 3e 11 c5 04 3d 50 3a 8b 3c 4d 2f d6 bd
       0.12611423 0.0324145 0.016995579 -0.10458241
000060 5c d8 18 3d fa 20 1a 3e 0d 19 02 be 41 5a b9 bd
       0.03731571 0.15051642 -0.12704869 -0.09050418
000070 70 4c 0b 3c 73 59 df bd a9 80 91 bd 29 5f 0b 3d
       0.008502111 -0.10905733 -0.07104618 0.0340263
000080 ef f1 47 bd 34 e9 84 3d 2c 97 fc bd 3b 0c 19 3c
       -0.04881471 0.064897925 -0.12333521 0.009341295
000090 58 f2 0b 3d 58 55 a2 bc a4 24 81 ba 9a 3d 89 3c
       0.034166664 -0.019816086 -0.0009852839 0.016753007
0000a0 39 e3 dd bd b3 d3 46 be bf 3e c4 3c d0 1b f4 bc
       -0.10834355 -0.19416694 0.0239557 -0.029798418
0000b0 06 65 10 3e ce de 00 bd 22 6c 6d bd bf b6 01 3c
       0.14101037 -0.031462483 -0.05796445 0.007917105
0000c0 f5 71 83 3d 42 25 77 3d a4 2e da bd 68 67 03 bd
       0.0641822 0.060338266 -0.10653427 -0.032081038
0000d0 bd 0f 9f 3d 2b c5 13 3c 9c 10 6f 3e 80 7f 3e be
       0.07766674 0.0090191765 0.2334618 -0.18603325
0000e0 4a be 31 3d 36 6d c2 3b 8c f7 f3 bd db cf fe 3c
       0.043394364 0.005933429 -0.1191245 0.031104973
0000f0 2e a5 18 be b9 41 e9 3d f3 88 29 3d 8c 29 36 3b
       -0.14906761 0.11389489 0.04139037 0.002779576

fc2.weight f4 [32, 64]
000000 31 99 7d bd 56 8a 63 bd 92 98 08 be 76 7a 70 3e
       -0.061913673 -0.05555185 -0.13339451 0.23484215
000010 2c 72 61 bd ca 87 8b 3d ea 3a 21 3e 94 0a d6 bd
       -0.055040523 0.06813009 0.1574513 -0.10451236
000020 6a ce d5 3d 0e 20 59 bd 14 ae d7 bc 2e 49 83 3c
       0.10439761 -0.053009085 -0.026328124 0.016026106
000030 5a 0e d6 bd fa 91 8b bd 18 8f c0 3d 6a 3b 47 3c
       -0.10451956 -0.06814952 0.09402293 0.0121601615
000040 f5 4b 45 3e 34 26 72 bb 76 f0 de 3b 04 ff 6a 3d
       0.19267257 -0.003694904 0.0068035675 0.057372108
000050 da ec 93 bd 03 9e 34 3e 3c c6 b0 bd 9c 33 1d be
       -0.0722291 0.17638402 -0.0863156 -0.15351719
000060 83 76 dd 3c 26 d7 ef 3d e6 f0 01 be 89 9f 55 bd
       0.02703405 0.11710958 -0.12689552 -0.052154098
000070 64 db 9a bd 18 6c 44 3d 96 1a 11 3d 21 fe 6e be
       -0.07561377 0.04795465 0.035425745 -0.2333913
000080 bc bf 6a bd da 49 f6 bd 00 48 54 3e 94 8b 4e 3e
       -0.05731176 -0.12025805 0.20730591 0.20170432
000090 56 35 8d be 60 87 0a 3e 5e e9 45 3d 58 f7 1e 3e
       -0.27579755 0.13528204 0.04831826 0.15524042
0000a0 c4 79 e7 bd e9 ba a8 bd e4 be 30 bd 0e 25 4a be
       -0.11302522 -0.08238775 -0.043150797 -0.19740698
0000b0 fb a7 67 3e 78 b6 03 be 72 69 7d 3d 5a 92 2f bd
       0.22622673 -0.12862575 0.06186814 -0.04286418
0000c0 bc bd 0b be 61 7a 32 3e f8 66 0f bd 58 56 42 bd
       -0.13646597 0.17429496 -0.035010308 -0.047445625
0000d0 a4 38 91 3e 44 a1 09 bd 95 2e 37 3e c1 50 b1 bd
       0.28363526 -0.03360106 0.17888863 -0.08657981
0000e0 7c c0 74 bd 1e 6f 3c be 2c 60 10 3e ae 87 73 3d
       -0.05975388 -0.18401763 0.14099187 0.059455566
0000f0 f8 35 df 3c fe 19 de 3d 34 2f bc bb 34 b6 e1 3d
       0.027247414 0.10844801 -0.0057429317 0.110210806
000100 0a 95 d5 bd 62 a5 6d 3d d7 54 57 bd dd a2 02 be
       -0.104288176 0.05801905 -0.052571144 -0.1275744
000110 41 96 af bd 80 5b 4d bd a3 25 0d 3e 72 fc e8 bb
       -0.085735805 -0.05013609 0.13783889 -0.007110172
000120 9a 0b 9a 3b 1e 33 20 bc 4e 84 29 3e 9f 67 c8 bc
       0.00470109 -0.009777812 0.16554376 -0.024463473
000130 12 be 51 3e 27 ae 2a be 90 d2 fd bc 37 e8 57 3d
       0.20482662 -0.16667996 -0.030984193 0.05271169
000140 52 76 cf bd d4 59 81 3d a4 6d 87 be 06 87 18 3e
       -0.1012999 0.063159615 -0.26450837 0.14895257
000150 0e bb 18 3e b1 84 08 be 24 70 da bb bc 0b 17 3d
       0.14915106 -0.13331868 -0.0066662002 0.036876425
000160 48 1f 00 3e 46 4a 70 be 4b 8a ea bd 49 90 33 3d
       0.12511933 -0.23465833 -0.114521585 0.043838773
000170 b1 1a 93 3d fd 5a c4 3e b5 76 a0 bb 6a fc c8 3b
       0.07182825 0.3835067 -0.0048969635 0.0061336057
000180 2e 6b 9b bd 0e f4 37 3e 47 a0 a9 bd 16 0e 6c 3d
       -0.07588802 0.17964193 -0.082825236 0.05763062
000190 dd b1 05 3d b8 17 b8 3c 00 06 11 bd 84 05 a1 3d
       0.032640327 0.022472247 -0.035406113 0.0786238
0001a0 90 4b 44 bd 98 29 9e be ef 04 34 3e 35 ff bf 3d
       -0.047923625 -0.3089111 0.17580007 0.09374849
0001b0 48 ae 2c 3c d6 4d 2e be ca 2a aa bd 2e 00 fa 3d
       0.010539599 -0.1702188 -0.083089426 0.122070655
0001c0 b8 7a 8f bd 21 dd 60 be 5e 26 aa 3c f2 fd 02 be
       -0.070058286 -0.21959354 0.020770248 -0.12792185
0001d0 3e aa 11 3e 74 e6 db 3d ce 1b b8 bd 48 15 f9 3c
       0.14225098 0.10737315 -0.08989678 0.030405656
0001e0 53 78 80 bd bc 9c d8 bd 2c 4c 62 3d d0 9d 2d 3e
       -0.0627295 -0.1057677 0.055248424 0.16954732
0001f0 60 16 ba bd 92 bc 07 3c dc 0c 2c 3d 99 42 7c 3e
       -0.09086299 0.008284705 0.04200445 0.2463478
000200 08 1e 5c 3d 2a 25 2c 3e fe d0 98 3d 40 c0 ed bd
       0.053739578 0.16811052 0.07461737 -0.116089344
000210 d5 38 3f 3e 34 eb 5f bd 26 e6 f9 bc a1 43 7a 3c
       0.18674023 -0.054667667 -0.030505251 0.015274913
000220 3f 4d ed bb e8 de e3 3d 2d d1 ee 3d 30 0a 62 be
       -0.0072418745 0.111265 0.11660991 -0.22074199
000230 4c 9f 26 3e 3d 0c be 3c 6a b1 1b be dc b9 a7 bd
       0.16271704 0.023199195 -0.15204397 -0.08189747
000240 f2 6c 2e 3e ba 02 5d bd 2e 16 a3 bc d8 2f 80 bd
       0.17033747 -0.05395768 -0.019908037 -0.062591255
000250 6b 26 71 bd 14 e4 06 be f1 70 59 be 83 56 29 3e
       -0.05887453 -0.13172942 -0.2123449 0.16536908
000260 81 a6 be bd 42 bb 6f bd 17 6e a4 bd ec 86 7c 3d
       -0.09309102 -0.058528192 -0.080288105 0.06165211
000270 5e 2a 83 be 6f 4d be bc d4 b8 e2 3d e3 c8 7b 3e
       -0.2561826 -0.023230283 0.110704094 0.24588351
000280 3d 8d 0b 3e 4a 46 84 bd a0 ac e3 bd 0c 5e 1a be
       0.13628097 -0.06458719 -0.1111691 -0.15074939
000290 39 d4 96 be 8e c1 df 3d 75 a2 2e 3d c7 62 e9 bb
       -0.29458788 0.109255895 0.0426354 -0.007122371
0002a0 ea f2 a0 bd 27 7e b4 bd b6 da a6 3c 65 c0 13 bd
       -0.07858832 -0.08813124 0.020367961 -0.036072154
0002b0 c8 a0 36 3e 30 69 b9 3d e3 2b 80 3d aa 16 5d be
       0.1783477 0.09053266 0.06258371 -0.21590677
0002c0 4a 61 5a be 56 1e 5e 3d a4 ec ad 3d d0 b1 fc bd
       -0.21326175 0.05422815 0.08492401 -0.123386025
0002d0 ff 8a 9b 3e ea 69 94 3d a4 4e af 3d 59 72 8d 3d
       0.30379483 0.07246764 0.085599214 0.06906576
0002e0 0a 10 1d 3d 69 ba 79 be f1 e8 89 bc 16 59 6a 3e
       0.038345374 -0.24387516 -0.016834708 0.22885546
0002f0 42 5e 16 bd 7a d3 21 3d 8c fb 87 bc 40 38 d4 3d
       -0.036710985 0.03950832 -0.01659944 0.10362291
000300 24 6c 43 bd 00 16 9e 3d 13 9d 2e 3e 67 2c 8c 3d
       -0.047710553 0.0771904 0.17052107 0.068444066
000310 e2 a8 45 be 43 c1 87 3e cc 19 d5 3b b6 8b 00 3e
       -0.19302705 0.26514634 0.0065033194 0.12553295
000320 c8 b2 33 3d 43 5d 0b 3d 61 ac d7 bc 80 fe 4b bd
       0.04387167 0.03402449 -0.026327314 -0.049803257
000330 ae 10 5b be 51 5a 26 bd d8 ec e4 3d 46 94 5a 3d
       -0.21393082 -0.040613476 0.11177987 0.05336406
000340 ce 6c 59 3e 8a 9f 3e 3d ec 11 f6 bd 4f 6e 88 3d
       0.21232912 0.046538867 -0.12015137 0.06661665
000350 54 58 68 be 6b 8e 6f be 38 05 15 3d c0 ef 00 3e
       -0.22689945 -0.23394172 0.03638193 0.12591457
000360 02 ef 6c bd fa 72 9e bc 22 fd 20 bc 0b a6 01 3d
       -0.057845123 -0.019341934 -0.009825977 0.03165249
000370 a6 f5 cc bd f8 30 14 3e 7b e7 c7 bc 24 c4 c7 bd
       -0.10007791 0.14471805 -0.02440237 -0.09754208
000380 15 46 82 bd 84 59 ed bd a4 3b 88 3e a8 37 8b 3d
       -0.06361023 -0.115893394 0.26608002 0.06797725
000390 22 0e 04 3e 2e 87 41 3e 8e 61 2f bd 2c 07 52 3d
       0.12896016 0.18899223 -0.042817645 0.05127637
0003a0 ac 24 4d bd ba 65 fb 3d 6f 98 6d 3d ab af 0f 3e
       -0.0500838 0.12275262 0.0580067 0.14031856
0003b0 a1 0b 0f be 5f f5 76 bc 92 8d 19 3e ae 22 0a 3e
       -0.1396928 -0.015073149 0.14995411 0.13489792
0003c0 2e c3 a0 bd 31 52 8f bd c2 eb 9e 3d 5e cb 05 3e
       -0.078497276 -0.06998099 0.07759811 0.1306586
0003d0 3f 80 05 3c 13 00 f2 3d 78 7f 54 be 9c 93 28 3e
       0.008148252 0.118164204 -0.2075175 0.16462559
0003e0 5d 76 6e be 50 d6 02 3e 82 d1 ca bd 9a 89 bb 3c
       -0.2328734 0.12777066 -0.09903242 0.022892762
0003f0 97 9e 21 3e a7 72 28 be f5 d3 da 3c ac 3a e9 bd
       0.15783153 -0.16449986 0.026712397 -0.11388144

fc2.bias f4 [32]
000000 d6 85 ab bc 16 7f 72 bd 9e a2 40 be 22 50 1c 3d
       -0.020937841 -0.05920323 -0.18812034 0.038162358
000010 f2 f6 d1 3d 55 c0 c7 bc 8c 24 ed bd 9a 1c 9c 3d
       0.10252179 -0.024383703 -0.115792364 0.07622643
000020 8e 29 4a bd c6 ac cf 3d 34 f6 59 3d 72 60 02 bd
       -0.049356036 0.10140376 0.053213313 -0.03183026
000030 d2 56 d5 3c 29 7c 01 3c d0 4b 57 3e c4 15 66 be
       0.026042376 0.007903137 0.21025014 -0.2246924
000040 c2 32 5e bd 10 3a 98 3d 04 3d 1e 3c fa 85 1c bb
       -0.054247625 0.074329495 0.009658102 -0.0023883567
000050 e1 33 5c 3d 81 13 09 3e 0d 4c 0f be 0e 6a 4e be
       0.053760413 0.13386346 -0.13993855 -0.20157644
000060 b1 80 31 3d d1 72 43 be f0 77 55 be 49 b0 2b be
       0.04333562 -0.19086768 -0.20846534 -0.16766466
000070 26 64 f1 bd 42 e3 95 3d 98 c1 d8 bd 4a 4f 27 bd
       -0.1178668 0.073187366 -0.105838 -0.0408471

fc3.weight f4 [10, 32]
000000 f9 05 07 3e 78 4c 13 3e e0 91 b2 3c 42 fc ab 3d
       0.13185872 0.1438464 0.021798074 0.08397724
000010 e4 aa 03 be ae 9e 47 3d 0d 09 a4 3d 0a 4b 85 3a
       -0.12858158 0.048735313 0.08009539 0.0010169458
000020 2e e6 5e 3e e0 4b 58 bd c6 29 3a bd db 8c 96 3d
       0.21767494 -0.052806735 -0.045449995 0.07351085
000030 a0 92 65 3e d2 91 de bc 30 32 1a be 4c 1c ed bc
       0.22419214 -0.027169142 -0.15058208 -0.028944157
000040 2a 5f 54 be 5e 9c 36 be 95 cf 6b be c8 b1 01 be
       -0.20739427 -0.17833087 -0.23028405 -0.12665474
000050 7a f3 35 be a0 c7 04 be 1d 1a 74 3d 73 37 8e be
       -0.1776866 -0.12966776 0.059595216 -0.2777668
000060 95 a5 3e be 17 6f 22 be 98 ea e8 3d c8 b4 e5 3c
       -0.18617852 -0.1586269 0.1137287 0.028040305
000070 f3 b1 ba bc a2 d4 03 be 4f 76 c0 bd e2 dd 83 3d
       -0.02278993 -0.12874082 -0.093975656 0.06438805
000080 c5 08 37 3e 4c 3f 01 be cf 70 93 be b2 43 07 3e
       0.17874439 -0.12621802 -0.28797004 0.13209417
000090 e8 b8 80 bc cd 7b 15 bd b6 35 e3 bd 09 b9 85 3d
       -0.01571317 -0.03649502 -0.11094229 0.06529433
0000a0 be a0 7b 3d 5d 4f 4e be b7 6c 97 bd 3c fe 36 3e
       0.061432593 -0.20147462 -0.073937826 0.1787042
0000b0 78 1c 5c 3c eb 26 08 be 95 56 e8 bd 06 8f cc bd
       0.013434522 -0.13296096 -0.11344639 -0.09988217
0000c0 62 5b 8c 3c 3a 2a 21 be 8e 6a bb bd c7 9a 09 3d
       0.017133418 -0.15738764 -0.09151183 0.033594873
0000d0 2e 2c 96 3d 04 1c ee 3d 43 f4 a0 3d d6 ef aa 3d
       0.07332645 0.11626437 0.07859089 0.08346526
0000e0 52 cb 47 be d4 b1 57 3d 6a cb e6 bd 04 4a 38 3e
       -0.19511154 0.052659824 -0.11269267 0.17996985
0000f0 90 dd 89 3d 1e a4 a4 bd 8f 91 8b be 77 5b 99 3e
       0.06731713 -0.08039115 -0.2725949 0.29952595
000100 8b f4 0a be 60 86 fc 3d f7 46 1c 3e 9c 81 07 be
       -0.13569848 0.123303175 0.15261446 -0.13233036
000110 96 4a 84 3d 40 56 b7 bd 99 0d c5 bd 37 f4 e2 3c
       0.06459539 -0.08951998 -0.09621734 0.027704341
000120 ea 51 4b 3d 72 37 45 bd 1e 30 ce 3d 00 c2 6c be
       0.049638666 -0.04814858 0.100677714 -0.2312088
000130 b0 0b d9 3d 0a 63 d3 3d 25 4c fa 3d 80 36 94 be
       0.10597932 0.103216246 0.12221555 -0.2894783
000140 1f 0c 10 3d 9a 0a ec 3d e0 92 c0 bd fa d7 91 3e
       0.03516781 0.115254596 -0.09403014 0.2848509
000150 4c cb 94 3d 9e b0 08 be 73 ea cf bc 95 8e 47 3d
       0.07265338 -0.13348624 -0.025380349 0.04871996
000160 0e ca 78 3c a0 29 3c be 1c aa 56 bc 26 23 a5 bd
       0.015184892 -0.18375254 -0.013102081 -0.08063345
000170 14 61 99 be 27 3e dc bd ca 2a 95 bd 6e d5 a8 3e
       -0.29956877 -0.10754042 -0.07283552 0.32975334
000180 5e 7e 88 bd a2 64 43 3c 95 35 3d bd 1a 64 11 3e
       -0.06664728 0.011925848 -0.046193678 0.14198342
000190 5e 37 6f 3c fb 7f 9d bd 58 c0 27 be f0 55 72 39
       0.014600603 -0.07690426 -0.16381967 0.00023110933
0001a0 58 78 3b 3e 73 39 06 3e 46 d9 df bc 7c e7 0b be
       0.18307626 0.13107853 -0.027325284 -0.13662523
0001b0 58 c3 38 3e 0c b7 0a 3d 62 0a ef 3d c8 a4 9c be
       0.18043268 0.033865973 0.11671902 -0.30594468
0001c0 92 15 d6 3d 17 fa bf bc ed c0 09 be b2 9b 8d 3d
       0.10453333 -0.023434682 -0.13452502 0.06914462
0001d0 a4 09 25 3e 49 04 c9 3d e0 bd ea bd af 84 83 3c
       0.16116959 0.098152705 -0.11461997 0.01605448
0001e0 5a 94 97 3d 0a fd 8c 3d 40 5a cb bd 88 ca 7a 3d
       0.07401343 0.06884201 -0.09929323 0.061228305
0001f0 56 84 cf bd de ab 4d 3e 3e 6b 10 3d 3b da 16 bd
       -0.10132663 0.20085093 0.035258524 -0.036829215
000200 3c f7 40 bd 0a c0 fa bd 05 ff d1 3d 34 8f 31 be
       -0.04711078 -0.1224366 0.10253719 -0.17339784
000210 61 91 d1 3d 45 59 8d be c1 a2 9b 3d 96 15 1c 3e
       0.10232807 -0.2760717 0.07599402 0.1524261
000220 63 a9 5b 3e b6 a2 ed bc aa 5b 99 bb 82 b0 61 be
       0.21451335 -0.02900825 -0.0046801167 -0.22039989
000230 bc 6c 20 be 62 4a 8e 3c 63 a6 f5 ba 76 4e f3 3c
       -0.15666479 0.017369453 -0.0018741604 0.029700499
000240 6a 5e 8e bd 9c 0e fe bd 96 1e f4 3d ad d9 a9 3d
       -0.06951602 -0.1240513 0.11919896 0.082934715
000250 f6 92 e9 bd 2f 6d 11 3d 33 a7 31 3e 26 96 90 3e
       -0.11404984 0.035504516 0.17348938 0.28239554
000260 44 fb 6e be 73 d4 f5 3d 64 77 10 bd f6 ad 80 be
       -0.23338038 0.12003412 -0.03527011 -0.25132722
000270 1a 19 88 bd 64 d2 f6 bc 6c ac 03 be a0 1a ed 3d
       -0.06645413 -0.030129619 -0.12858742 0.11577344
000280 55 1a 02 3e 44 6e 69 3d de 6c 5c bd 64 d0 6e be
       0.12705357 0.056989923 -0.05381476 -0.23321682
000290 5c 1b 60 be 0c cb 25 3e b4 f6 ed bd 70 90 49 be
       -0.21885437 0.16190737 -0.116193205 -0.19684005
0002a0 ae 3c 8a 3e 50 a9 52 be 10 cd d0 b8 60 01 6e 3a
       0.2699942 -0.205724 -9.956409e-05 0.00090791844
0002b0 88 79 4f 3d 22 c3 bb 3d 56 02 1a 3d 92 5c 32 be
       0.05065301 0.09168078 0.037599884 -0.17418125
0002c0 25 cf 93 3d dc 2d 0b 3e 3e 0b ca 3d a7 3d 34 3e
       0.07217244 0.13591713 0.098654255 0.17601644
0002d0 ba 85 41 bc 5c 15 c9 bd cc 4b 20 bd bf 8e f6 3c
       -0.011811668 -0.09818527 -0.039134786 0.030097364
0002e0 58 c9 36 3e 31 70 af bd a1 c4 88 3b 8e 68 ea bd
       0.17850244 -0.08566321 0.0041738306 -0.114457235
0002f0 c8 53 e3 bd 79 f1 7a be 2a 95 57 3e 3f 21 bc be
       -0.110999644 -0.24506177 0.21052995 -0.36744115
000300 cb 3f ae 3c 0e 85 84 3c b2 e0 4c be 20 98 30 3e
       0.021270653 0.016176727 -0.2000759 0.17245531
000310 5c 33 94 3e e1 23 0f 3d 5c 67 12 3c d2 4d 40 bd
       0.28945434 0.034946326 0.008935776 -0.046949215
000320 9a 67 20 be be ed fa 3d 2c 4c 1e be 10 1c 4c 3e
       -0.15664521 0.12252377 -0.15458745 0.1993258
000330 4c b7 9c 3e e6 2c 33 3d 28 88 9b bc 62 2a 96 bd
       0.30608594 0.04374399 -0.018985823 -0.07332303
000340 24 3f 2e be da c3 7b 3d d3 bf f3 bd 84 37 59 3e
       -0.17016274 0.061466075 -0.11901822 0.21212584
000350 12 22 4e be 50 fe 14 be 72 4e 47 bd ac 82 0f bd
       -0.20130184 -0.14550138 -0.048658796 -0.035036728
000360 9c ac 70 bd e9 a6 89 be b5 6c 1d 3d e0 19 1a be
       -0.058758363 -0.26885155 0.03843375 -0.15048933
000370 64 3e 92 be df 71 85 3b a8 e6 28 be 89 64 1a be
       -0.28563225 0.0040724124 -0.16494238 -0.15077414
000380 45 cb 21 3e 9d 09 1d 3e 02 41 2e 3e 24 28 11 be
       0.15800197 0.15335698 0.17016986 -0.14175469
000390 4e bf 46 3e 43 b4 4e 3d b4 89 b4 bd b7 01 b7 bd
       0.19408914 0.05046488 -0.08815327 -0.08935874
0003a0 9c f5 17 3e e6 66 8d be 72 d9 9a 3c 0c d5 f5 3d
       0.14839786 -0.27617568 0.018902514 0.12003526
0003b0 2a d6 21 be 7e 66 59 bd 88 ae f3 3d aa d9 3f 3d
       -0.15804353 -0.05307626 0.118985236 0.04683844
0003c0 ca f2 25 bd b2 cc 13 be d2 34 56 be 97 43 0d be
       -0.040514745 -0.14433554 -0.20918587 -0.13795315
0003d0 c9 62 34 3e 3b c9 58 be 75 c3 b5 bc 8c 5b 9d bc
       0.17615809 -0.21170513 -0.022187928 -0.019208692
0003e0 b2 10 7e bc 00 2a 76 3e 9c 6c 83 bd ce 17 0b be
       -0.01550691 0.24039459 -0.064172 -0.135833
0003f0 ab f8 5f bd 5a 1e 1b bd f4 1f 53 3c 29 43 12 bc
       -0.054680508 -0.037870742 0.012886036 -0.008927145

fc3.bias f4 [10]
000000 dd 2e 2d bd 48 1f 89 3e 35 e6 df 3d 50 3e 7a be
       -0.04228102 0.26781678 0.109325804 -0.24437833
000010 d2 92 c9 3d 66 87 6a 3e 5b 43 e0 bd d1 92 53 be
       0.09842457 0.22903213 -0.10950347 -0.20661475
000020 fa 99 10 bb 06 2e ed 3d
       -0.0022064433 0.11581044
