output/global_model.pth (torch, 251646 bytes, 10 tensors)

conv1.weight f4 [6, 3, 5, 5]
0	0xc5901034	-4610.0254
1	0xc59a0878	-4929.0586
2	0xc5a1cc1e	-5177.5146
3	0xc59c8092	-5008.0713
4	0xc58ddca0	-4539.578
5	0xc58c971e	-4498.8896
6	0xc59d24c7	-5028.597
7	0xc5a7eaeb	-5373.3647
8	0xc59f79df	-5103.234
9	0xc592fccf	-4703.601
10	0xc5831544	-4194.658
11	0xc59ca917	-5013.136
12	0xc59e9397	-5074.4487
13	0xc59ea802	-5077.001
14	0xc587c13e	-4344.1553
15	0xc56df61c	-3807.3818
16	0xc58cbb16	-4503.3857
17	0xc58d4685	-4520.815
18	0xc5903fac	-4615.959
19	0xc567807e	-3704.0308
20	0xc56764ac	-3702.292
21	0xc5762c23	-3938.7585
22	0xc57a3e1c	-4003.8818
23	0xc56e3ddb	-3811.866
24	0xc540dd6f	-3085.8396
25	0xc5832ee4	-4197.8613
26	0xc591e27e	-4668.3115
27	0xc59bac80	-4981.5625
28	0xc597cbc0	-4857.4688
29	0xc588bacc	-4375.3496
30	0xc584ca09	-4249.2544
31	0xc598dd98	-4891.699
32	0xc5a4a29c	-5268.326
33	0xc59ca8ee	-5013.116
34	0xc5904a18	-4617.2617
35	0xc57c6f68	-4038.963
36	0xc59aaeac	-4949.834
37	0xc59d2cf6	-5029.62
38	0xc59ed52f	-5082.648
39	0xc58640e8	-4296.1133
40	0xc5689a26	-3721.6343
41	0xc58b6cce	-4461.6006
42	0xc58e0914	-4545.135
43	0xc59268fa	-4685.122
44	0xc565b4ee	-3675.308
45	0xc560929b	-3593.1628
46	0xc5706af4	-3846.6846
47	0xc57aa8c3	-4010.5476
48	0xc570dc13	-3853.7546
49	0xc5416cd6	-3094.8022
50	0x456836e4	3715.4307
51	0x454dee7e	3294.9058
52	0x4549b4b2	3227.2935
53	0x4540f3fc	3087.249
54	0x451d9235	2521.138
55	0x456a4544	3748.329
56	0x4549788f	3223.535
57	0x4544fcdc	3151.8037
58	0x45390cbb	2960.7957
59	0x4510cf82	2316.9692
60	0x45687282	3719.1567
61	0x4543c962	3132.5864
62	0x454566ed	3158.4329
63	0x453197d0	2841.4883
64	0x450ca364	2250.212
65	0x45696651	3734.3948
66	0x45471eda	3185.9282
67	0x45454034	3156.0127
68	0x45286676	2694.4038
69	0x45081900	2177.5625
70	0x45544d3e	3396.8276
71	0x45427ce5	3111.806
72	0x453d5a44	3029.6416
73	0x451d67e6	2518.4937
74	0x4508b2da	2187.1782
75	0x42dc1579	110.04194
76	0x4291e117	72.93963
77	0x428c9b56	70.30339
78	0x42b12315	88.56852
79	0x42c799e2	99.80055
80	0x42b457ca	90.17146
81	0x426a3a22	58.55677
82	0x421d043e	39.254143
83	0x4246bbd2	49.68342
84	0x428646ac	67.13803
85	0x429119b0	72.55017
86	0x423d4ec1	47.32691
87	0x421f4373	39.81587
88	0x4245f3a1	49.48792
89	0x4284b2e4	66.349396
90	0x4293ea33	73.95742
91	0x42474e2c	49.82634
92	0x4280edf7	64.464775
93	0x429d3420	78.60181
94	0x42d0063e	104.01219
95	0x42e13686	112.60649
96	0x42d0de4f	104.4342
97	0x4303a73e	131.65329
98	0x431eabc5	158.67097
99	0x4339039e	185.01413
100	0xc2bae800	-93.453125
101	0xc307761c	-135.46136
102	0xc30edd96	-142.86557
103	0xc2f89f18	-124.31073
104	0xc2de587a	-111.172806
105	0xc2d754b6	-107.66545
106	0xc310b316	-144.69955
107	0xc328af62	-168.68509
108	0xc31d35ca	-157.21011
109	0xc3085236	-136.32114
110	0xc301fb38	-129.98132
111	0xc31ba345	-155.63777
112	0xc322a718	-162.65271
113	0xc31b3269	-155.19691
114	0xc3086752	-136.4036
115	0xc2f7f946	-123.98686
116	0xc314efec	-148.9372
117	0xc3050dd0	-133.05396
118	0xc2f4917e	-122.284164
119	0xc2c73e63	-99.62185
120	0xc29223f2	-73.070206
121	0xc2a86eb8	-84.21625
122	0xc25eef97	-55.733974
123	0xc2006441	-32.097904
124	0xc136b8b1	-11.420091
125	0xc2828fee	-65.28111
126	0xc2ddc363	-110.881615
127	0xc2fdb2c4	-126.84915
128	0xc2e75c4d	-115.680275
129	0xc2e07299	-112.22382
130	0xc290600a	-72.18758
131	0xc2e7ab62	-115.83473
132	0xc314dce5	-148.86287
133	0xc31056ce	-144.33908
134	0xc304fcc6	-132.9874
135	0xc2c81f14	-100.0607
136	0xc3054e21	-133.30519
137	0xc3153eb0	-149.24487
138	0xc3122378	-146.13855
139	0xc3094fb2	-137.31131
140	0xc2c83d99	-100.12031
141	0xc30417ea	-132.09341
142	0xc2f691fa	-123.28511
143	0xc2e5f9ad	-114.98765
144	0xc2c67ab0	-99.239624
145	0xc24c5fb5	-51.093464
146	0xc28594ce	-66.790634
147	0xc22f0b7e	-43.761223
148	0xc19b69b0	-19.426605
149	0x3efca605	0.49345413
150	0xc462c14e	-907.0204
151	0xc4623341	-904.80084
152	0xc4673580	-924.83594
153	0xc4662e42	-920.7228
154	0xc4678122	-926.0177
155	0xc4635a48	-909.41064
156	0xc470bf3a	-962.9879
157	0xc46c2aaf	-944.66693
158	0xc479c8ec	-999.1394
159	0xc4707862	-961.881
160	0xc4692684	-932.6018
161	0xc47ea630	-1018.5967
162	0xc47fa7bc	-1022.62085
163	0xc481a078	-1037.0146
164	0xc47e05c4	-1016.0901
165	0xc4642338	-912.5503
166	0xc474523c	-977.2849
167	0xc480605e	-1027.0115
168	0xc4836c88	-1051.3916
169	0xc47bd6b0	-1007.3545
170	0xc454a945	-850.64484
171	0xc45e2fae	-888.745
172	0xc4722fd4	-968.7473
173	0xc476b3fe	-986.8124
174	0xc46ab516	-938.82947
175	0xc42dd260	-695.2871
176	0xc4280fda	-672.2477
177	0xc42903c9	-676.05914
178	0xc42434eb	-656.82684
179	0xc4218c2c	-646.1902
180	0xc4309c58	-706.4429
181	0xc43a136f	-744.30365
182	0xc4315a08	-709.40674
183	0xc43b5edf	-749.48236
184	0xc42f5da8	-701.4634
185	0xc43ae638	-747.59717
186	0xc44c2162	-816.5216
187	0xc4497c38	-805.9409
188	0xc4486420	-801.56445
189	0xc4414ff9	-773.2496
190	0xc43830fc	-736.7654
191	0xc442ea39	-779.6597
192	0xc44cd6f0	-819.3584
193	0xc44ef9cc	-827.9031
194	0xc4418922	-774.1427
195	0xc426f20e	-667.7821
196	0xc42adabd	-683.4178
197	0xc43da862	-758.631
198	0xc43fb46f	-766.8193
199	0xc4303c82	-704.94543
200	0xc4971f30	-1208.9746
201	0xc49b9b70	-1244.8574
202	0xc49dc830	-1262.2559
203	0xc4999826	-1228.7546
204	0xc48b74fc	-1115.6558
205	0xc49bf5b8	-1247.6787
206	0xc4a51394	-1320.6118
207	0xc4a47730	-1315.7246
208	0xc4a4f9ec	-1319.81
209	0xc491ae8c	-1165.4546
210	0xc4a218c0	-1296.7734
211	0xc4aeba2e	-1397.8181
212	0xc4aecd56	-1398.4167
213	0xc4a98d06	-1356.407
214	0xc49acdaa	-1238.427
215	0xc49fa6b2	-1277.2092
216	0xc4ab8e4e	-1372.447
217	0xc4ace0f6	-1383.03
218	0xc4a92fe0	-1353.4961
219	0xc49cbc0a	-1253.8762
220	0xc4925dfc	-1170.937
221	0xc498f594	-1223.6743
222	0xc49e7e21	-1267.9415
223	0xc49b3720	-1241.7227
224	0xc48fe660	-1151.1992
225	0xc4359957	-726.39594
226	0xc43c7450	-753.8174
227	0xc43c5158	-753.271
228	0xc4437938	-781.89404
229	0xc446f2c6	-795.79333
230	0xc42b5286	-685.2894
231	0xc430b776	-706.8666
232	0xc435936b	-726.3034
233	0xc438f198	-739.7749
234	0xc4426558	-777.5835
235	0xc421897b	-646.14813
236	0xc430fa87	-707.9145
237	0xc435c06a	-727.0065
238	0xc435588c	-725.38354
239	0xc440139c	-768.3064
240	0xc3e8c9a4	-465.57532
241	0xc40074e4	-513.8264
242	0xc4084dd4	-545.21606
243	0xc40d3e92	-564.97766
244	0xc418b13b	-610.7692
245	0xc3c16cd6	-386.85028
246	0xc3d1a921	-419.32132
247	0xc3db8c6a	-439.097
248	0xc3ebf90c	-471.94568
249	0xc3fbad9d	-503.35635
250	0xc416d10b	-603.2663
251	0xc41c312a	-624.7682
252	0xc41c76a2	-625.85364
253	0xc4220e14	-648.22
254	0xc422d37e	-651.30457
255	0xc40f7294	-573.7903

conv1.bias f4 [6]
0	0x45f1a2c0	7732.3438
1	0x43021d47	130.11436
2	0xc538e33a	-2958.2017
3	0xc503dadd	-2109.679
4	0x45eb51d8	7530.2305
5	0x4308f60a	136.96109

conv2.weight f4 [16, 6, 5, 5]
0	0xc4aaed76	-1367.4207
1	0xc4843074	-1057.5142
2	0xc49ff696	-1279.7058
3	0xc4aee14e	-1399.0408
4	0xc575ea0f	-3934.6287
5	0xc39b2b87	-310.34006
6	0xc298ebe1	-76.4607
7	0xc3a60bd1	-332.09232
8	0xc4178979	-606.148
9	0xc4cd86bf	-1644.2108
10	0xc3f73c14	-494.46936
11	0xc3a3eb5c	-327.83875
12	0xc41c8a4f	-626.1611
13	0xc50f5829	-2293.51
14	0xc583c43f	-4216.531
15	0xc4e9225a	-1865.0735
16	0xc48d040c	-1128.1265
17	0xc51c0233	-2496.1375
18	0xc5a97a81	-5423.313
19	0xc6019777	-8293.866
20	0xc5b7670b	-5868.8804
21	0xc55dc67b	-3548.405
22	0xc5987807	-4879.0034
23	0xc5fc2cc7	-8069.597
24	0xc627a319	-10728.774
25	0xc37dc8b7	-253.78404
26	0xc38a4eb6	-276.61493
27	0xc2e2e293	-113.44253
28	0xc2febdde	-127.370834
29	0xc3d3628b	-422.76987
30	0xc2c31880	-97.54785
31	0xc0d25496	-6.5728254
32	0xc016959c	-2.3528814
33	0xc1e07b05	-28.060068
34	0xc22702b0	-41.752625
35	0xc3826504	-260.78918
36	0xc21388d6	-36.88363
37	0xc11ec608	-9.923347
38	0xc3550837	-213.03209
39	0xc3d3373d	-422.43155
40	0xc3db1dc4	-438.23254
41	0xc2f7ea9a	-123.958206
42	0xc3030fc7	-131.06163
43	0xc471f2a8	-967.7915
44	0xc4f210ef	-1936.5292
45	0xc4ab4137	-1370.038
46	0xc40c83e4	-562.0608
47	0xc469b419	-934.814
48	0xc510ee9c	-2318.913
49	0xc5518cbe	-3352.7964
50	0xc7996e6b	-78556.836
51	0xc79a1259	-78884.695
52	0xc796039e	-76807.234
53	0xc79331d4	-75363.66
54	0xc78ad5d0	-71083.625
55	0xc7b4eb0d	-92630.1
56	0xc7bf7a74	-98036.91
57	0xc7bfd5a4	-98219.28
58	0xc7ba092b	-95250.336
59	0xc7b2055f	-91146.74
60	0xc7c59cb5	-101177.414
61	0xc7cfc803	-106384.02
62	0xc7ccf8bb	-104945.46
63	0xc7c20b53	-99350.65
64	0xc7b66f2f	-93406.37
65	0xc7cc465b	-104588.71
66	0xc7d7a58e	-110411.11
67	0xc7cff3a3	-106471.27
68	0xc7bfe1f0	-98243.875
69	0xc7b2a201	-91460.01
70	0xc7c70ad7	-101909.68
71	0xc7d6dc38	-110008.44
72	0xc7d16a29	-107220.32
73	0xc7c1e76c	-99278.84
74	0xc7b37e4e	-91900.61
75	0xc6f63d15	-31518.541
76	0xc6d12b34	-26773.602
77	0xc6b05085	-22568.26
78	0xc6a56002	-21168.004
79	0xc69d1f56	-20111.668
80	0xc71f5bba	-40795.727
81	0xc72046c4	-41030.766
82	0xc71bddd1	-39901.816
83	0xc7173fea	-38719.914
84	0xc70b445b	-35652.355
85	0xc73ad5d7	-47829.84
86	0xc73fd57f	-49109.496
87	0xc737eeae	-47086.68
88	0xc72b9114	-43921.08
89	0xc722ed1f	-41709.12
90	0xc74429d8	-50217.844
91	0xc74aed13	-51949.074
92	0xc73fa4b2	-49060.695
93	0xc72daab2	-44458.695
94	0xc721b103	-41393.01
95	0xc74ce46e	-52452.43
96	0xc756cf0b	-54991.043
97	0xc748874b	-51335.293
98	0xc731db08	-45531.03
99	0xc724eeb2	-42222.695
100	0xc6812e7d	-16535.244
101	0xc68cd01b	-18024.053
102	0xc684e0ac	-17008.336
103	0xc6808ddf	-16454.936
104	0xc6786a28	-15898.539
105	0xc69b6fcd	-19895.9
106	0xc6a81175	-21512.729
107	0xc6adfa35	-22269.104
108	0xc6a84d11	-21542.533
109	0xc6a0f842	-20604.129
110	0xc6a6c32e	-21345.59
111	0xc6bdb672	-24283.223
112	0xc6c1325a	-24729.176
113	0xc6b544ed	-23202.463
114	0xc6a5c048	-21216.14
115	0xc6afa41e	-22482.059
116	0xc6cd5ad0	-26285.406
117	0xc6ca022e	-25857.09
118	0xc6bbd8b4	-24044.352
119	0xc6a4642c	-21042.086
120	0xc6b079d5	-22588.916
121	0xc6c82e76	-25623.23
122	0xc6cbabed	-26069.963
123	0xc6c00c7b	-24582.24
124	0xc6a81995	-21516.791
125	0xc37b0068	-251.00159
126	0xc2a3a805	-81.82816
127	0xc198df57	-19.109053
128	0xc19ba865	-19.457224
129	0xc204c8fa	-33.196266
130	0xc3937d65	-294.97964
131	0xc2a0e2db	-80.44308
132	0xc0bf144f	-5.971229
133	0xc0c2807a	-6.078183
134	0xc1ddb3d0	-27.7128
135	0xc3d7f45e	-431.90912
136	0xc372746f	-242.45482
137	0xc195cbea	-18.724567
138	0xc26da40d	-59.410206
139	0xc394bfc6	-297.49823
140	0xc48d8c6b	-1132.3881
141	0xc353eed1	-211.93288
142	0xc2517f6e	-52.374443
143	0xc3ac9875	-345.19107
144	0xc4b30bed	-1432.3727
145	0xc5341f92	-2881.9731
146	0xc3d6a876	-429.3161
147	0xc421694d	-645.6453
148	0xc4ce0268	-1648.0752
149	0xc52f09b9	-2800.6077
150	0xc10f6354	-8.96175
151	0xc116d458	-9.426842
152	0xc110b9fb	-9.045405
153	0xc10135fe	-8.075682
154	0xc0f02144	-7.5040607
155	0xc0f42db6	-7.63058
156	0xc10a73ef	-8.653304
157	0xc1062dd9	-8.386193
158	0xc0e5cbee	-7.1811438
159	0xc0e05420	-7.010269
160	0xc0b7868c	-5.735174
161	0xc0d198c4	-6.549898
162	0xc0d43762	-6.6317606
163	0xc0c3a660	-6.1140594
164	0xc0b831ea	-5.756093
165	0xc08a38b0	-4.31942
166	0xc0920cad	-4.5640473
167	0xc09565de	-4.668685
168	0xc089fac4	-4.311861
169	0xc079a899	-3.9009154
170	0xc08458ad	-4.1358247
171	0xc081d6be	-4.0574636
172	0xc08007fe	-4.0009756
173	0xc06e98be	-3.7280726
174	0xc05d3542	-3.4563756
175	0xc00d16a1	-2.2045062
176	0xc01a32df	-2.409355
177	0xc0192b16	-2.3932548
178	0xc00a1691	-2.1576273
179	0xbffea6e8	-1.9894686
180	0xc001dde5	-2.0291684
181	0xc011e618	-2.2796688
182	0xc0120891	-2.2817729
183	0xbfff03e8	-1.9923067
184	0xbfefd80e	-1.873781
185	0xbfcb9045	-1.5903403
186	0xbffd1fd6	-1.977534
187	0xbff5dc78	-1.9207907
188	0xbfd2210a	-1.6416333
189	0xbfe01866	-1.7507446
190	0xbfadac74	-1.3568254
191	0xbfc3f25a	-1.5308335
192	0xbfc37c84	-1.5272374
193	0xbfa46407	-1.2843026
194	0xbfb0a04c	-1.3798919
195	0xbfa6096e	-1.2971628
196	0xbfb9d166	-1.4517028
197	0xbfb38636	-1.4025333
198	0xbfa75a72	-1.3074477
199	0xbf986e0a	-1.1908581
200	0xc0b729ca	-5.723851
201	0xc0a80a76	-5.251277
202	0xc0c4b85e	-6.1475058
203	0xc0c186c6	-6.047702
204	0xc0a8bf96	-5.273387
205	0xc0c14c24	-6.0405445
206	0xc0b027c1	-5.504853
207	0xc0d016f8	-6.502804
208	0xc0cb5696	-6.3543196
209	0xc0a4ac36	-5.146022
210	0xc0d5e22e	-6.68386
211	0xc0ca0f1b	-6.314344
212	0xc0da42c2	-6.820649
213	0xc0dbdd6c	-6.870779
214	0xc0cba581	-6.363953
215	0xc0d71ea6	-6.7224913
216	0xc0d6b176	-6.7091627
217	0xc0e8f12c	-7.27944
218	0xc0f628d0	-7.692482
219	0xc0f8d69c	-7.7761974
220	0xc0ce8914	-6.454233
221	0xc0d55458	-6.666546
222	0xc0e35aac	-7.1048183
223	0xc0f3a3e4	-7.613756
224	0xc0f8a220	-7.7697906
225	0xc0be49cf	-5.94651
226	0xc0d75394	-6.7289524
227	0xc0ded458	-6.963421
228	0xc0cd7b75	-6.4213204
229	0xc0d2c4fe	-6.586547
230	0xc0b5e33b	-5.683988
231	0xc0cf0b60	-6.4701385
232	0xc0dd6fa2	-6.919877
233	0xc0d2237a	-6.5668306
234	0xc0e23544	-7.069002
235	0xc0bdf479	-5.936093
236	0xc0c4034a	-6.1254015
237	0xc0ce94cc	-6.4556637
238	0xc0cc9f98	-6.3944817
239	0xc0cdb28b	-6.428045
240	0xc0cd87b1	-6.422814
241	0xc0d53d72	-6.6637506
242	0xc0d2b75a	-6.584882
243	0xc0c912ae	-6.28353
244	0xc0c9f8db	-6.311628
245	0xc0dc7cf8	-6.890255
246	0xc0e8f67c	-7.2800884
247	0xc0eaf192	-7.3419886
248	0xc0ebbdb2	-7.366906
249	0xc0e99d38	-7.3004417
250	0xc09126cc	-4.535986
251	0xc086acf8	-4.2086143
252	0xc05c0a25	-3.4381192
253	0xc08844ba	-4.2583895
254	0xc08d0df8	-4.407955
255	0xc09850c6	-4.75986

conv2.bias f4 [16]
0	0xc3d52a42	-426.33014
1	0xc041eb44	-3.0299845
2	0xbf817b2a	-1.0115712
3	0xc28a3f44	-69.123566
4	0xbf1f5826	-0.6224388
5	0xc07bcbb0	-3.934307
6	0xbea2e1dd	-0.31812945
7	0xbe9fe0ae	-0.31226104
8	0xc00707af	-2.109844
9	0xbf08d2b1	-0.5344649
10	0xc0876ca2	-4.232011
11	0xc0420704	-3.0316782
12	0xc13e3b1b	-11.88943
13	0xbf77122a	-0.9651209
14	0xc0e535aa	-7.162801
15	0xbee6d0fd	-0.4508132

fc1.weight f4 [120, 400]
0	0xc20812ad	-34.018238
1	0xc23f9ed9	-47.905125
2	0xc261988e	-56.39898
3	0xc270f412	-60.23835
4	0xc2eba6cf	-117.8258
5	0xc1e30544	-28.377571
6	0xc2100c10	-36.01178
7	0xc239db28	-46.46402
8	0xc2b2692d	-89.20542
9	0xc2f9e428	-124.94562
10	0xc247f848	-49.992462
11	0xc1b6efe6	-22.867138
12	0xc24fb50f	-51.926815
13	0xc24bdd3c	-50.96605
14	0xc27a5156	-62.57943
15	0xc28e7602	-71.230484
16	0xc21f78c9	-39.867954
17	0xc229311a	-42.29795
18	0xc1ebe714	-29.487831
19	0xc1de5626	-27.792065
20	0xc3231a32	-163.10233
21	0xc31e364c	-158.2121
22	0xc30147c3	-129.28032
23	0xc28d3a44	-70.6138
24	0xc2856c85	-66.71195
25	0xbe6a0df8	-0.22856891
26	0xbe98c5a6	-0.29838294
27	0xbe71b6c9	-0.23604883
28	0xbe70f2e4	-0.23530155
29	0xbe953ce2	-0.29148012
30	0xbe9cf565	-0.3065597
31	0xbe672388	-0.22572148
32	0xbe98a949	-0.29816654
33	0xbe8b938a	-0.27261
34	0xbe585310	-0.21125436
35	0xbe475346	-0.1946536
36	0xbe5d2ce7	-0.2159916
37	0xbe44d337	-0.19221197
38	0xbe7bea64	-0.24601132
39	0xbe886eb1	-0.2664695
40	0xbe533677	-0.20626245
41	0xbe1105d7	-0.14162384
42	0xbe461e27	-0.1934744
43	0xbe50b545	-0.20381649
44	0xbe4587e4	-0.1929012
45	0xbe49ec67	-0.19719087
46	0xbe7c1132	-0.24615934
47	0xbe835892	-0.2565351
48	0xbe6aec3a	-0.22941676
49	0xbe3b01ce	-0.18262407
50	0x3b926dd3	0.0044686585
51	0x3aa91bf0	0.0012902003
52	0x3d45fbee	0.048335962
53	0x3d342232	0.043977924
54	0x3b8a8e08	0.004228357
55	0xbc99ba37	-0.018765552
56	0xbd2848eb	-0.041085165
57	0xbcf79154	-0.030220665
58	0xbd34fb10	-0.044184744
59	0xbc2a5e2c	-0.010398429
60	0x3c83be7b	0.01608204
61	0x3c8264c0	0.015917182
62	0x3d75cab0	0.06000775
63	0x3d0de7e3	0.034644973
64	0xbccd3606	-0.025050174
65	0x3d05b0d0	0.032639325
66	0xbc912f3f	-0.017722724
67	0xbd269b26	-0.040675305
68	0x3ce5b799	0.028041648
69	0x3cda64c3	0.026659375
70	0x3d3a80ce	0.045532994
71	0xbcd4703d	-0.025932426
72	0x3d1d49e3	0.038400542
73	0xbc977144	-0.018486626
74	0xbc7e616a	-0.015526155
75	0xbd489a2e	-0.048975162
76	0xbdbb56f8	-0.09147447
77	0xbde1bece	-0.11022721
78	0xbda43347	-0.08017593
79	0xbd6278ab	-0.05529086
80	0xc7acbf8e	-88447.11
81	0xc6605ff7	-14359.991
82	0xbd006de4	-0.0313548
83	0xbda09029	-0.07839996
84	0xbddf62ee	-0.10907541
85	0xbb840228	-0.0040285774
86	0xbd5f89f5	-0.054574925
87	0xbcf51f90	-0.029922277
88	0xbd9b958c	-0.07596883
89	0xbd2cb3e9	-0.042163763
90	0x3ac92038	0.0015344685
91	0xbd1ab30e	-0.037768416
92	0x3c96757e	0.018366572
93	0x3ba73c28	0.0051036067
94	0xbd56248a	-0.05228094
95	0xbd25da34	-0.040491298
96	0x3c357486	0.011075145
97	0xbd67ff73	-0.0566401
98	0xbc446fa0	-0.011989504
99	0x3c86b906	0.016445648
100	0x3c31b91e	0.010847358
101	0xbd473966	-0.048638724
102	0x3cb88856	0.022525948
103	0x3d30f012	0.0431977
104	0xbd0f20e9	-0.034943495
105	0xbc1f458c	-0.009721171
106	0xbcf33c9a	-0.029691983
107	0xbc84360c	-0.016139053
108	0x3ba38904	0.004990699
109	0x3cb24087	0.021759285
110	0xbbd8e43d	-0.006619005
111	0xbc930d3a	-0.017950643
112	0xbcda4994	-0.026646413
113	0xbc23401c	-0.009964015
114	0xbd185cac	-0.037197754
115	0x3d3cd666	0.046102904
116	0xbd219943	-0.039452802
117	0xb91e2240	-0.00015080813
118	0xbd2e60ce	-0.04257279
119	0x3cd716d8	0.02625601
120	0xbcb41143	-0.021980887
121	0xbd221985	-0.03957512
122	0xbbb1b532	-0.0054232115
123	0x3bb07e24	0.005386131
124	0x3cf23554	0.029566444
125	0xbfad713a	-1.3550179
126	0xbfbbd8e6	-1.4675567
127	0xbfc38746	-1.5275657
128	0xbfb52904	-1.4153142
129	0xbfaf1234	-1.367743
130	0xbfb425ec	-1.4074073
131	0xbfb95e5a	-1.4481919
132	0xbfb9a334	-1.4502931
133	0xbfb1ec54	-1.3900247
134	0xbfa90e46	-1.3207481
135	0xbfabee66	-1.3432128
136	0xbfb1182c	-1.3835502
137	0xbfacd0b6	-1.3501194
138	0xbfb1e1c2	-1.3897021
139	0xbfa7a344	-1.30967
140	0xbf955bc4	-1.166863
141	0xbfa676f1	-1.3005048
142	0xbfa266e4	-1.268765
143	0xbfaa6918	-1.3313322
144	0xbfabfd5e	-1.3436697
145	0xbf9fd03a	-1.2485421
146	0xbfaa9860	-1.3327751
147	0xbfaf6fb8	-1.3705969
148	0xbfbb0f30	-1.461401
149	0xbfb9dab2	-1.4519866
150	0xbcffdb04	-0.031232364
151	0xbd38f049	-0.04515103
152	0x3b9382e0	0.0045016855
153	0xbc573b2d	-0.013136667
154	0xbd08ff06	-0.033446334
155	0x3d957107	0.07296949
156	0x3c50b67e	0.012738822
157	0x3d05c264	0.03265609
158	0xbc54170a	-0.012944946
159	0x3d16466c	0.036688253
160	0x3c84017e	0.016113993
161	0x3d4a6750	0.049414933
162	0xbcb11242	-0.021615151
163	0x3d43968e	0.047751002
164	0x3d21df04	0.039519325
165	0xbd475068	-0.048660666
166	0xbc8ea90d	-0.017414594
167	0xbcfe4346	-0.031037938
168	0xbcbde98e	-0.023182657
169	0x3d15af07	0.036543872
170	0xbd216222	-0.039400227
171	0xbd529214	-0.051408842
172	0xbd0ab74c	-0.03386621
173	0xbd3ebc12	-0.046566077
174	0x3d0c0681	0.03418589
175	0x3d165a0d	0.036706973
176	0xbd69472a	-0.056952633
177	0x3d5087ae	0.050910644
178	0x3ccd8fc6	0.02509297
179	0xbc8c91d2	-0.017159376
180	0xbd046062	-0.03231848
181	0xbbf6e726	-0.0075348793
182	0xbc947bc0	-0.018125415
183	0x3d0349ec	0.03205292
184	0xbd05e025	-0.032684464
185	0xbd23e2f0	-0.040011346
186	0xbd120fe6	-0.035659693
187	0xbcb18997	-0.021672053
188	0xbbc036d6	-0.005865912
189	0xbcdcf518	-0.026972339
190	0x3ccf6d44	0.025320657
191	0xbb198c60	-0.0023429617
192	0xbc6bb1f8	-0.014385693
193	0x3c9411d3	0.018074905
194	0x3c6d71a8	0.01449243
195	0xbc917b90	-0.017759115
196	0xbb36085a	-0.0027775974
197	0xbc09000d	-0.0083618285
198	0x3e293ce2	0.16527131
199	0x3c5fcda4	0.013659868
200	0x3b970b00	0.0046094656
201	0x3e3ad8e6	0.18246803
202	0x3d0e0c67	0.034679797
203	0x3cccb0a0	0.024986565
204	0x3e0b48d1	0.13601996
205	0x3de3da2a	0.11125596
206	0x3e2fb783	0.17159848
207	0x3d796e50	0.060896218
208	0xbcc2b43f	-0.023767589
209	0xbd31bcee	-0.043393068
210	0x3e53b82d	0.20675726
211	0xbc8493c7	-0.016183747
212	0x3aa26370	0.0012389254
213	0xbd284768	-0.041083723
214	0xbcf3e917	-0.029774232
215	0x3e2f31b5	0.17108805
216	0x3cc8de1a	0.024519969
217	0xbc3a8bb6	-0.011385849
218	0xbbc6aac3	-0.006062837
219	0x3b3cf444	0.0028832117
220	0xbc2caeae	-0.010539694
221	0x3d00d564	0.031453505
222	0xbd023989	-0.03179315
223	0xbc81f480	-0.015863657
224	0xbd0d8bd0	-0.034557164
225	0xbd44a1a9	-0.048005734
226	0xbd81db1c	-0.0634062
227	0xbd81b608	-0.06333548
228	0xbd3c0748	-0.04590538
229	0xbc90ff3a	-0.017699827
230	0xbd2fa2d0	-0.04287988
231	0xbd93019c	-0.07178041
232	0x3d0870a8	0.033310562
233	0x3c8aa8b6	0.01692615
234	0xbc759114	-0.014988203
235	0xbc442724	-0.0119722225
236	0xbcee1e0e	-0.029067066
237	0xbbf8d010	-0.0075931624
238	0xbd82ac57	-0.063805275
239	0xbd37ea2a	-0.04490105
240	0xbd6a450b	-0.05719475
241	0xbca262f4	-0.019822575
242	0x3d165a0f	0.03670698
243	0xba1690e0	-0.0005743634
244	0xbcffab5e	-0.031209644
245	0xc2116f40	-36.358643
246	0xbd812f2a	-0.06307824
247	0xbd8af5c6	-0.06785159
248	0xbce744cb	-0.028231045
249	0xbd02eb24	-0.03196253
250	0xbe6b4b99	-0.22978057
251	0xbe97a5c6	-0.29618663
252	0xbe7941b4	-0.2434147
253	0xbe4221bb	-0.1895818
254	0xbe658492	-0.22413853
255	0xbe5520f6	-0.20813355

fc1.bias f4 [120]
0	0xc1b12eaf	-22.147795
1	0xc1af2fb0	-21.898285
2	0xc1451620	-12.317902
3	0xc290498b	-72.14364
4	0xc3deebb5	-445.84146
5	0xc19a4a39	-19.286242
6	0xc02a4c87	-2.6609209
7	0xc0941a82	-4.628236
8	0xc033a7f2	-2.8071256
9	0xc10ebc2a	-8.9209385
10	0xc4544533	-849.08124
11	0xc0828702	-4.0789804
12	0xc165bc5a	-14.358484
13	0xc0ba7d37	-5.827785
14	0xc14bd336	-12.739065
15	0xc01eabd0	-2.4792366
16	0xc0b4847f	-5.641174
17	0xbfece646	-1.8507774
18	0xc01374e6	-2.30401
19	0xbfe2e064	-1.7724729
20	0xc4043fe8	-528.99854
21	0xc1a16254	-20.173012
22	0xc0110be6	-2.2663512
23	0xc0afc95a	-5.493329
24	0xbfe94acc	-1.8225951
25	0xc13a4021	-11.640656
26	0xbfd4624c	-1.6592498
27	0x3ecd9b9c	0.40157783
28	0xc10539d5	-8.326619
29	0xc1104f25	-9.019322
30	0xc103d16e	-8.23863
31	0xbfc82701	-1.5636903
32	0xc44c42c4	-817.0432
33	0xbfcd09c1	-1.6018602
34	0xbffe5c10	-1.9871845
35	0xc066b6a6	-3.604898
36	0xbfe1788c	-1.7614913
37	0xc1993370	-19.150116
38	0x3c968460	0.018373668
39	0xc10ec468	-8.922951
40	0xc1129485	-9.16126
41	0x40d8cc14	6.774912
42	0xc0305bf2	-2.755612
43	0xc21b2487	-38.78567
44	0xc1461b76	-12.381704
45	0xc113e680	-9.243774
46	0xbff0182c	-1.8757377
47	0xc2802720	-64.076416
48	0xc00ed316	-2.2316337
49	0xc2a0b5c5	-80.35502
50	0xc145cce8	-12.362526
51	0xc150c4f4	-13.048084
52	0xc0987f34	-4.7655277
53	0xc0aa5d11	-5.3238606
54	0xbfe495a2	-1.7858164
55	0xbee73802	-0.45159918
56	0xc0b694e3	-5.7056746
57	0xc08521c7	-4.160373
58	0xc1fff257	-31.99333
59	0xc112fc8e	-9.186659
60	0xc096f4b6	-4.717372
61	0xbff7041c	-1.9298129
62	0xc0676484	-3.61551
63	0xc1ae8bdb	-21.818289
64	0xbfeb04b2	-1.8360808
65	0xc115c232	-9.359911
66	0xc1678044	-14.468815
67	0xc0a1a795	-5.051707
68	0xc154965f	-13.286712
69	0xc11da74e	-9.853346
70	0xc008716f	-2.1319234
71	0xc0880d4a	-4.251622
72	0xc2008c7b	-32.137188
73	0xc1049348	-8.285957
74	0xc01ed8c8	-2.4819813
75	0xc165f0b2	-14.3712635
76	0xc0d41256	-6.6272383
77	0xc10212c4	-8.129581
78	0xbfca6fbc	-1.5815349
79	0xbff9228a	-1.9463665
80	0xc11ed078	-9.925896
81	0xc0869058	-4.20512
82	0xc140a033	-12.039111
83	0xc118b57d	-9.544309
84	0xc0db0022	-6.843766
85	0xbf34b6c4	-0.7059138
86	0xc05fc412	-3.4963422
87	0xc0982224	-4.7541676
88	0x412c24d8	10.758995
89	0xbf099121	-0.53737074
90	0xc13c199f	-11.756255
91	0xc0e4092a	-7.1261187
92	0xbed79cec	-0.4211191
93	0xc2ae7d24	-87.244415
94	0xbfd439f7	-1.658019
95	0xc0c03438	-6.0063744
96	0xc10ed6e8	-8.927467
97	0xc081f4a5	-4.061114
98	0xc002fbe6	-2.0466247
99	0xbfd498bb	-1.660911
100	0xc0f00bda	-7.5014467
101	0xc002c7e8	-2.0434513
102	0xc0c948ca	-6.2901354
103	0xc0206b22	-2.5065389
104	0xc10cc092	-8.797014
105	0xc1905802	-18.042973
106	0xc0d32e2a	-6.5993853
107	0xc196978c	-18.823997
108	0xbfc0d4ce	-1.5064943
109	0xc1360e1c	-11.378445
110	0xc123b30a	-10.231211
111	0xc03abd9a	-2.9178224
112	0xc20c58e3	-35.086803
113	0xc0858867	-4.1729007
114	0xc1a01782	-20.011478
115	0xc1e8a498	-29.080368
116	0xc20237a8	-32.55435
117	0xc06cfcdd	-3.7029335
118	0xbfc4d8d9	-1.5378677
119	0xc0e52088	-7.160221

fc2.weight f4 [84, 120]
0	0xbe4a2b3e	-0.19743058
1	0xbefc271a	-0.49248582
2	0xc1bbf3aa	-23.493977
3	0xbfe08eb2	-1.7543547
4	0xbe70e990	-0.23526597
5	0xbe1b58cc	-0.15170592
6	0xc0877ec6	-4.2342253
7	0x3c3ca010	0.011512771
8	0xc0c6694b	-6.200353
9	0xc18e1ca0	-17.763977
10	0xbeac4f6e	-0.3365435
11	0xc1afef9c	-21.991997
12	0xc1bdabf5	-23.708963
13	0xc1529cbc	-13.163265
14	0xc1baa78b	-23.331808
15	0xbe3a8d66	-0.18218002
16	0xc1358b77	-11.346549
17	0xc0aa8c18	-5.3296013
18	0xbe9dd80e	-0.308289
19	0xc0008b8b	-2.008517
20	0xbfe8d0bc	-1.8188701
21	0xbea078e6	-0.31342238
22	0xbf9aadef	-1.208433
23	0xbeaf5a6d	-0.34248677
24	0xc099d696	-4.8074446
25	0xc19f060d	-19.877954
26	0xbec383ea	-0.3818658
27	0xc0409674	-3.009183
28	0xc1a06d44	-20.053352
29	0xbf97a9d3	-1.1848701
30	0xc19e14ef	-19.760221
31	0xbd3a15f0	-0.045431077
32	0xbe073978	-0.13205516
33	0xc071deca	-3.779223
34	0xc0d61ae8	-6.6907845
35	0xc1469a3b	-12.412654
36	0xbf045811	-0.5169688
37	0xbe948545	-0.29007927
38	0xbfe2d29d	-1.7720524
39	0xc182b312	-16.337437
40	0xc1bc621b	-23.547903
41	0xc0f3c5da	-7.617902
42	0xc0b35f3b	-5.605375
43	0xbd450aa9	-0.04810587
44	0xc1bb3385	-23.400156
45	0xc1bcf79a	-23.6209
46	0xc0207306	-2.5070205
47	0xbf1c117e	-0.6096419
48	0xbe83506d	-0.25647298
49	0xbea937a5	-0.33050266
50	0xc1923da3	-18.280096
51	0xc1abdf0f	-21.483915
52	0xc11aea13	-9.682147
53	0xbe63327a	-0.22187224
54	0xbe58e510	-0.2118113
55	0xc0be203e	-5.941436
56	0xbe068926	-0.13138255
57	0xbf376fd6	-0.71655023
58	0xbeaedc0d	-0.3415226
59	0xc1ab737c	-21.431389
60	0xbdb06ee8	-0.08614904
61	0xc080afc7	-4.021457
62	0xc03af786	-2.9213576
63	0xbeb4a792	-0.35284096
64	0xbfce0a71	-1.6096936
65	0xc1ba6401	-23.29883
66	0xc1bcce5b	-23.60076
67	0xc116f260	-9.434174
68	0xc1b9e2b5	-23.235697
69	0xc1bb8b00	-23.442871
70	0xbed05b06	-0.40694445
71	0xc1186f30	-9.527145
72	0xbe30c394	-0.17262107
73	0xba52e000	-0.0008044243
74	0xbf55ec72	-0.8356391
75	0xbec0b07d	-0.3763465
76	0xc1aa6ffc	-21.30468
77	0xbe57f11e	-0.21088073
78	0xc07b4eae	-3.9266772
79	0xc060abaa	-3.5104775
80	0xc19fde8e	-19.98367
81	0xc13efadb	-11.936244
82	0xc1bd2fef	-23.648405
83	0xc1892fba	-17.148304
84	0xc13dde32	-11.866747
85	0xbf9a3945	-1.2048727
86	0xc1454bc8	-12.331001
87	0xc166d955	-14.42806
88	0xc0a49ad8	-5.143902
89	0xbdb30fda	-0.08743258
90	0xc1bc852c	-23.565025
91	0xc1ba283b	-23.269644
92	0xbfd60a0f	-1.672182
93	0xc03dce40	-2.9657135
94	0xbf20bf4e	-0.6279191
95	0xc1bb405a	-23.406422
96	0xc1bf806b	-23.937704
97	0xc1bc5698	-23.542282
98	0xbee4aad2	-0.44661576
99	0xbf2c7fa6	-0.67382276
100	0xc1aea0d2	-21.828526
101	0xbd165d2e	-0.036709957
102	0xbe8de46a	-0.2771333
103	0xbeb91422	-0.36148173
104	0xc1ac6177	-21.54759
105	0xbeb88c56	-0.36044568
106	0xc15c7618	-13.7788315
107	0xbeeb906a	-0.46008617
108	0xbf606316	-0.87651193
109	0xc1bab729	-23.339434
110	0xc195100a	-18.632832
111	0xc036ec52	-2.8581738
112	0xbf513616	-0.81723154
113	0xc188a10e	-17.07864
114	0xbcc8a488	-0.024492517
115	0xbfb1bc58	-1.3885603
116	0xbe866e6d	-0.26256123
117	0xc11158bb	-9.084163
118	0xbe745584	-0.23860747
119	0xc1ba11a5	-23.258615
120	0xc28ab91a	-69.36153
121	0xc2efd327	-119.91241
122	0x3ffec2c2	1.9903185
123	0xc30d9968	-141.59924
124	0xc2e3fb86	-113.99126
125	0xc2f72690	-123.57532
126	0xc2d4a9a5	-106.33134
127	0xc3175ba2	-151.35794
128	0x3f612e5e	0.87961376
129	0x40fcff1c	7.9061413
130	0xc2efe6ba	-119.95064
131	0xc30b89c5	-139.53816
132	0xc2b281c5	-89.253456
133	0xc317d611	-151.8362
134	0x403eb0d6	2.9795432
135	0x41d3d209	26.477556
136	0xc30a0e16	-138.05502
137	0x3ef20da2	0.47276026
138	0xbfa9473c	-1.3224864
139	0xc3150b97	-149.04527
140	0xc14f5759	-12.958825
141	0xc2f116b5	-120.54435
142	0xc3116320	-145.3872
143	0xbee1142b	-0.439607
144	0x3f70a446	0.9400066
145	0x40b0e7e5	5.5283074
146	0xc30a2924	-138.1607
147	0xc314015e	-148.00534
148	0xc30197e9	-129.5934
149	0xc2ce39a8	-103.11261
150	0x3e722d59	0.23650111
151	0xc310c064	-144.75153
152	0x41c3c2a2	24.470036
153	0xc2fcbf20	-126.37329
154	0xc311395e	-145.22409
155	0x3f91b8fa	1.1384575
156	0x404d972c	3.2123518
157	0x41c3bfed	24.468714
158	0x3f603052	0.8757373
159	0x407e5d44	3.9744425
160	0xc30de187	-141.88097
161	0xc3172373	-151.13847
162	0xc3060f06	-134.05869
163	0x3d51a370	0.051181257
164	0x4096c99a	4.7121096
165	0xc31256b7	-146.33873
166	0xc3048658	-132.52478
167	0xc2c753ca	-99.66365
168	0xc31403e5	-148.01521
169	0xc314d03c	-148.81342
170	0xc2fd378e	-126.608505
171	0xc2929f31	-73.31092
172	0x4066dee0	3.6073532
173	0x40ebea20	7.3723297
174	0xc3106651	-144.39967
175	0xc394cd3b	-297.60336
176	0x41c2eaf9	24.364733
177	0xbfdff6fe	-1.7497251
178	0x3fa162e2	1.2608302
179	0x400e8afc	2.227233
180	0xc2d89d87	-108.30767
181	0x3ee13074	0.4398228
182	0xc2e80b9f	-116.0227
183	0xc2eee616	-119.44939
184	0xc314ebfa	-148.92178
185	0x3fafea9e	1.3743474
186	0xc317301f	-151.18797
187	0xbf32736a	-0.6970736
188	0x4013eefe	2.311462
189	0x40161c73	2.3454864
190	0xbebd4016	-0.36962956
191	0xc01ba234	-2.431775
192	0x41d937db	27.152273
193	0xc2fb7e49	-125.74665
194	0x41dd643d	27.673944
195	0xc3109e59	-144.61855
196	0xc3056091	-133.37721
197	0xc2a22751	-81.07679
198	0xc314d8c5	-148.84676
199	0xc29ea31b	-79.318565
200	0xc2fab59a	-125.35469
201	0xc30cf6de	-140.96432
202	0x3e7572e1	0.23969604
203	0x402ddca9	2.716593
204	0xc310a602	-144.64847
205	0xc314e028	-148.87561
206	0xbff59d64	-1.9188657
207	0x3f5bd2b2	0.8586837
208	0xbfdaeac0	-1.710289
209	0xbcaaf61e	-0.020869311
210	0x4025db1b	2.5914981
211	0xbf98efec	-1.1948218
212	0xc30657a4	-134.34235
213	0x40983250	4.7561417
214	0x3f15b032	0.5847198
215	0xc02c85d0	-2.6956673
216	0x3f21ab7e	0.631523
217	0xc31c1b0e	-156.10568
218	0xc309c0a9	-137.75258
219	0xbfadf874	-1.3591447
220	0x3f1d0abe	0.61344516
221	0x3cab83cc	0.02093687
222	0xc30376ed	-131.46455
223	0x3f98a678	1.1925802
224	0xbf9e31d0	-1.2358952
225	0x41d527ce	26.644436
226	0xc2cb4069	-101.6258
227	0x41dc7c1d	27.560602
228	0x4018a315	2.3849537
229	0xc2979f78	-75.81146
230	0x408d77eb	4.4208884
231	0x3ffa378e	1.9548204
232	0xc311871f	-145.52782
233	0xbd3d05ce	-0.046148114
234	0xc2dcb230	-110.34802
235	0xc3133853	-147.22002
236	0xc2e75a63	-115.67654
237	0x40f144fa	7.53967
238	0xc3126707	-146.40245
239	0x3cdc38fe	0.026882645
240	0xbfa069d9	-1.2532302
241	0xbf78a45a	-0.9712578
242	0xc0e29428	-7.0805855
243	0x3c701808	0.014654167
244	0xc096a25f	-4.7073207
245	0xbf04565a	-0.5169426
246	0xbd938d16	-0.072046444
247	0xbdb3d29f	-0.08780407
248	0x3dab223e	0.083561406
249	0xbe96d99d	-0.294629
250	0xbe81bad9	-0.25337866
251	0xc0202551	-2.5022776
252	0xc095ad8e	-4.677436
253	0x3d2a58cc	0.04158859
254	0xc0891578	-4.2838707
255	0xbef8058a	-0.48441726

fc2.bias f4 [84]
0	0xc007498e	-2.1138644
1	0xc0ad655b	-5.4186225
2	0xbe4b91f6	-0.19879898
3	0xc2386573	-46.09907
4	0xbe4ee2ba	-0.20203677
5	0xbe2f5b3f	-0.17124651
6	0xc03600c8	-2.8437977
7	0xbe3747b4	-0.17898446
8	0xc045634e	-3.084186
9	0xbe744b2c	-0.23856801
10	0xbf84a177	-1.0361775
11	0xbf3ed6ec	-0.74546695
12	0xbe3a849d	-0.1821465
13	0xbed98240	-0.42482185
14	0xbf862106	-1.0478828
15	0xbfb03338	-1.3765631
16	0xbe813a92	-0.25239998
17	0xc0e65cba	-7.198819
18	0xbe7f3204	-0.24921423
19	0xbef1931d	-0.4718255
20	0xbecbb3d6	-0.3978564
21	0xc0d8875a	-6.7665224
22	0xc09b0e1e	-4.8454733
23	0xbf034b93	-0.5128719
24	0xbeefe362	-0.46853167
25	0xbf7e7c3e	-0.9940833
26	0xbecd6d49	-0.4012244
27	0xbf7c2756	-0.9849752
28	0xbf062875	-0.5240548
29	0xc072ccb4	-3.793744
30	0xbf1e6f0e	-0.61888206
31	0xbea412e2	-0.32045656
32	0xbf859c44	-1.0438313
33	0xc046c1cd	-3.1055787
34	0xbfa57acc	-1.29281
35	0xbe7e84d4	-0.24855357
36	0xbe76e1a4	-0.24109513
37	0xc0ce861a	-6.45387
38	0xbf3af4da	-0.73029864
39	0xc078c42c	-3.8869734
40	0xbf7ec712	-0.9952251
41	0xbfaf1bd0	-1.3680363
42	0xbef8fcfe	-0.48630518
43	0xbe6759ec	-0.22592896
44	0xbfb1bc98	-1.3885679
45	0xbeea21ea	-0.45729
46	0xbe8d5aa3	-0.27608213
47	0xbe3ffc8e	-0.18748686
48	0xbeb55866	-0.35419005
49	0xbf8104a8	-1.0079546
50	0xbeb35256	-0.35023755
51	0xbe4f008e	-0.20215055
52	0xbe2988ab	-0.16556041
53	0xbf545532	-0.829425
54	0xbea665d1	-0.32499555
55	0xbfc48ba2	-1.5355113
56	0xc0a91a17	-5.284435
57	0xbf8169c4	-1.0110402
58	0xc173f410	-15.247086
59	0xbf61bcb6	-0.88178575
60	0xbfa1d56e	-1.2643259
61	0xc0aefd64	-5.4684315
62	0xbf9fde11	-1.2489644
63	0xbeb2417e	-0.34815592
64	0xbf85d95c	-1.0456958
65	0xbf9abd88	-1.208909
66	0xc096cc82	-4.7124643
67	0xbee227ea	-0.44171077
68	0xc110c193	-9.047259
69	0xbe05f209	-0.1308061
70	0xbf87d4fa	-1.061187
71	0xbfa38285	-1.2774206
72	0xbfd6cd65	-1.6781431
73	0xbea95d8e	-0.3307919
74	0xbe8066de	-0.2507848
75	0xbf339481	-0.70148474
76	0xc00eca0a	-2.2310815
77	0xbe24486b	-0.1604325
78	0xc0b12288	-5.5354652
79	0xbfd2a01d	-1.6455113
80	0xbf0fd585	-0.5618518
81	0xbfcd8774	-1.6056962
82	0xc07a8262	-3.914208
83	0xbeee3496	-0.46524495

fc3.weight f4 [10, 84]
0	0x4263d21a	56.955177
1	0xc2928556	-73.26042
2	0x3e8f9e96	0.2805068
3	0x3f83bbba	1.0291665
4	0x3f295122	0.66139424
5	0x3e97649b	0.29568943
6	0xc22d751e	-43.364372
7	0x3e16b25c	0.14716476
8	0xc2930ec6	-73.528854
9	0x3dc96b06	0.09834866
10	0x415ce6b4	13.806324
11	0x41eb5ee9	29.421343
12	0x3ed1d552	0.40983063
13	0x3d7c637e	0.06161832
14	0x41b275c6	22.307507
15	0x426a832b	58.628094
16	0x3e89c3fd	0.2690734
17	0xc2bf09a7	-95.51885
18	0xbbf835a0	-0.007574752
19	0x3e1ba78a	0.1520063
20	0x3d64578c	0.055747554
21	0xc2544185	-53.063984
22	0xc2b67a28	-91.23859
23	0x3d763a30	0.060114086
24	0xc1734dd8	-15.206505
25	0x4118ec8f	9.557754
26	0x3ea4b52e	0.3216948
27	0x41824836	16.28526
28	0x3e760159	0.24023952
29	0xc2241150	-41.016907
30	0x3d7978a4	0.060906067
31	0x3e6d6f7e	0.23187062
32	0x417d352e	15.825483
33	0xc256abda	-53.667824
34	0xc1d8468d	-27.034449
35	0x40291df2	2.6424527
36	0x3dd6780c	0.10472116
37	0xc27f59fe	-63.837883
38	0x3ff46162	1.9092219
39	0xc2bd9899	-94.79804
40	0x40f9351a	7.787732
41	0x44649052	914.255
42	0x404cf654	3.2025347
43	0x3df0d0aa	0.117585495
44	0x3ff82456	1.9386089
45	0x3cd8a258	0.026444599
46	0x3e7af4fc	0.24507517
47	0x40b34bf8	5.6030235
48	0x41f738b0	30.90268
49	0x42007c71	32.121525
50	0x3f07e11e	0.53077877
51	0x3ec6087b	0.38678345
52	0xc107fb7c	-8.498898
53	0x4287cfab	67.9056
54	0xbcd21752	-0.025645886
55	0x428b58c7	69.67339
56	0xc2a0b800	-80.359375
57	0x4001fb3f	2.0309598
58	0xc36aa937	-234.661
59	0x412b0bee	10.6904125
60	0x40c5eda7	6.1852603
61	0xc2a13f5a	-80.62373
62	0xc2100b6c	-36.011154
63	0xbcc5111c	-0.02405601
64	0x41d0117e	26.008541
65	0x424d54a5	51.33266
66	0xc221aed0	-40.420715
67	0x3fc14cc4	1.5101552
68	0xc3022412	-130.1409
69	0x3de69d5e	0.11260484
70	0x422f320d	43.798878
71	0x4269f934	58.493362
72	0xc1ea6b7c	-29.302483
73	0x3ee347df	0.4439077
74	0x3e97c94e	0.2964577
75	0x3e06d59e	0.13167426
76	0xc203824e	-32.87725
77	0x3e288712	0.16457775
78	0xc2a41ad2	-82.05238
79	0x42808432	64.258194
80	0x42047fd3	33.12483
81	0x4317ea18	151.91443
82	0xc21c9676	-39.146935
83	0x3ec1e74e	0.37871784
84	0x429ff274	79.97354
85	0x3f82cb11	1.0218221
86	0xbf9103f6	-1.1329334
87	0x3f091065	0.5354064
88	0x3e374cdc	0.17900413
89	0x3edc29ee	0.4300074
90	0x3f1aca82	0.6046525
91	0xbf2a22c1	-0.6645928
92	0x3f8b6743	1.0890888
93	0x3db284d5	0.08716742
94	0x408f8ad3	4.4856963
95	0x40fc7b5f	7.89006
96	0x3eaf2d4e	0.34214252
97	0x3e1b916e	0.15192196
98	0x4114b411	9.293962
99	0x419fc4e0	19.97113
100	0x3eea9672	0.45817906
101	0x414334fc	12.200436
102	0x3eafcbc6	0.34335154
103	0x3e3d6e46	0.18499097
104	0x3d355fc0	0.044280767
105	0x419278d3	18.308996
106	0x3f5efc9a	0.8710419
107	0xbda73d7f	-0.08166026
108	0x3e5438ee	0.20724842
109	0x40268cee	2.6023517
110	0x3eaab8fe	0.33344263
111	0x40621056	3.532247
112	0x3ce87bc4	0.028379329
113	0x41a31469	20.384966
114	0xbd2322a4	-0.039827958
115	0x3e8e1943	0.27753648
116	0x4195e454	18.736488
117	0x3ef2fd7a	0.47459012
118	0x3ded738e	0.11594306
119	0x3f19e103	0.60108966
120	0x3e20e76c	0.1571328
121	0x412371b0	10.215256
122	0x3fec4b8a	1.8460553
123	0x40b20083	5.5625625
124	0x4109e416	8.618185
125	0x439a405b	308.50278
126	0x3fa0c470	1.2559948
127	0x3d0a9a50	0.03383857
128	0x3f44abf6	0.7682489
129	0x3deb49c5	0.1148868
130	0x3ef24142	0.47315413
131	0x40ce6802	6.4501963
132	0x41313b28	11.076942
133	0x411a8e90	9.659805
134	0x3efa1f23	0.4885188
135	0xbe39c04c	-0.18139762
136	0x3eaef072	0.3416782
137	0x414daa79	12.854119
138	0xbd13baab	-0.036066692
139	0x4196f43a	18.869251
140	0x3fd15ba4	1.6356091
141	0x4000774a	2.0072808
142	0x4192dabc	18.356804
143	0x3f813707	1.0094918
144	0x410ce9c9	8.807076
145	0x401b7306	2.4288955
146	0x3eb86a22	0.36018473
147	0xbd0b6590	-0.034032404
148	0x40bc1161	5.8771214
149	0x4153660e	13.212416
150	0x40ad754e	5.4205694
151	0x3f822879	1.0168601
152	0x410ce19a	8.8050785
153	0x3dfb0f7a	0.12258811
154	0x410aafce	8.667921
155	0x41a11c25	20.138742
156	0x3f6682d2	0.90043366
157	0x3ef8dfc2	0.48608214
158	0x3ecf52ea	0.40492946
159	0x3db03566	0.08603935
160	0x40dd1164	6.908373
161	0xbd64ed6c	-0.055890486
162	0x403fbf3f	2.9960477
163	0x4192be79	18.343004
164	0x4111aa58	9.104088
165	0x42330c60	44.762085
166	0x3ff80aa4	1.9378247
167	0x3efae4b2	0.49002606
168	0x42186e98	38.108
169	0x419a6100	19.297363
170	0x3df9e152	0.122011796
171	0x4032273e	2.7836452
172	0xbedd51fe	-0.43226618
173	0x3e84f46e	0.25967735
174	0x40e0230a	7.004277
175	0x3e1797c2	0.14803985
176	0x4080cbf6	4.0248976
177	0x3df4e0ae	0.11956917
178	0x4117eb38	9.494926
179	0x41a874ce	21.057034
180	0x3deb2068	0.114807904
181	0x3f056e59	0.521215
182	0x4166744b	14.403392
183	0x421e864c	39.63115
184	0xbeccbda9	-0.3998845
185	0x4207ca7a	33.94773
186	0x3dae8964	0.08522299
187	0xbdb67f6c	-0.089110225
188	0xbeb1b0e5	-0.34705272
189	0x423ad135	46.704304
190	0x40998e04	4.798586
191	0x41a28812	20.31644
192	0x3d29a5f4	0.04141803
193	0x41008212	8.031755
194	0x3e8b5ac2	0.2721768
195	0x4125cc3e	10.362364
196	0x3f02ad89	0.51046044
197	0x421c5aca	39.08866
198	0x429155ee	72.66783
199	0x3dadb2dc	0.0848138
200	0x41195079	9.582147
201	0x408aa293	4.3323455
202	0x3f8edb6c	1.1160712
203	0x40ac5eb0	5.3865585
204	0x3eda502a	0.42639285
205	0x42197941	38.368412
206	0x3f989d4c	1.1923003
207	0x41284a7b	10.518184
208	0x40993092	4.787179
209	0x44098ad9	550.1695
210	0x3f306b1f	0.68913454
211	0x3e28c7c9	0.16482462
212	0x4015f585	2.3431103
213	0xbe44a1e3	-0.1920238
214	0x3dc0e068	0.09417802
215	0x402a4428	2.66041
216	0x41ad74c6	21.682018
217	0x41bc4070	23.531464
218	0xbebab36a	-0.36465007
219	0x3d23f9c2	0.04003311
220	0x3f061da5	0.52388984
221	0x4240d590	48.208557
222	0x3d3f1388	0.046649486
223	0x42452d53	49.294262
224	0x419c8342	19.56409
225	0x40752670	3.830471
226	0x423816aa	46.022133
227	0x4113081f	9.189483
228	0x407d7d3e	3.9607692
229	0x41b4f6a4	22.62043
230	0x40911578	4.5338707
231	0xbd862fa4	-0.065520555
232	0x41940452	18.50211
233	0x420ba484	34.91066
234	0x41ff0d7a	31.88158
235	0x3f359483	0.70929736
236	0x41776680	15.462524
237	0x3c520cc0	0.012820423
238	0x41f85876	31.043194
239	0x4217605b	37.844097
240	0x40a62324	5.1917896
241	0x3e3e15bb	0.18562977
242	0xbccd61a0	-0.025070965
243	0xbe840862	-0.25787646
244	0x41bd3868	23.652542
245	0xbbe18030	-0.006881736
246	0x41a42bd6	20.521404
247	0x422ac8e1	42.69617
248	0x41a30344	20.376595
249	0x42c2a185	97.31547
250	0x40dc4bd6	6.8842573
251	0xbe8bd1f2	-0.27308613
252	0x42fd3eb4	126.62247
253	0xc2d05c4a	-104.18025
254	0x3e676452	0.22596863
255	0xc58ca1cd	-4500.225

fc3.bias f4 [10]
0	0xbe0ab436	-0.13545308
1	0x3d7bcd70	0.061475217
2	0xbe640a0c	-0.22269458
3	0xbbf093c0	-0.007341832
4	0xbe0af3d7	-0.1356958
5	0xbcc1126c	-0.023568355
6	0xbe1e7c37	-0.15477072
7	0x3d825b76	0.06365101
8	0xbd98ed6c	-0.0746716
9	0x3ea4008a	0.3203166
